part_3/Lab3/step_2/models/ver1.pt (torch, 5655 bytes, 5 tensors)

weight f4 [24, 6]
0.3814162 -0.12992442 -0.28333908 0.056700885 -0.088819265 0.024391055 0.15581803 0.367806
0.49940342 0.31301075 -0.30836308 0.24662083 0.018267531 0.526894 0.11591367 0.08863489
0.21645954 0.044119127 -0.08767003 -0.11525336 -0.38950762 -0.21003646 -0.2905408 0.040791273
0.25845674 0.012221596 0.055195328 -0.0019911102 0.30106142 -0.22238393 0.4341058 0.057458457
0.12241782 0.14782202 -0.09848816 -0.41414446 0.063027754 0.12563291 -0.0015976763 -0.44975406
-0.3280355 0.13951442 0.20204985 0.4004058 -0.12902173 -0.25093114 0.2507329 0.32986042
0.64339113 0.051686928 -0.16290353 -0.120621 0.23948532 0.319949 -0.09568724 -0.16964914
-0.11236459 0.13710076 0.013162136 -0.16251242 -0.21267447 0.031681027 0.27704224 0.20428772
0.05206422 0.026222374 0.34504032 -0.37044248 -0.09176773 -0.38120717 -0.20462275 0.17625725
0.3368245 0.13070351 -0.16797824 -0.107678846 -0.27298713 0.05196255 -0.35289434 -0.66993713
0.026612896 0.09587234 0.03135808 -0.14986771 -0.03524266 0.5437941 0.041762657 0.3731154
-0.29570222 -0.10667438 0.32409155 -0.0807367 -0.16099186 0.018578857 -0.062660456 0.13152683
-0.041159682 -0.41915503 0.13034402 -0.11052166 0.08345104 -0.050885312 0.70427835 -0.06554757
0.21103759 0.15497285 0.122235514 -0.10554065 0.18888794 0.06334378 -0.026426584 0.44973043
0.16897975 -0.31755888 -0.046291377 0.23969467 -0.24274728 0.085879385 0.3476282 0.18502864
-1.9581919 0.014980904 -0.30470014 -0.62675864 -0.024488807 0.101067655 0.16726726 0.21862152
-0.14151841 0.14071313 -0.18317136 -0.14252223 0.2538202 -0.36148027 -0.05395755 -0.07970442
-0.057954993 0.1982607 0.64026713 0.49622348 0.0029960226 0.25575936 0.16920824 -0.06077495
00000000: fc48 c33e e80a 05be d211 91be 303f 683d
00000010: e0e6 b5bd c0cf c73c c38e 1f3e 1151 bc3e
00000020: ceb1 ff3e f242 a03e c4e1 9dbe 2c8a 7c3e
00000030: caa5 953c 86e2 063f 2564 ed3d 3686 b53d
00000040: 92a7 5d3e 42b6 343d 588c b3bd f409 ecbd
00000050: 8b6d c7be cc13 57be c4c1 94be c014 273d
00000060: 7154 843e 173d 483c 7f14 623d 497d 02bb
00000070: b924 9a3e 9db8 63be 1e43 de3e 8f59 6b3d
00000080: 32b6 fa3d a85e 173e 29b4 c9bd be0a d4be
00000090: b214 813d eaa5 003e 1f69 d1ba 2a46 e6be
000000a0: 45f4 a7be dedc 0e3e 28e6 4e3e fd01 cd3e
000000b0: 461e 04be 0c7a 80be 1060 803e 77e3 a83e
000000c0: 48b5 243f acb5 533d 2fd0 26be 2508 f7bd
000000d0: a43b 753e 5bd0 a33e acf7 c3bd 81b8 2dbe
000000e0: 681f e6bd 2464 0c3e 00a6 573c a869 26be
000000f0: 56c7 59be f7c3 013d 7bd8 8d3e cd30 513e
00000100: 4b41 553d 4ed0 d63c 20a9 b03e a3aa bdbe
00000110: b8f0 bbbd 962d c3be a088 51be c87c 343e
00000120: 4374 ac3e 24d7 053e 7d02 2cbe ba86 dcbd
00000130: f8c4 8bbe afd6 543d 91ae b4be 0081 2bbf
00000140: 4a03 da3c b858 c43d 5571 003d ec76 19be
00000150: 9c5a 10bd 1736 0b3f 520f 2b3d fb08 bf3e
00000160: 4866 97be 1978 dabd 54ef a53e 4859 a5bd
00000170: 0ddb 24be b032 983c 2054 80bd f8ae 063e
00000180: 0e97 28bd 7d9b d6be e778 053e 2e59 e2bd
00000190: 61e8 aa3d 1e6d 50bd 964b 343f ce3d 86bd
000001a0: 3d1a 583e 34b1 1e3e 9d56 fa3d b225 d8bd
000001b0: d76b 413e 62ba 813d 907c d8bc 1143 e63e
000001c0: 0709 2d3e 1497 a2be 079c 3dbd 8572 753e
000001d0: be92 78be 88e1 af3d 53fc b13e 2678 3d3e
000001e0: 08a6 fabf 7772 753c a801 9cbe 4173 20bf
000001f0: c09c c8bc 8ffc ce3d 1c48 2b3e 52de 5f3e
00000200: 34ea 10be 1a17 103e 4691 3bbe 59f1 11be
00000210: b9f4 813e f113 b9be 9802 5dbd 123c a3bd
00000220: 3762 6dbd da04 4b3e 8ce8 233f 0111 fe3e
00000230: eb58 443b e4f2 823e ed44 2d3e 27ef 78bd

bias f4 [24]
-0.018558145 4.4084063 4.0579586 -0.34545937 4.2750115 4.3127046 4.9188533 4.0997686
4.0027313 -0.3943218 4.048459 -0.28079766 4.8513145 4.8047514 4.223363 -0.3054031
4.489712 4.2662845 4.141985 4.4079304 3.9219596 4.744325 4.641721 4.537741
00000000: 4007 98bc aa11 8d40 ccda 8140 0de0 b0be
00000010: e5cc 8840 ad01 8a40 3f67 9d40 4e31 8340
00000020: 6016 8040 8ce4 c9be fa8c 8140 b6c4 8fbe
00000030: f83d 9b40 86c0 9940 ca25 8740 cc5d 9cbe
00000040: b9ab 8f40 6785 8840 248b 8440 c40d 8d40
00000050: 6301 7b40 83d1 9740 fa88 9440 2d35 9140

weight f4 [18, 24]
0.1484575 1.0543205 0.9093451 -0.047477648 0.9093704 0.89138514 1.3018737 0.977554
0.7496393 -0.002497524 0.846102 0.14886197 1.2366059 1.6475885 0.91942275 -0.079551086
1.3135325 1.1205543 1.1032792 1.014468 1.2820262 1.0781714 1.3604145 0.815165
0.054955572 1.0134634 0.9300884 0.11966011 0.8839659 0.84328353 1.301892 0.88992333
0.82872534 -0.054045543 0.8958735 0.16791758 1.2588812 1.7082837 0.9949238 0.19067895
1.2348491 0.95767564 0.7379068 0.8450017 1.241591 1.1501006 1.5569739 0.79439116
-0.1493935 -0.20909333 -0.10589434 -0.039503098 -0.41760227 -0.16015223 -0.3495832 -0.16668414
-0.40172607 0.025056317 -0.19085084 -0.00433138 -0.37882677 -0.31726012 -0.3280611 0.059770167
-0.10708092 -0.08452318 -0.24481905 -0.2438808 -0.18356046 -0.18354934 -0.24642718 -0.37048194
-0.07747595 0.77561563 0.627221 -0.071448416 0.954963 1.1206912 1.2309545 0.8402585
0.73892194 -0.11969031 0.8181013 -0.11498676 1.369871 1.4853736 0.97765625 0.16677639
1.2226579 1.0501014 0.82502586 1.0602376 1.3472948 1.2800692 1.6159215 0.8783095
-0.17454971 -0.27746743 -0.044052288 0.1793899 -0.35376957 -0.06479879 -0.35180935 -0.152703
-0.3101397 0.022702977 -0.19194609 -0.026810214 -0.21948086 -0.22869426 -0.1098242 -0.002377674
-0.36347577 -0.16482264 -0.40677536 -0.16882445 -0.23502496 -0.40349925 -0.17146716 -0.047492463
-0.19384284 -0.25141457 -0.3174406 0.06057012 -0.11085452 -0.26506448 -0.1291695 -0.06645171
-0.24402425 -0.10083895 -0.12478071 0.1870102 -0.40110973 -0.31606412 -0.20063964 -0.016744822
-0.21839136 -0.4384713 -0.22705469 -0.41707245 0.04233655 -0.26602894 -0.26909658 -0.055772968
0.05578035 -0.24878998 -0.07002544 -0.029544681 -0.4780303 -0.076285094 -0.2690165 -0.3821809
-0.39467376 -0.113326974 -0.123861656 -0.07891849 -0.19926278 -0.13022491 -0.3411556 0.055217177
-0.34271035 -0.15691526 -0.14053619 -0.2808252 -0.18581516 -0.41704845 -0.33692175 -0.03290036
0.12325305 -0.22044526 -0.25722545 0.19936168 -0.38136587 -0.095836096 -0.37783864 -0.2972701
-0.38347644 0.069268525 -0.38845778 -0.0429274 -0.3252681 -0.19879226 -0.0116401445 0.17088845
-0.16542813 -0.15410948 -0.15759967 -0.2897445 -0.08268998 -0.30898285 -0.11771482 -0.16305797
-0.083973065 -0.19808173 -0.29524052 -0.16199638 -0.43057823 -0.05986949 -0.10435276 -0.42654294
-0.41198868 0.14856899 -0.28166234 -0.06082955 -0.12699904 -0.2494048 -0.308809 -0.08655444
-0.09678332 -0.22795448 -0.21083622 -0.20590842 -0.3348642 -0.26406193 -0.049800843 -0.1775732
0.16763559 1.0558468 0.89461297 -0.06654255 1.100392 1.0509214 1.0225897 0.860047
0.7737525 -0.15243383 0.797334 0.023684546 1.2854476 1.4189047 0.87545276 0.17056578
1.1732863 1.1040782 0.9355325 0.8695277 1.3861302 1.0076287 1.4922465 0.8804932
-0.04643418 -0.01269831 -0.13635674 -0.15288107 -0.4222589 -0.21181105 -0.4111647 -0.02699054
-0.3027561 0.10863003 -0.3570813 0.111436546 -0.35506186 -0.09043317 -0.037746925 -0.06894529
00000000: 3e05 183e f9f3 863f d7ca 683f ec77 42bd
00000010: 80cc 683f d131 643f cca3 a63f fb40 7a3f
00000020: 5ce8 3f3f 80ad 23bb 249a 583f 466f 183e
00000030: 1a49 9e3f 2ee4 d23f 4a5f 6b3f aeeb a2bd
00000040: d521 a83f 536e 8f3f 4138 8d3f 16da 813f
00000050: 6f19 a43f 8501 8a3f 1022 ae3f a7ae 503f
00000060: 1819 613d 2bb9 813f 461a 6e3f 5c10 f53d
00000070: 974b 623f 6ee1 573f 66a4 a63f 04d2 633f
00000080: 5827 543f dc5e 5dbd f757 653f 96f2 2b3e
00000090: 0523 a13f 0aa9 da3f 53b3 7e3f 5841 433e
000000a0: 890f 9e3f 3b2a 753f 76e7 3c3f 0852 583f
000000b0: 74ec 9e3f 7f36 933f ec4a c73f 385d 4b3f
000000c0: 9cfa 18be 901c 56be 22df d8bd 00ce 21bd
000000d0: f7cf d5be f2fe 23be 92fc b2be 3faf 2abe
000000e0: 0aaf cdbe e842 cd3c 676e 43be 40ee 8dbb
000000f0: 95f5 c1be eb6f a2be a0f7 a7be 90d1 743d
00000100: 3e4d dbbd 7d1a adbd d8b1 7abe e3bb 79be
00000110: 46f7 3bbe 5cf4 3bbe 6857 7cbe cfaf bdbe
00000120: b6ab 9ebd bf8e 463f 8e91 203f 8c53 92bd
00000130: 7578 743f cf72 8f3f eb8f 9d3f 2e1b 573f
00000140: fd29 3d3f 3120 f5bd 166f 513f 2e7e ebbd
00000150: ef57 af3f b920 be3f ae47 7a3f 6ec7 2a3e
00000160: 0e80 9c3f b969 863f e534 533f deb5 873f
00000170: 2874 ac3f 4fd9 a33f 84d6 ce3f e4d8 603f
00000180: 29bd 32be 3610 8ebe 2c70 34bd fcb1 373e
00000190: 4921 b5be 3ab5 84bd 5b20 b4be 2d5e 1cbe
000001a0: a1ca 9ebe 98fb b93c 848d 44be 18a1 dbbc
000001b0: 97bf 60be d42e 6abe 83eb e0bd c0d2 1bbb
000001c0: 7f19 babe 44c7 28be dc44 d0be 51e0 2cbe
000001d0: 62aa 70be 7497 cebe 1695 2fbe 7587 42bd
000001e0: bd7e 46be 69b9 80be 9387 a2be 6018 783d
000001f0: b207 e3bd 88b6 87be 0245 04be d617 88bd
00000200: 7ee1 79be a784 cebd 078d ffbd 9a7f 3f3e
00000210: 415e cdbe 28d3 a1be 7a74 4dbe 702c 89bc
00000220: fca1 5fbe 4f7f e0be 0681 68be 858a d5be
00000230: 1769 2d3d f234 88be 07c7 89be 3272 64bd
00000240: f079 643d cdc2 7ebe 7f69 8fbd b007 f2bc
00000250: 63c0 f4be 5c3b 9cbd 88bc 89be 37ad c3be
00000260: ae12 cabe f917 e8bd 2eab fdbd 04a0 a1bd
00000270: 8b0b 4cbe ae59 05be f2ab aebe 682b 623d
00000280: bb77 afbe 65ae 20be b8e8 0fbe 52c8 8fbe
00000290: 5446 3ebe 6087 d5be 0281 acbe 87c2 06bd
000002a0: 186c fc3d 67bc 61be 0eb3 83be 7825 4c3e
000002b0: 6342 c3be b745 c4bd 1174 c1be c933 98be
000002c0: 0657 c4be a8dc 8d3d f0e3 c6be a4d4 2fbd
000002d0: 8a89 a6be 3390 4bbe 4eb6 3ebc 62fd 2e3e
000002e0: fe65 29be e0ce 1dbe cf61 21be 6459 94be
000002f0: 5d59 a9bd 0033 9ebe 7814 f1bd abf8 26be
00000300: 12fa abbd f0d5 4abe c429 97be 61e2 25be
00000310: c074 dcbe b639 75bd e6b6 d5bd d663 dabe
00000320: 2ef0 d2be 7822 183e 0c36 90be 6828 79bd
00000330: 090c 02be f963 7fbe 371c 9ebe 7443 b1bd
00000340: 5536 c6bd e66c 69be 73e5 57be a8d9 52be
00000350: 5273 abbe 2033 87be f8fb 4bbd c0d5 35be
00000360: aaa8 2b3e fd25 873f 5b05 653f 7647 88bd
00000370: a5d9 8c3f 9884 863f 38e4 823f 0a2c 5c3f
00000380: a514 463f 9d17 1cbe 151e 4c3f 1806 c23c
00000390: 8c89 a43f ab9e b53f ac1d 603f cca8 2e3e
000003a0: 3f2e 963f 6f52 8d3f 0f7f 6f3f 5e99 5e3f
000003b0: b76c b13f faf9 803f ef01 bf3f 0168 613f
000003c0: c431 3ebd 930c 50bc 1aa1 0bbe db8c 1cbe
000003d0: 5232 d8be ffe4 58be 2e84 d2be 441b ddbc
000003e0: d902 9bbe 6c79 de3d 5cd3 b6be d838 e43d
000003f0: abca b5be 0735 b9bd 859c 1abd 3033 8dbd

bias f4 [18]
3.7496881 3.7922502 -0.13533436 3.672772 -0.24500158 -0.33477786 0.027267959 -0.17427774
-0.39376995 3.670005 -0.08435828 3.776232 -0.015470852 4.0420313 -0.07681579 3.7198017
3.6457922 3.6787803
00000000: e4fa 6f40 3ab4 7240 1795 0abe b20e 6b40
00000010: b2e1 7abe 0168 abbe 0e61 df3c dd75 32be
00000020: 379c c9be 5de1 6a40 09c4 acbd c9ad 7140
00000030: 7579 7dbc 5258 8140 9951 9dbd 3b11 6e40
00000040: a954 6940 2371 6b40

weight f4 [1, 18]
1.2633305 1.1526866 -2.8153207 1.1111035 -2.347117 -2.9825203 -2.7475746 -2.818781
-2.7449787 1.2263143 -2.8320105 1.1276056 -2.6467965 1.0413084 -2.678967 1.1508069
1.0787129 1.1572273
00000000: d0b4 a13f 3c8b 933f 372e 34c0 a438 8e3f
00000010: 2a37 16c0 9de1 3ec0 43d8 2fc0 e866 34c0
00000020: bbad 2fc0 def7 9c3f a93f 35c0 6155 903f
00000030: 1d65 29c0 9849 853f 3274 2bc0 a44d 933f
00000040: 4413 8a3f 0620 943f
