part_3/Lab3/step_2/models/ver2_2_top.pt (torch, 8403 bytes, 7 tensors)

weight f8 [24, 6]
00000000: 88e4 e64f a863 e53f e315 2cee ecbb bdbf
00000010: c8d8 389c 8765 d83f 6d90 967a dcf8 9c3f
00000020: c7bf 164c aee5 853f c9b5 4438 d548 c33f
00000030: 6e41 2a99 1bf6 c73f a90f 26fd 530e ee3f
00000040: 113e 46a2 f455 a6bf 7bb8 d6e4 73b1 ae3f
00000050: bbbe 0cb7 af88 a4bf 2ccb 2111 f049 bc3f
00000060: b928 fbad 7fb6 db3f 62ff 1754 5747 d6bf
00000070: f16b 2bc7 f6ff d43f 41e1 86db 118f d4bf
00000080: 6613 c25f fff1 b3bf 45e8 8565 b8de 963f
00000090: ec2f d310 8ec9 debf 261e e4aa cab3 a73f
000000a0: cb8e 4fce 3f56 c83f 6783 15be bf17 8cbf
000000b0: 76bc fcc9 880c a73f 449b d1f1 6705 babf
000000c0: f151 c0da 5a3f b13f afb1 f51e fa5b e3bf
000000d0: 5f66 f538 0020 cfbf fa22 831d 5090 9c3f
000000e0: 9d79 10f3 78f3 c7bf 97d3 f137 6659 ca3f
000000f0: 6e5d 50af b3da d23f 2786 b935 ad69 db3f
00000100: 67b3 7603 86be ddbf 8782 7d21 4fb2 cb3f
00000110: 616a 9299 ee7b c2bf 9532 e0fe c486 cf3f
00000120: 8d46 498a 19da bebf 4030 6c75 6a9e e53f
00000130: fc45 ea26 3c93 a33f c456 23da 3699 b9bf
00000140: c823 4116 c4a7 c5bf 3753 b255 5d08 b5bf
00000150: 28ba d4cd f1f6 b83f 2fab d244 f7bb d9bf
00000160: d5ef 55d0 8b5b d6bf d9f1 2739 2b07 d2bf
00000170: 0406 baaf 9c21 c53f 808f a29e 96d9 be3f
00000180: 7024 08a2 5880 e3bf 61a7 bca1 061c dcbf
00000190: 1a49 5798 ba4d d73f 948e 398a b9e0 d2bf
000001a0: ffc1 7df0 9623 b5bf 15b8 212b 6f3c d23f
000001b0: 40aa 8335 cc78 b9bf 3f27 3daf a337 d3bf
000001c0: d3dc 83f5 9bcf c63f 61b1 fbdc f07d d23f
000001d0: aed8 2a13 bd0b cd3f df32 f3ae 8d23 c8bf
000001e0: 3c5d ee40 edb5 be3f 4b79 1022 dfae dc3f
000001f0: c421 0cae 6bdf d23f bb2f c4fd 698d ae3f
00000200: 16e1 1112 ad83 873f bfe0 36c2 6d03 d53f
00000210: b730 3174 7d4f fd3f 4e39 f152 bfda e23f
00000220: f357 a39c 7a2b e03f 9270 6e15 6a08 cd3f
00000230: b237 a950 feca abbf 2712 8d18 89af e03f
00000240: 7312 2121 7d05 f23f c1f4 b808 a352 973f
00000250: fafe 7445 6d6b db3f 2d91 ad14 62f3 c1bf
00000260: 16d2 e482 f208 be3f 858e ee85 6410 b13f
00000270: 0d2d b607 f122 f13f f11b 6565 68c8 df3f
00000280: 1861 0cdc af8e bfbf d203 d47f 9f89 d23f
00000290: fa77 91fa b9e0 c0bf 7f31 5d0b f981 d2bf
000002a0: 4b52 8959 2955 d1bf c48e ac43 0db2 e63f
000002b0: 8ad1 ff6c f272 c7bf 042b c2ca 69b4 993f
000002c0: 4acb 1057 189e a3bf 49f6 93c6 835f d63f
000002d0: 8662 9a21 ca53 c1bf 7f02 4ce7 773a df3f
000002e0: 3264 aecb 6c01 a53f b38b ab42 7f8d ad3f
000002f0: 7224 1b9f caab 653f 8e23 e681 489e 7dbf
00000300: 008c 34d2 0f65 eabf 951c c8a6 a69e da3f
00000310: 54f8 8d77 bdc4 c83f 193d c1ab 9077 e0bf
00000320: 6e11 bfe3 fba0 d4bf 15ee 6140 1354 a33f
00000330: 3199 4303 2006 e2bf c476 0795 bff7 c7bf
00000340: c2df e247 1327 b13f 7e2c 4423 6c10 d9bf
00000350: ce1e 6377 511d bc3f 576a 08ca 4b4a 94bf
00000360: f36d a5c5 1d72 ea3f 6cf1 2701 184a d73f
00000370: 34aa 06eb 32f6 ccbf c1ee 3a5e c0c6 c3bf
00000380: 2256 a2e4 dae5 c13f 085c 9f7b 9a8e c1bf
00000390: 51e1 8316 8b9a b13f 34fb 9eb5 6576 e0bf
000003a0: 3a06 8ada a3a6 c4bf 3141 5015 b3af c93f
000003b0: a042 1b23 6219 cbbf e00c 4ac6 ee76 d2bf
000003c0: 0b61 4da1 e5f4 ea3f ad72 4489 219e e63f
000003d0: 976f 94d6 1d40 bb3f 1bed 5909 cd1b e03f
000003e0: d93e 8f55 9642 7abf 81ac 2748 aa77 d2bf
000003f0: 8971 8f62 839f e83f 97f8 c342 6bd2 e23f
00000400: 6b7d 48bf 4080 e23f f53e e8aa c45c b03f
00000410: 670e 48f5 402c a4bf dd0a e2e5 ea56 d63f
00000420: 0d18 25fd 2a34 dd3f 0d6d c708 d41a e43f
00000430: a828 0eda cba4 b0bf 8b16 f92a c4ef e13f
00000440: 3c32 4813 4422 c03f e52f 0896 3e63 abbf
00000450: bbd5 a055 45b9 dbbf 76e9 9a02 9338 e4bf
00000460: 3eed abda f397 c9bf ff24 8604 c044 b73f
00000470: 237d 3a00 d453 c7bf 9fca af9b bb02 b7bf
0.6684152184090104 -0.1161487657046432 0.3811968827825578 0.028293080312906605 0.010691987702415319 0.15066018340568935 0.1871981141926073 0.9392490333852851
-0.04362453919304355 0.05994760673944285 -0.040105334372467515 0.11050320070516467 0.4330138396295627 -0.3481043168285308 0.32812280130536836 -0.3212322849099288
-0.07791133964390226 0.022333985516049166 -0.48105193751393815 0.046293576584556725 0.19013211797493165 -0.013717172611622265 0.04501750436463052 -0.10164498952654549
0.0673729690609617 -0.604977665394065 -0.24316408902341188 0.02789426021698469 -0.18711768978478185 0.20585324985190986 0.29459850426197576 0.4283249878554635
-0.4647536310028983 0.21637906203524812 -0.14440710543279336 0.24630033917528196 -0.12051543832901697 0.6755878728304268 0.03823268866575444 -0.09999411416660126
-0.16918231093066383 -0.08215888349725452 0.09751807475252205 -0.4020975277041314 -0.34933753342897705 -0.28168755132335616 0.16508825855639497 0.12050763485836846
-0.6094172634776793 -0.43921056551572774 0.3641191947655372 -0.29496611116904004 -0.08257430430763434 0.28493861400682025 -0.09949947649480695 -0.30027095902606854
0.17821073043862742 0.2889368207968542 0.2269207328406017 -0.18858500521164154 0.11996348223907644 0.4481733162555385 0.29488651272597743 0.05967265341504865
0.011481620897243288 0.32833427397009624 1.8319067515140384 0.5892025585142535 0.5053074893319248 0.2268192867894681 -0.05428309187537596 0.5214276771080834
1.1263400358303925 0.022776172072771276 0.4284318140307587 -0.14023996362369343 0.11732402511263049 0.06665638227291922 1.0710306454882954 0.49660692121363953
-0.12327098009371118 0.2896498440095999 -0.13185810789849467 -0.28918291196603 -0.27082284683027485 0.709234840560804 -0.18319540331107148 0.025102284431834057
-0.038315544727444875 0.3495797576177649 -0.13536955490851116 0.4879436262854497 0.041026496756963474 0.05772016228527068 0.002645393128521572 -0.007231028778172622
-0.8248366456576832 0.4159332874991802 0.19350403154016027 -0.5145953516565981 -0.3223256801686806 0.037750817879864375 -0.5632476867438411 -0.18724818016828781
0.06700249199900468 -0.3916273445508479 0.10982236065603532 -0.01981466694460673 0.8264302120473402 0.363897324685033 -0.22626339412575336 -0.1545029125317026
0.13982711948180887 -0.1371644118905524 0.06876439380346723 -0.5144527957234915 -0.1613354508481722 0.200674424559574 -0.21171213831123215 -0.28850907673058934
0.8423946524081044 0.7068031006816305 0.10644709099545789 0.5033936674730372 -0.00641115879348294 -0.28855378195175524 0.769471828938138 0.5881859115613847
0.578155873870782 0.06391553089656184 -0.03940012926252905 0.34905502748021694 0.45630907746488064 0.6282749339547152 -0.06501459191909709 0.5605183448139582
0.12604571286682809 -0.05349155026860312 -0.43318303453574075 -0.631906037414679 -0.19994972398112937 0.09089279280137318 -0.1822457314601503 -0.08988544989532919

bias f8 [24]
00000000: e954 78fd 9440 16c0 989d aff6 9469 1bc0
00000010: 5dc4 a65d f665 13c0 b4df 94c7 901e 1240
00000020: 5a79 a7de 7215 13c0 8801 5be4 5c19 1240
00000030: cdf9 3036 a00c 0d40 1ec9 a61e 99a2 11c0
00000040: e54a 7686 bba4 14c0 baac 4b38 a9ef 15c0
00000050: de92 341a 6389 1040 5643 5d8b 61cf 0940
00000060: 1619 ceb7 c5f5 0940 0772 fbdb ea17 1040
00000070: 72f3 f5f6 2ae4 0c40 da91 def2 5cee 19c0
00000080: ebdc cffe 3860 0d40 0ac4 e8c1 a9d8 13c0
00000090: eabf e1d2 81c5 0f40 efee 0e09 971d 12c0
000000a0: 6bbb 301e cc08 0c40 c763 3d9d c5bf 0d40
000000b0: 4c4f 9eea 3ac6 0c40 f965 5930 957b 13c0
-5.56306835219332 -6.8531073136031395 -4.849572623542454 4.529849165402926 -4.770946005794338 4.524768417410435 3.631164954537985 -4.408787230424677
-5.160871602029805 -5.4840439602077655 4.13416710801968 3.2262602699123972 3.2450060233851543 4.023356854650507 3.61141007364352 -6.48277644618471
3.6719837100205175 -4.9615850733107525 3.971439025415738 -4.528896466766795 3.5042955740568025 3.718638637958495 3.596792061763983 -4.870686297851983

weight f8 [1]
00000000: 3203 d845 8d2b 0140
2.1462655502840784

weight f8 [18, 24]
00000000: e09a 22cc 6131 ddbf 8e3f c311 5b68 01c0
00000010: 3a3f 569d 314c e0bf b165 eb55 2b91 e73f
00000020: fea6 d1ea 8b32 e3bf 9f6e 82d0 c605 ed3f
00000030: e320 4aa4 e600 e33f d6b1 1c59 7a58 e6bf
00000040: 2000 238e 72be edbf d45b 36b3 a68c e0bf
00000050: 29b8 a2d3 bcca e83f 7952 5776 05cf e93f
00000060: 63b6 b1d1 547a e63f ed95 7f13 5342 ed3f
00000070: 4023 c651 f497 e43f 1e3f 6783 12e9 0cc0
00000080: b195 38b6 fc1a e83f 823b 0f60 8ae2 ebbf
00000090: 8134 11b5 eb31 ec3f 7288 d2fc dbcc ebbf
000000a0: 0525 1ae0 354d e53f 947b e249 9203 e23f
000000b0: e6b4 76ab 47df e33f 4672 c25b 85b0 ebbf
000000c0: 40b1 60de 2884 bc3f 28ef 9420 b1fb cebf
000000d0: fa2d fd49 b3b3 ce3f 7cfa 5ed2 95b2 bdbf
000000e0: 65e3 a26e 22b5 c33f e660 b5b9 f859 b33f
000000f0: c08b 02f2 3e15 9e3f d7af 3996 12e8 973f
00000100: 5111 fc34 54de cf3f bae7 a30f 986b d13f
00000110: 63a7 ac4e 7f1f a23f 2b41 9179 c0b6 8d3f
00000120: ddf7 6c40 a660 ab3f 163a e4d6 79f4 abbf
00000130: 7228 a404 5ff0 c3bf bd06 75aa f3b1 b5bf
00000140: 7c52 3020 41a2 c1bf e5d5 801d 5fa7 d03f
00000150: d82d f292 6133 8c3f 8963 c73d b9e1 c93f
00000160: 9bc5 d339 632b a3bf 33c8 6554 ac9f b8bf
00000170: 20b7 f88f 434e b23f 62db 8aba 557c c23f
00000180: e460 8065 d9f9 c9bf 273a 435e 109e b3bf
00000190: 8b0d c607 a7e2 c2bf cdb0 8c6d 7e9d 8f3f
000001a0: b614 ae3b 2e50 cebf 2808 5da6 89a6 d1bf
000001b0: cecb 6ce0 aa41 773f a6ee 48f5 f10a 51bf
000001c0: aa93 118c 0bba c63f 0bf3 e2fe 11c7 c4bf
000001d0: 72cd 4902 9c37 aebf da8e 74ca a009 dcbf
000001e0: 1c97 e06c 1755 d2bf e612 41c3 7075 d1bf
000001f0: 383a 49c3 5bea c43f d06d 10ac 3c37 c33f
00000200: 62d9 45c4 4722 d23f 9af1 3c8d af01 a23f
00000210: 76f5 cece 9e87 d7bf 49ba f215 77a2 abbf
00000220: fb01 209d 3fc0 9f3f 1a7c 28e9 1ecb a43f
00000230: 2dc0 c707 65ac c5bf 406d 8351 c914 743f
00000240: 9617 450a 166b c83f 1a36 2fe3 2e02 9a3f
00000250: a02e 3a46 7f6d 9a3f 5969 4a05 bf7b d2bf
00000260: 55c4 9c78 ca8a c63f 7fde 9d20 a59d c5bf
00000270: 5fe9 9dee 69f2 ccbf c587 226f 148c d33f
00000280: 6354 9079 9490 b83f 2b9b aabc b1c7 b3bf
00000290: c97d 2ee7 f8d3 d1bf 1e2d 5798 fec8 c1bf
000002a0: b2f0 d50b 02e7 b3bf 14ae b14f 41d3 93bf
000002b0: 50a2 4ac4 5627 ccbf ea35 2394 e75f 66bf
000002c0: 82a2 c974 a132 713f 77a9 b42d 347c c63f
000002d0: e2a8 84f2 be1f be3f 8b38 7022 8f1d a9bf
000002e0: f133 2882 5d3d 9bbf 4fe2 22dc 269a cdbf
000002f0: 3849 ee99 af92 cabf a750 49ca d31c b53f
00000300: a963 de74 cff1 b93f 7658 e5db 911a b3bf
00000310: c7f4 59cd c276 bcbf 546c 9fbe 6e29 b6bf
00000320: f862 6086 b4b9 aebf 95a4 f296 151c b53f
00000330: ceb1 5de8 a2b2 cabf 6155 d7b8 b686 8bbf
00000340: b59b ea71 e535 953f c6ad 6f75 0546 973f
00000350: cf03 1372 c02f b0bf 0ebd 4f80 a3f5 953f
00000360: b415 db3a fa1c b43f 303e 83a2 ccba b6bf
00000370: 4195 e793 dfbe 83bf da4e 1fa2 3976 cd3f
00000380: a01e a5f2 42fb c1bf dbf0 a57b 6d8e bf3f
00000390: b3d1 6b98 c47b b1bf 8e6b 3356 18e6 cb3f
000003a0: a540 1b9d 8af0 bf3f 8f67 25ad 380a c4bf
000003b0: f00d 4a94 8975 c1bf 077a 3f3d f267 c63f
000003c0: 2cf4 3c28 6c2d c03f f9ed ad63 decd b63f
000003d0: 637f 30a0 0899 c43f 08ed 5488 0260 cebf
000003e0: d03e 4113 b4a3 c53f 9225 9606 6f8a cdbf
000003f0: 7da4 2a95 a155 d0bf 302f a67a 3cee d43f
00000400: e27c 97fe c743 cf3f 21b0 f5ec 5ec6 acbf
00000410: 6c96 f346 a9c6 babf 0e1c 5924 aad4 d0bf
00000420: dd1e b9f6 74b7 ae3f 3a7a d3ca 8dbd d0bf
00000430: 3ec8 fe63 8349 cfbf 9e15 359b f441 bd3f
00000440: 1300 3a70 ec6a c5bf 5b75 6ca2 83b8 c93f
00000450: 1211 e1c9 7565 c0bf 24cc bb94 e06f cc3f
00000460: cde7 87e6 4bd0 c3bf e052 2955 98ff c2bf
00000470: dbf2 54b5 8850 ad3f fdf8 e3ae 8fc8 d23f
00000480: 76b3 2407 207d c63f 511e e647 5ba1 c8bf
00000490: e2ec 430e d16a 8dbf 1a10 7e7b e342 82bf
000004a0: 1498 2ab3 4cc3 b43f 7c91 d8d7 9f56 c93f
000004b0: 3f1e a92a 58b7 cbbf 64a0 4026 54bd cb3f
000004c0: acf0 7a70 e9f6 83bf a78a 55e2 3506 d53f
000004d0: b26f bf23 0c2b b3bf 27c4 b357 1251 b1bf
000004e0: bfd5 340e 1c76 b23f 8192 0863 bce1 c03f
000004f0: 217b 399e bb7b ae3f c7fd a57e 6634 a8bf
00000500: 82d6 cc6d 3adf e23f 046a 4487 f8bc c9bf
00000510: 9543 2f58 f205 b23f 615b 401d 385e bf3f
00000520: 903a 46b4 65e1 a23f 6ed6 0da3 d507 84bf
00000530: 05f2 8592 8e40 7ebf 441b bcb4 76aa b3bf
00000540: d721 c9ea 355d a1bf 67fc 2124 066e c1bf
00000550: 726c 2296 5fdd a53f 608b 3819 eb27 c8bf
00000560: 9713 feb5 1ad5 c73f 2ab4 4220 72bc b93f
00000570: e1a6 e50f fc73 b9bf 9028 2aec 42ac ca3f
00000580: a2f9 2514 aeef b13f dadf 1985 ff0c cb3f
00000590: 2198 c21a b9ae c6bf 1fc6 1426 6d13 a0bf
000005a0: 32dd 9fbd b5da b83f 87cd 4ef7 29f2 b53f
000005b0: c3fb 44d4 7930 c9bf c6f3 d4c5 9a03 b43f
000005c0: 97f6 c7cb c2d2 babf 2ce3 2f5b a8fa a43f
000005d0: ef25 c0b5 c58f b93f c1fe deaa c87a bbbf
000005e0: 5a4b 5849 42a2 9a3f d614 0ca8 35c1 a83f
000005f0: be3a a090 aaa0 a4bf f001 4b71 ed06 c73f
00000600: a5ce d1d2 d076 b1bf 0d51 67ba 427d c4bf
00000610: c534 1f63 fa37 ba3f d7d4 b74f 3fa5 c4bf
00000620: f106 61f2 878e abbf ae39 dd64 88a7 d33f
00000630: de1d edd9 aae1 d1bf 51fd f0af 6708 ce3f
00000640: a7d3 c93b 7794 b7bf f4bd 8aa3 9e86 ce3f
00000650: ea43 6f0a df1f a33f d35e 0a0e 5c18 a63f
00000660: 8bbe cfb2 689a a13f 35bc b724 08be b23f
00000670: 9157 704b d607 ccbf ab41 0a09 ecdc 9e3f
00000680: b390 e8ad 5d08 da3f d8fc d3dc 2620 c7bf
00000690: 3539 bed4 e2d2 c9bf 079c 37d5 6554 933f
000006a0: 650d 6730 d908 c4bf 746c c065 d07f c13f
000006b0: e2f5 6673 921c 95bf 8f35 b8b8 e25c a43f
000006c0: 9f22 5e8c 1ed0 ddbf 8fb0 1ebe d495 febf
000006d0: 953f 0ed1 f3ee ebbf 45f4 4b2a fa3d e03f
000006e0: 1e7e ebb6 f536 edbf 5c3d aec6 2376 ec3f
000006f0: 57cd 5334 3f33 e93f ecb4 e592 7e2c e8bf
00000700: 3302 4198 4006 ecbf 637a 325e c225 e8bf
00000710: ee88 42e3 ebc3 e73f 0d46 1c00 6ec3 eb3f
00000720: 932b 34f2 11d6 e73f 4239 ef56 3265 ef3f
00000730: 9ba2 1a9e adb6 e93f 63cb 8a93 c15b 0dc0
00000740: c44b 0c11 51ff e43f ebe0 9928 b79b e5bf
00000750: 0adc a632 3729 ee3f a3df 0500 875b edbf
00000760: b551 2cb1 4b23 ec3f 796e 9aa9 8060 ec3f
00000770: 4f87 3cdc c4f9 e93f dc92 fcef e07b eebf
00000780: d197 aada 842c d8bf aef9 c9a4 9beb 9dbf
00000790: 2288 dfa0 7cf8 b5bf 7a48 dcaf 8610 d63f
000007a0: 82ba d976 ad04 b93f fa2c e587 4b78 cb3f
000007b0: ec62 c82f d578 893f f296 1101 fd94 76bf
000007c0: 537d 45f1 2f8f bb3f 70f4 bf20 8897 ac3f
000007d0: 46b8 77c1 c8da c83f 7460 9aef d3b4 d5bf
000007e0: 7f82 3268 6076 cbbf dfca 547c a0c6 95bf
000007f0: 3d55 88d5 b90d ac3f 9c25 395f 036f cc3f
-0.45613903937412026 -2.1759549510679284 -0.5093010018335697 0.7364708593478807 -0.5999202333743765 0.9069551536990338 0.5938599785595468 -0.6983005276175003
-0.9294979835613084 -0.517169332527255 0.774748242712808 0.806521159300771 0.7024330230321535 0.9143462544276965 0.6435491177700001 -3.613804842556319
0.7532943305019925 -0.871403873077597 0.8810938393086333 -0.8687572420060532 0.6656751038546252 0.5629359667835723 0.6210058545017574 -0.8652979652575332
0.11139159611838512 -0.24205602732569642 0.23985901940100957 -0.1160062445260141 0.15396528627550335 0.07559160741709867 0.029377921601404955 0.023346224230792103
0.24897244059696758 0.27219201590889563 0.03539655528432097 0.014508727750723502 0.05347175156064996 -0.05459957836329836 -0.15577304579375412 -0.08474657928038716
-0.13776411124912957 0.2602155483358202 0.01376987676328316 0.20220103756471655 -0.037440396126736185 -0.09618641911018315 0.07150671257906227 0.1444193993426906
-0.20293729263426663 -0.07663061429341465 -0.14754188422749012 0.015437114446818967 -0.2368219176679866 -0.27578965422083224 0.005677859770730499 -0.0010402071831227349
0.17755264605798732 -0.16232514329558287 -0.059018016127903375 -0.4380876519301019 -0.28644357330846204 -0.2727929980067486 0.16340205226375004 0.15012319947787356
0.28334230582495057 0.035169111243223486 -0.36765260883461026 -0.05397388594552816 0.031006807294035692 0.04061218830269571 -0.16932356719871802 0.004902635955853996
0.19076800824603585 0.02539895307181981 0.025808323537190092 -0.2888028670946788 0.1761105622222511 -0.16887344448672434 -0.22614788199627875 0.3054247937490085
0.09595611541620168 -0.07726584297288912 -0.27856276108101646 -0.13894636572363422 -0.07774365223844162 -0.01936056183732944 -0.2199505289511472 -0.0027312777539012416
0.0041986758120421425 0.17566539985393678 0.11767190380911388 -0.049053643182660776 -0.026601277417331152 -0.2312668394931898 -0.20760149971153807 0.08247111977226727
0.10134598353614756 -0.07462417238761695 -0.11118714822255803 -0.0865697112453046 -0.06001056804979571 0.08245978293656926 -0.20857654901500527 -0.013440539852050905
0.020713410451800935 0.022728047650088866 -0.06322863373772168 0.021444849688063754 0.07856716095837762 -0.08878783195108819 -0.009641405774298508 0.23017044464233188
-0.14048039291286774 0.123267023742247 -0.06829479905338225 0.2179594441321026 0.12476412139517608 -0.15656193212890598 -0.13639945736586823 0.1750471877157482
0.1263861843562223 0.08907880719737439 0.160920217721464 -0.2373049894029935 0.16905833187273922 -0.23078716107947322 -0.2552265125946816 0.32704078652817525
0.24425601893651733 -0.05620094912123386 -0.10459382993902872 -0.26298001813523875 0.059993414990967976 -0.26156945044741386 -0.2444309461839697 0.11428765095941748
-0.16732554893315008 0.2009434264263444 -0.1280963168848151 0.22216422331220642 -0.154794204296023 -0.14842514189026357 0.05725505078814815 0.29349128798629903
0.1756935152892784 -0.1924242116040085 -0.014363892791598724 -0.008916642385663965 0.08110503553561471 0.19795606650690079 -0.21653272707975366 0.21671535365863115
-0.009748290772556643 0.3285040579122928 -0.07487560150860764 -0.06764330521743088 0.07211470934711083 0.13188891254062088 0.05953775698139042 -0.04727478309632321
0.5897495407613891 -0.20107943158002695 0.07040323880143114 0.12253142084260339 0.03687589479078668 -0.009780568159594352 -0.007385785029665919 -0.07681981956930622
-0.033914265547142435 -0.13617016567511372 0.0427045698899854 -0.18871821147430534 0.18619092832900883 0.10053170478450171 -0.09942603481399771 0.20838200122335993
0.07006347648527947 0.21133417128635196 -0.17720712477347525 -0.03139821138246312 0.0970872486067165 0.08572637832440054 -0.1967918669197087 0.07818000154379864
-0.1047784564506976 0.04097486603854458 0.0998500412680625 -0.10734228297860239 0.0260095937029051 0.048349072230885845 -0.040288286356476175 0.17989891082653697
-0.06821923396074199 -0.1600726518796666 0.10241665763824688 -0.16129294769749578 -0.053821800553590544 0.30710038995757827 -0.2793986442743214 0.2346315011109064
-0.09210915765454662 0.2384832666916591 0.03735253336311202 0.04315459891694009 0.03438117201573928 0.07321215530804255 -0.21898916896378443 0.030139625598680258
0.40676061614272924 -0.18066869528408946 -0.20174823177189585 0.018876639498468985 -0.1565200315800254 0.13671307533590815 -0.02061680631026331 0.03977116112592249
-0.4658275957849955 -1.9115798403318285 -0.8729189952009501 0.5075655771357864 -0.9129589626936114 0.8894213562470372 0.7875057241457551 -0.7554314488494618
-0.8757632230481874 -0.7546092834271118 0.7426661909742316 0.8676061632306201 0.7448816042464038 0.9811031053484742 0.8035495841950991 -3.6698028113109316
0.6561665852517469 -0.6752582352628712 0.9425312032025215 -0.9174227714965933 0.879308553735021 0.8867801010669175 0.8117393781178438 -0.9526219069708435
-0.3777172217763765 -0.02921908562938718 -0.08582285811965609 0.34475867437243546 0.09772762443183505 0.21460861335285825 0.012437501450265974 -0.005513180062825406
0.10765361442962744 0.05584359550264473 0.1941767639795577 -0.3391618575929052 -0.21455006683119746 -0.021265513981414293 0.054792220417008576 0.22213785314151557

bias f8 [18]
00000000: 44e8 58db eb4b 0440 d188 41a1 83a8 cfbf
00000010: a35e 6eeb 0d25 cfbf 2052 2d01 3c24 cdbf
00000020: f82e 5b8a 23d2 c1bf da64 30df f895 d4bf
00000030: 463e 0edf b87e afbf 0176 9821 525d a1bf
00000040: 4404 fcf5 332c bdbf ec8f 9f8b a14d 0240
00000050: 868d e741 f9e6 ef3f b20b a86f d4ec e23f
00000060: fe07 88f8 2d5a 0740 fb6f 8f36 f492 c1bf
00000070: 17fd b38c 3986 0340 8ee8 aa58 1a8e bc3f
00000080: a054 709d 8ca3 d73f e325 992d 376f 0340
2.5370709549434043 -0.24733014463260486 -0.24331830974255295 -0.2276682859179724 -0.1392254281585037 -0.3216535739498575 -0.061513688305350686 -0.033915106392878876
-0.11395573382834906 2.287905779654457 0.9969450270840958 0.5914098912038439 2.919032994891494 -0.13729717887952106 2.4405394546917125 0.1115433184121761
0.36935725569612465 2.429304462658125

weight f8 [1, 18]
00000000: c26f 7e4f 049d f03f 67a4 c141 e4d6 c0bf
00000010: cb03 233b 8440 40c0 f28e ef3e 4235 a5bf
00000020: 7c33 3c32 626a b9bf 41f0 658a 7e57 af3f
00000030: 4f22 ff36 a1d5 42c0 4aa0 169e 341c aebf
00000040: 7eef fb42 9228 43c0 53a2 7428 8c54 ee3f
00000050: ed0d 1c67 d3e2 44c0 a0d9 1f1b 0c12 41c0
00000060: 1b70 4ea2 f986 ef3f a2c1 0b93 5c0b 40c0
00000070: ddc8 bd7c 618e ee3f 2b46 f587 a78d c0bf
00000080: 10dd 3cdf 1cf0 40c0 d1b1 8847 0696 f03f
1.0383341889600932 -0.13155797205698436 -32.50403536996563 -0.04142195719012233 -0.09927953459209776 0.06121440352851027 -37.668982386185796 -0.05880894117154918
-38.31696355153598 0.947820738806579 -41.772076500605046 -34.140994444419675 0.9852264566466177 -32.088762646427554 0.9548804699282091 -0.12932294977740474
-33.87588110420086 1.0366270822806778

bias f8 [1]
00000000: e60e fe0e be38 ea3f
0.8194265644856074
