part_3/Lab3/step_2/models/ver2_top.pt (torch, 6095 bytes, 5 tensors)

weight f4 [24, 6]
-0.5227443 -0.18266815 -0.3105148 -0.3086019 0.21260384 0.2579245 -0.036251746 0.4565919
-0.18391754 0.18141931 -0.13299413 -0.039624576 1.9184958 0.13018216 0.09493916 0.53046227
0.07509814 0.06921281 -0.0005745154 0.65609026 -0.038192727 0.17893365 -0.0686714 0.13285348
0.5981761 0.34339318 -0.35582185 -0.23974511 0.32282576 0.09713117 0.3608314 0.3907475
0.4511904 0.36501154 0.04273324 0.2567485 -0.24533731 0.39358798 -0.0026965046 -0.0023318795
0.0075643393 0.0138081815 0.46671194 0.3961295 0.3541434 0.12881422 -0.070641644 -0.008317965
1.16968 -0.16479553 0.26884753 0.4675336 0.22217537 -0.25538442 -0.12095533 -0.07243833
-0.085228145 -0.102319 -0.077713124 0.62683475 0.58591837 0.5243566 0.4428164 -0.31576502
-0.39198956 0.31835988 -0.2210152 -0.5341157 0.17037019 -0.32091728 0.0698325 -0.07289392
0.7287143 0.14832705 0.059907917 -0.04073522 -0.1124117 0.32264847 -0.2796939 -0.1575151
-0.11765444 -0.31776994 -0.017958852 0.09327966 0.5258629 0.5172357 0.10868976 0.23352174
0.3664567 -0.3227604 0.13517673 0.57328767 -0.14496681 0.0028935957 0.033769175 0.25673082
0.40791997 0.16698396 0.23368621 0.334271 0.24867292 0.08549541 0.47930384 0.0054350663
-0.20175965 0.19044922 0.29396364 0.26525512 0.41338658 0.3541032 0.1613036 0.24473993
0.09170241 -0.21904491 0.78363794 0.64345443 -0.032890923 0.28317922 0.3142433 0.18670958
1.9067973 -0.010387799 0.27727225 0.7083815 0.044827983 0.039974846 0.37292358 0.58364844
0.20069787 0.35615432 0.109769635 0.16763814 -0.23519014 -0.39431474 0.14857706 -0.048045654
0.1273055 -0.19369523 -0.14828824 -0.20982862 0.18984938 0.076005034 0.17260371 0.015379898
00000000: 92d2 05bf 5c0d 3bbe ccfb 9ebe 1101 9ebe
00000010: d2b4 593e ae0e 843e b67c 14bd 6ac6 e93e
00000020: e154 3cbe fcc5 393e 9d2f 08be 614d 22bd
00000030: 4591 f53f 794e 053e 766f c23d 60cc 073f
00000040: 0ecd 993d 72bf 8d3d 139b 16ba 88f5 273f
00000050: fa6f 1cbd 623a 373e 97a3 8cbd be0a 083e
00000060: 1222 193f 3bd1 af3e 482e b6be be7f 75be
00000070: 6b49 a53e b5ec c63d e5be b83e 0e10 c83e
00000080: 6e02 e73e cbe2 ba3e 0d09 2f3d 8a74 833e
00000090: b439 7bbe 5d84 c93e d7b7 30bb 72d2 18bb
000000a0: 47de f73b b63b 623c def4 ee3e 7cd1 ca3e
000000b0: 4952 b53e e0e7 033e 91ac 90bd 1348 08bc
000000c0: 13b8 953f 29c0 28be 62a6 893e 9060 ef3e
000000d0: f181 633e bfc1 82be 6eb7 f7bd 8c5a 94bd
000000e0: 188c aebd a08c d1bd 0f28 9fbd 3e78 203f
000000f0: bffe 153f 3c3c 063f d5b8 e23e f4ab a1be
00000100: dbb2 c8be 1100 a33e cf51 62be cebb 08bf
00000110: 8675 2e3e 454f a4be 5704 8f3d 6849 95bd
00000120: 058d 3a3f 0ce3 173e 0162 753d f9d9 26bd
00000130: 1b38 e6bd 2e32 a53e 0a34 8fbe a34b 21be
00000140: d0f4 f0bd beb2 a2be 711e 93bc 6809 bf3d
00000150: f39e 063f 8f69 043f bd98 de3d 5320 6f3e
00000160: 36a0 bb3e da40 a5be c56b 0a3e fbc2 123f
00000170: 2e72 14be 7ba2 3d3b 8c51 0a3d 3972 833e
00000180: e3da d03e d8fd 2a3e 704b 6f3e 9225 ab3e
00000190: 1da4 7e3e 3818 af3d 5067 f53e a418 b23b
000001a0: 159a 4ebe 1f05 433e 6782 963e 85cf 873e
000001b0: 68a7 d33e 044d b53e c52c 253e 1b9d 7a3e
000001c0: 79ce bb3d 4f4d 60be 7f9c 483f 6eb9 243f
000001d0: a2b8 06bd defc 903e 7fe4 a03e cc30 3f3e
000001e0: ef11 f43f 9631 2abc a1f6 8d3e 7d58 353f
000001f0: 8c9d 373d aabc 233d d7ef be3e fc69 153f
00000200: be83 4d3e dc59 b63e e7ce e03d 55a9 2b3e
00000210: afd5 70be 9fe3 c9be 9624 183e 85cb 44bd
00000220: 5f5c 023e 0b58 46be dfd8 17be 50dd 56be
00000230: e067 423e 87a8 9b3d 07bf 303e f8fb 7b3c

bias f4 [24]
-3.1276655 2.8898282 -3.9456472 -3.914051 3.6128392 3.4731917 -4.424481 2.9697978
-3.2186158 -3.5454834 3.1560657 -3.8482149 3.5569293 -3.5790002 3.6171772 3.4819741
2.793906 3.6231792 3.200094 3.0543938 -4.0423317 3.1224692 -3.3435574 -3.3756084
00000000: ac2b 48c0 f2f2 3840 7c85 7cc0 d07f 7ac0
00000010: c238 6740 c648 5e40 5995 8dc0 2b11 3e40
00000020: cdfd 4dc0 33e9 62c0 fbfc 4940 2749 76c0
00000030: bba4 6340 570e 65c0 d57f 6740 aad8 5e40
00000040: 5bcf 3240 2be2 6740 57ce 4c40 307b 4340
00000050: c85a 81c0 89d6 4740 d8fc 55c0 f809 58c0

weight f4 [18, 24]
0.27870166 -0.6718855 0.77892715 1.2066813 -0.6562786 -0.58650905 2.5933301 -0.4039718
0.0053541088 0.3649157 -0.5862273 0.61535436 -0.4575973 0.5227143 -0.39379227 -0.5778905
-0.5710298 -0.37374228 -0.45194098 -0.5036052 0.62712336 -0.6102823 0.62856936 0.11976495
0.38119394 -0.48528117 0.44561023 1.0927415 -0.66897637 -0.345406 2.3870327 -0.65613043
0.18936896 0.13691959 -0.38315722 0.7351953 -0.5789504 0.5820884 -0.6790703 -0.47733897
-0.57533157 -0.3560584 -0.39003968 -0.39816204 0.46006045 -0.66690636 0.52459234 0.19303228
-0.56910515 0.5448843 -0.6612099 -1.2009611 0.7733797 0.6215585 -2.5924973 0.7348026
-0.09596927 -0.30757627 0.5700958 -0.6764218 0.71029073 -0.5843268 0.6499437 0.74233574
0.4009095 0.63439155 0.49611983 0.51272506 -0.60510296 0.6206384 -0.7038728 -0.32524326
-0.47302997 0.730405 -0.6647427 -1.2813979 0.4567353 0.79685944 -2.467101 0.35513073
-0.36131912 -0.3482236 0.7860443 -0.7825513 0.40673482 -0.4067886 0.4136303 0.6646226
0.6435724 0.5422454 0.66388774 0.68141586 -0.65030485 0.7417491 -0.58135796 -0.5427753
0.12785017 -0.58154196 0.45581645 1.1773717 -0.61550957 -0.3835723 2.7517989 -0.5263053
-0.006200136 0.520526 -0.666558 0.65862644 -0.57994586 0.2302942 -0.67174256 -0.472514
-0.21773723 -0.46438673 -0.6029773 -0.49536258 0.7198755 -0.33301178 0.38827989 0.11456308
-0.35679242 0.41306403 -0.78227204 -1.0806832 0.50360656 0.7561639 -2.2439208 0.64099693
-0.36952 -0.30908945 0.7462091 -0.8250929 0.673666 -0.64262986 0.7584193 0.5688247
0.54553366 0.55657035 0.39339754 0.7422417 -0.6999791 0.5711169 -0.42700046 -0.19177552
0.3977926 -0.28035533 0.43934748 1.2390236 -0.70937985 -0.6526806 2.5610301 -0.5084168
0.21038917 0.33497897 -0.39333415 0.64300466 -0.49138582 0.5888399 -0.4344554 -0.5761537
-0.48970953 -0.24474539 -0.34707725 -0.25707108 0.60197496 -0.24447124 0.5942923 0.31194714
0.13370346 -0.60872227 0.6484557 1.0809222 -0.7693526 -0.6894353 2.395929 -0.58447796
0.25050968 0.23238301 -0.377044 0.67104363 -0.6792117 0.3941267 -0.48496538 -0.5439894
-0.56772375 -0.43988073 -0.71277475 -0.44241622 0.75243324 -0.30719152 0.6556231 0.13083749
-0.3757666 0.6034057 -0.6510227 -1.4732912 0.6768877 0.6310879 -2.3914766 0.45969906
-0.3148056 -0.4417519 0.43875486 -0.6942429 0.46309447 -0.39163074 0.50571215 0.6109667
0.5568531 0.6629658 0.5758467 0.55900085 -0.42110538 0.7067968 -0.31529117 -0.20246662
0.29541692 -0.2685106 0.49998778 1.2010018 -0.4638459 -0.44609046 2.7142084 -0.2954919
0.07978501 0.35804504 -0.6285125 0.71665186 -0.33692175 0.23179087 -0.42410225 -0.47604617
-0.50205547 -0.20591417 -0.36862478 -0.44426122 0.48291928 -0.57091874 0.32202724 0.26700532
0.16320212 -0.43505687 0.5691425 1.2690196 -0.60287035 -0.66670215 2.5897765 -0.53310275
0.3105521 0.32838082 -0.63005245 0.5193406 -0.65027833 0.3072555 -0.7364997 -0.77767116
00000000: fcb1 8e3e b000 2cbf c567 473f 8874 9a3f
00000010: e001 28bf 7525 16bf 1ff9 2540 64d5 cebe
00000020: 8571 af3b 3bd6 ba3e fe12 16bf dd87 1d3f
00000030: 314a eabe 9bd0 053f 249f c9be a2f0 13bf
00000040: 022f 12bf 265b bfbe cf64 e7be 45ec 00bf
00000050: 288b 203f 763b 1cbf ece9 203f 5347 f53d
00000060: da2b c33e c676 f8be 0627 e43e f4de 8b3f
00000070: 0942 2bbf 0ed9 b0be 25c5 1840 2af8 27bf
00000080: f0e9 413e a634 0c3e 2f2d c4be c235 3c3f
00000090: 1836 14bf bf03 153f 8dd7 2dbf c665 f4be
000000a0: ee48 13bf 494d b6be 48b3 c7be e5db cbbe
000000b0: 0b8d eb3e 60ba 2abf af4b 063f 41aa 453e
000000c0: e0b0 11bf 8a7d 0b3f 0d45 29bf 18b9 99bf
000000d0: 36fc 453f 751e 1f3f 7aeb 25c0 061c 3c3f
000000e0: 898b c4bd a37a 9dbe ccf1 113f fb29 2dbf
000000f0: 9dd5 353f 7196 15bf b662 263f b709 3e3f
00000100: 0344 cd3e 7c67 223f 6b03 fe3e f341 033f
00000110: 07e8 1abf 28e2 1e3f 0231 34bf 4986 a6be
00000120: fc30 f2be d2fb 3a3f 942c 2abf d904 a4bf
00000130: 36d9 e93e fbfe 4b3f fce4 1dc0 b2d3 b53e
00000140: d2fe b8be 5d4a b2be 333a 493f 4855 48bf
00000150: 8c3f d03e 9846 d0be 5ac7 d33e b524 2a3f
00000160: 29c1 243f 98d0 0a3f 8cf4 293f 4571 2e3f
00000170: 617a 26bf 45e3 3d3f e0d3 14bf 52f3 0abf
00000180: 28eb 023e efdf 14bf c660 e93e 1eb4 963f
00000190: 0992 1dbf 9763 c4be 791d 3040 f2bb 06bf
000001a0: 832a cbbb 3141 053f 8ca3 2abf be9b 283f
000001b0: 5577 14bf 3ed2 6b3e 52f7 2bbf 5bed f1be
000001c0: 82f6 5ebe 19c4 edbe b85c 1abf 2aa0 fdbe
000001d0: c349 383f 8580 aabe 9fcc c63e 0ca0 ea3d
000001e0: 7fad b6be 217d d33e fb42 48bf d453 8abf
000001f0: 5cec 003f f593 413f 669c 0fc0 6018 243f
00000200: ba31 bdbe f940 9ebe 8f07 3f3f 4a39 53bf
00000210: 6075 2c3f 6483 24bf c427 423f 7f9e 113f
00000220: 18a8 0b3f 657b 0e3f 676b c93e 8d03 3e3f
00000230: d531 33bf b834 123f ce9f dabe cd60 44be
00000240: 79ab cb3e bc8a 8fbe 27f2 e03e 5398 9e3f
00000250: eb99 35bf 1316 27bf ebe7 2340 9a27 02bf
00000260: 4270 573e 5d82 ab3e 1863 c9be f49b 243f
00000270: ec96 fbbe 36be 163f f070 debe cf7e 13bf
00000280: 35bb fabe 899e 7abe 1cb4 b1be d29e 83be
00000290: 081b 1a3f ab56 7abe 8a23 183f 89b7 9f3e
000002a0: 8fe9 083e 39d5 1bbf 3101 263f a95b 8a3f
000002b0: 4bf4 44bf d57e 30bf e756 1940 59a0 15bf
000002c0: ce42 803e d0f5 6d3e e90b c1be 84c9 2b3f
000002d0: d1e0 2dbf faca c93e 624d f8be e442 0bbf
000002e0: 5856 11bf 0c38 e1be 6878 36bf 6184 e2be
000002f0: 779f 403f 3548 9dbe ead6 273f 43fa 053e
00000300: 7b64 c0be cc78 1a3f 6ca9 26bf ce94 bcbf
00000310: 8348 2d3f fa8e 213f f40d 19c0 ad5d eb3e
00000320: 332e a1be 4e2d e2be 7aa4 e03e e7b9 31bf
00000330: b81a ed3e d383 c8be 5a76 013f 5068 1c3f
00000340: ed8d 0e3f 20b8 293f b06a 133f ae1a 0f3f
00000350: 209b d7be a3f0 343f d86d a1be 6953 4fbe
00000360: e340 973e 397a 89be 66fe ff3e 6dba 993f
00000370: 367d edbe f865 e4be 97b5 2d40 b74a 97be
00000380: 5366 a33d ae51 b73e 32e6 20bf 7f76 373f
00000390: 0281 acbe 965a 6d3e ee23 d9be 53bc f3be
000003a0: b586 00bf 2adb 52be 63bc bcbe 3576 e3be
000003b0: 3241 f73e bb27 12bf c1e0 a43e ecb4 883e
000003c0: 751e 273e c6bf debe 53b3 113f 3c6f a23f
000003d0: b655 1abf feac 2abf e6be 2540 6c79 08bf
000003e0: af00 9f3e 8821 a83e 1e4b 21bf 81f3 043f
000003f0: a478 26bf 9850 9d3e 3f8b 3cbf 7515 47bf

bias f4 [18]
-3.1956205 -3.2415993 3.077257 2.7163389 -3.3535945 3.010159 -2.9977338 -3.0940187
2.929483 -3.189976 -2.980082 -3.0530336 2.6227033 3.1887193 2.7176683 3.0626256
-3.2340076 -3.3361385
00000000: 0c85 4cc0 5d76 4fc0 c7f1 4440 7fd8 2d40
00000010: 4ba1 56c0 72a6 4040 dfda 3fc0 6704 46c0
00000020: a67c 3b40 9128 4cc0 aab9 3ec0 e764 43c0
00000030: 5fda 2740 fa13 4c40 47ee 2d40 0f02 4440
00000040: fbf9 4ec0 4b83 55c0

weight f4 [1, 18]
-0.79702914 -0.70923346 0.7066136 0.8197382 -0.63083893 0.8636217 -0.59068894 -0.6859148
0.6446178 -0.57250607 -0.6768453 -0.6898333 0.8594295 0.63004446 0.8119909 0.70356095
-0.612257 -0.5669537
00000000: 1a0a 4cbf 5390 35bf a1e4 343f 5dda 513f
00000010: a97e 21bf 5016 5d3f 6437 17bf 1d98 2fbf
00000020: ac05 253f c28f 12bf bc45 2dbf ea98 30bf
00000030: 9203 5c3f 984a 213f a3de 4f3f 921c 343f
00000040: e0bc 1cbf e123 11bf
