part_3/Lab3/models_lab3/model37.pt (torch, 3543 bytes, 5 tensors)

weight f4 [8, 2]
00000000: ce7e d83d 94de 5c3a 87fc c8b9 3efb 8d3f
00000010: 5d76 5ebf a983 2e3b 40e9 89ba 0967 523f
00000020: f6da b0ba c0f1 553f cebd c2bf 112d 08bc
00000030: 2c8e 9aba e30f 8dbe a8a0 723b e084 92be
0.10571061 0.0008425501 -0.0003833512 1.1092298 -0.8689936 0.0026628769 -0.0010521784 0.8218847
-0.001349299 0.83572006 -1.5214174 -0.008311526 -0.0011791638 -0.27551183 0.0037022028 -0.28617

bias f4 [8]
00000000: 80e0 f9bc 994d e0bb b4bc 1c3e ec04 08c0
00000010: 11a2 1a40 a04c aabf a002 fb3f c0fe 18c0
-0.030502558 -0.006845188 0.1530636 -2.1253004 2.4161417 -1.3304634 1.9610176 -2.3905487

weight f4 [11, 8]
00000000: a138 48bd 7701 0940 ee1f 9a3e b417 923e
00000010: b2a0 de3f 4cbd acbe d5d0 13bf e490 96bf
00000020: 8e9b 33bd b745 253c 4b27 39bd 1cb1 cb3c
00000030: 8006 7ebd 3b30 7c3c c8b8 09bd b29d 27bc
00000040: b93a 9f3f 60bb 1f3c 16b0 47bf ee05 f03d
00000050: 8eba e4bd a9bd dc3d f4c8 2abe d61a 593e
00000060: a21c 47bd 2194 ba3c 02dd 5a3d 611a 073d
00000070: 2914 e3bc 7d76 cebd 6a53 913c 0c90 763c
00000080: 3033 a83c 0996 41bd f2c9 03bd b729 5d3c
00000090: f466 543d bb3c 483d 05d1 ba3c 0e12 cdba
000000a0: 9b29 f5bc 9326 293f ec56 8b3e 21f1 93be
000000b0: 8810 dc3f 39d2 9bbe ef58 0cbe 898e aabf
000000c0: 1191 08bd e11b 15bc 9018 e6bb 4ddf 833d
000000d0: ee95 b7bd 5797 3bbc 768e 86bc e9d1 32bd
000000e0: b11e b33f d3dc bebd 8f04 46bf 29da 3bbd
000000f0: 97bc fc3d bab0 44be 9da6 3a3e f489 6dbe
00000100: f4c6 873d c954 a23e eeb6 0dbe bf10 b63f
00000110: f5cf 6dbe 8119 363e 68e9 44bf ab60 6e3e
00000120: a305 c43c a1d2 e93f 46ac 9abe 4228 d23f
00000130: 183a 903e 3c4b 923e c202 0bbf a526 8d3e
00000140: 3b0b 513d 4afd ec3c 463c f93b 413f 25bd
00000150: 16ce 0a3d eed8 ec3c dc53 eb3c 359d 813c
-0.04888213 2.1407144 0.30102485 0.2853371 1.739279 -0.33738172 -0.5774053 -1.1762967
-0.04384952 0.010087422 -0.04520349 0.024864726 -0.062017918 0.015392358 -0.033623487 -0.010230469
1.2439796 0.0097492635 -0.7800306 0.11719881 -0.11168395 0.10778362 -0.1667822 0.21201643
-0.04861129 0.022775711 0.053433426 0.03298414 -0.027719574 -0.100811936 0.01773997 0.015048992
0.02053222 -0.047262225 -0.032175012 0.013498715 0.051855996 0.048886042 0.022804746 -0.001564564
-0.029927066 0.66074485 0.27214754 -0.28894904 1.7192545 -0.30433825 -0.137058 -1.3324748
-0.03334147 -0.009100885 -0.007021971 0.064390756 -0.08964144 -0.011449656 -0.016425353 -0.043657217
1.3993741 -0.093194626 -0.77350706 -0.04586235 0.12340658 -0.19208041 0.1822762 -0.23197156
0.06629744 0.3170531 -0.13839313 1.422386 -0.2322386 0.17783166 -0.7691865 0.23279063
0.023928469 1.8267404 -0.3020956 1.6418536 0.28169322 0.28573024 -0.54301083 0.27568546
0.0510361 0.028929371 0.007606062 -0.040343527 0.033887945 0.028912034 0.02872651 0.015822032

bias f4 [11]
00000000: b5d7 243e 2e5c 503c ee28 8bbf d835 2ebc
00000010: 5200 d5ba 92f6 243f 1232 cebb 0de8 bf3f
00000020: 6221 e0be d863 fd3d 45da 45bb
0.1609791 0.01271729 -1.0871866 -0.010632955 -0.0016250706 0.64438736 -0.00629259 1.4992691
-0.4377547 0.12372559 -0.0030189913

weight f4 [1, 11]
00000000: 408e 833e fd78 ba3a 1cdd fbbd 3e62 1a3c
00000010: e42f 63bb 6ee6 ae3d c59f 293b 83d7 013e
00000020: 5463 e9bd a356 71be 45d4 a2bb
0.25694466 0.0014226731 -0.12298033 0.009422837 -0.0034665996 0.08540045 0.0025882584 0.12679867
-0.113958985 -0.23568206 -0.004969152
