part_4/Reinforcement_Learning/models_lab1/Kuzin_M_A_4.6_model2_winner_test_2_10.pt (torch, 41559 bytes, 6 tensors)

weight f8 [42, 14]
000000 b1 ce a7 8a 9f bd c8 3f c3 66 2c 67 e4 d0 d5 3f
       0.19328684110916108 0.34087476802379174
000010 8a 05 1f 13 59 90 d1 3f dc 96 c4 aa 9d 27 98 bf
       0.274435299561525 -0.023588622615668395
000020 7d a2 48 46 0c ae a6 3f 2a c3 8f 6a 99 db b8 bf
       0.04429663045840913 -0.09710081912613747
000030 d4 b0 68 b9 e8 fe c8 bf a2 7b 1a 38 d8 79 c6 bf
       -0.19527920773669527 -0.17559340228487225
000040 f2 16 28 aa dc 15 a4 bf d1 c3 c6 a4 73 a8 bc 3f
       -0.03922929360491691 0.11194536946165036
000050 e6 ea 30 d9 c0 f8 c1 bf 68 43 a6 7f 22 8f d3 3f
       -0.14040384869607364 0.3056112524582688
000060 1c 5c 35 ee 36 98 c5 3f 6e 41 a9 1b ab 30 cc 3f
       0.16870772010108304 0.22023524141924206
000070 28 af 39 a2 03 64 c7 bf 5e 91 ff 29 b0 49 ca 3f
       -0.18273969098242415 0.2053737835950739
000080 19 89 b5 2b 52 59 d1 bf 4c 9e 0e 3a b2 e0 e9 bf
       -0.2710767199370295 -0.8086787351539413
000090 b3 9d 2b aa aa 72 e2 3f 29 74 e8 e0 b5 5c b2 3f
       0.5764973949089182 0.07172714939993398
0000a0 e1 4c 36 0b 63 9c c7 3f e8 20 05 72 30 51 b8 bf
       0.18446004912821137 -0.09498884948436948
0000b0 5f 5a 0c c4 87 da a6 3f 96 06 08 47 77 74 c7 3f
       0.044636004144355416 0.18324175804450665
0000c0 ce 3f 97 67 f5 ca c6 3f 5e cd b3 cf f0 6d 67 3f
       0.1780688052954233 0.0028600409838134685
0000d0 b4 9a c1 c9 03 02 d1 3f 8b f4 60 ca 07 d6 83 3f
       0.2657479734684032 0.009685574401482341
0000e0 2e 21 cc 5a 35 e4 dd 3f 0a 1e b3 74 74 06 c1 3f
       0.4670537363713433 0.13300948808885976
0000f0 c9 2e 7b f9 fe ba c3 3f 57 15 4e 0a a0 b9 ca 3f
       0.15414416486452456 0.2087898302380988
000100 0e f9 ab 94 f1 10 ed bf 51 fb 28 a3 4f a8 ce 3f
       -0.9083183196778764 0.23951144663620963
000110 97 2f f2 5b 32 0c c6 3f f3 bd 3e 3b f3 ac a9 3f
       0.17224721421768827 0.05014762972075095
000120 93 de 99 3c bb a0 be 3f cc 59 b4 66 1c 99 b4 bf
       0.11964006642835505 -0.08046128756936993
000130 7c d5 23 b3 08 94 af bf 7c 14 35 40 02 e8 a9 bf
       -0.06167628466384209 -0.05059821161061337
000140 8b 91 a7 5d 2e b8 b6 3f 76 76 24 80 02 32 ab 3f
       0.08874788080681222 0.0531159192489498
000150 6e df ef b7 d8 95 d4 bf 1e e4 cd 61 be ce c1 3f
       -0.32164590799901915 0.13912181640242322
000160 29 22 b4 7e 20 f8 ce 3f 27 e3 a0 30 c8 70 ed 3f
       0.24194723307324864 0.9200173330092171
000170 86 a3 9b d7 f5 ac a3 3f 60 20 55 5b 44 8c af 3f
       0.038428957528430494 0.061617027424802684
000180 9f 38 1a 99 49 39 b9 bf 6a 41 d9 d4 d7 fa c8 3f
       -0.0985303877625676 0.19515512364388182
000190 53 f8 b6 58 e4 71 b8 bf 92 77 b7 0d 4f 33 ca 3f
       -0.09548785367857819 0.2046908204055709
0001a0 b6 ae 2a 41 56 5e ba 3f 4b b5 4c 62 be f8 c7 3f
       0.103001967344137 0.18727855491435216
0001b0 f6 78 43 66 8f 64 97 3f 5f d3 e9 6b 79 11 c6 3f
       0.022844544045136105 0.1724082734032448
0001c0 16 ba fb 04 2a f0 e0 bf e9 cc fd 0f eb 89 e0 3f
       -0.5293169114427794 0.5168357193309961
0001d0 10 27 92 1e cf 10 a7 bf 97 ce 95 21 f9 a7 e9 3f
       -0.04505011795215641 0.8017545371971718
0001e0 51 ed 5d 14 70 20 7b 3f 6a b2 0f 7a e5 a7 de bf
       0.006622731982015865 -0.47899758262682346
0001f0 b4 5a 78 89 21 7f b5 3f 3d 95 11 41 f4 2e b4 3f
       0.08397111517147487 0.07884146298018364
000200 3b 0b 5e a1 d6 9f c2 bf 42 a0 53 7e 1a 9b bc bf
       -0.14550288085237092 -0.11174169143817017
000210 40 86 cd 72 77 8f b0 bf 82 69 86 28 fa 25 a3 bf
       -0.06468912651828251 -0.03739911789598961
000220 c5 a8 9a 5a bd e2 cb 3f 08 e3 6d 7d ab b8 c4 bf
       0.2178570454028145 -0.1618856775710571
000230 45 d6 bf 75 c6 f2 d7 bf 4a 0d 1e d9 6f 70 b1 bf
       -0.37419282435380224 -0.0681219010421518
000240 52 1d 97 9b 66 eb ea 3f b4 e8 7a 5c f7 2c ad 3f
       0.8412354506371378 0.05698369029910691
000250 dd d9 49 94 04 52 d1 bf 59 e8 7d bd 4b 8d d3 3f
       -0.2706309745912259 0.30549901490269843
000260 e7 4d a7 83 b6 a9 aa 3f 28 be e8 3f 17 de 73 bf
       0.05207605702494416 -0.004850474184919608
000270 42 5a e7 d5 67 88 c2 3f cb c1 b4 06 cd 64 a2 bf
       0.1447877687885058 -0.03592529970990518
000280 4a 66 83 2a cc 4f b4 3f 80 8e de 44 81 70 9e bf
       0.07934261358186592 -0.02972604735226847
000290 bf ab fe 89 3b 93 c2 3f 43 3f 77 ec 05 b2 b1 bf
       0.1451181815912985 -0.0691226675328354
0002a0 93 c3 b1 e1 3c 97 d5 bf 0e 25 e7 61 89 a2 d7 3f
       -0.3373558239027769 0.36929544983702633
0002b0 83 7c 94 55 59 50 ce bf f4 a1 a9 89 3d 09 e6 3f
       -0.23682705572807458 0.6886279762957757
0002c0 d6 4d c7 b7 df 30 e2 3f 5c 5c 2e 29 16 0c e0 bf
       0.5684660520004694 -0.5014754108732506
0002d0 d7 e1 b1 91 1e 99 a9 bf 00 cc bd c4 35 c8 c7 3f
       -0.049996333394066 0.185797425332197
0002e0 45 c3 a6 11 06 eb bd bf 22 b9 d9 c2 d5 db a0 bf
       -0.11686742716734695 -0.0329272079805938
0002f0 fe a6 dc 95 54 1f 75 3f 8e 39 fd f2 cf 89 c5 3f
       0.0051568321339716654 0.1682681976767068
000300 a1 69 e9 ad 6c 57 c3 3f 53 32 1b ef 9e 58 c7 bf
       0.15110548488412426 -0.18239199328526698
000310 85 3c 90 ec eb e8 d2 bf 20 41 0b 1e d3 29 ef 3f
       -0.29546640493294546 0.9738555514141218
000320 fb 63 f5 32 b3 5d cd 3f ed 1b b7 21 c1 c4 e4 bf
       0.22942199695788176 -0.6490178736211171
000330 89 ee 89 92 e5 13 c3 3f bc 21 84 1f 46 9e ce bf
       0.14904470114912652 -0.23920513666986476
000340 d1 79 08 f1 c1 24 89 bf 10 32 13 21 9d 56 b1 3f
       -0.012277140777823188 0.06772787148947423
000350 0e 63 c8 8c 28 0e b1 3f 8a 8f 09 51 e7 44 a1 bf
       0.06662229001120698 -0.03372881759858533
000360 82 ba 3f 1a f3 8e 9c 3f 22 ac 91 01 4c ec a2 3f
       0.027889059521778232 0.03695905226853592
000370 49 a4 1c a6 01 03 a8 bf 8f 75 1c db d4 b8 9e bf
       -0.046897937323884316 -0.03000195109699671
000380 0d 0c 24 50 e8 12 d8 3f a6 37 ec a3 e8 6f e1 3f
       0.376154020559796 0.5449107362380701
000390 ea 75 23 b0 f7 fc e2 bf 94 b7 34 d1 10 2b e4 3f
       -0.5933798256116323 0.6302570425084348
0003a0 48 7f 1e 4e 30 31 cf 3f 74 a5 ac bd 57 81 ed bf
       0.24368861975107792 -0.922038908441364
0003b0 00 c7 e7 e8 b1 90 b7 3f fc 61 18 7b c2 61 8e bf
       0.09205161987463484 -0.01483489931256176
0003c0 5e 92 8f 83 7b 6a 99 bf 97 0b 7f b5 4e dc 96 3f
       -0.02482026091083111 0.022324781253483996
0003d0 61 0e 8e 83 a0 eb 99 bf 29 87 06 6d 29 a9 85 3f
       -0.025312908200716303 0.01057655681580945
0003e0 1a 1b 02 0e a0 c4 b6 3f 04 e1 a2 0d e7 54 97 3f
       0.08893776266095835 0.02278481503228226
0003f0 0f e3 d9 5d 73 a0 e7 3f e7 74 9c 2c a3 f7 ed bf
       0.7383362610845284 -0.9364791747390456
000400 78 ab c9 ec c1 97 8c 3f ba 44 5f 2f fa cf c7 3f
       0.013961329497041083 0.18603446305363552
000410 1d 6a fc ef 5c de ad 3f 92 b3 39 30 1f f2 85 3f
       0.05833712033764391 0.010715716990682887
000420 4b ed 76 15 a3 5c bf 3f fb 7e 72 27 82 b2 aa 3f
       0.12250727914845531 0.05214316112073721
000430 62 9e 6c 63 a5 22 b3 bf 18 40 2e 16 cd dd b5 bf
       -0.07474740674353478 -0.08541566649933008
000440 30 a6 59 c2 a8 63 ba 3f 86 a5 19 7a 1f e6 b6 3f
       0.10308317894819008 0.08944889765702699
000450 de 0f 8f 26 0a e2 b6 3f 9b 49 a2 7d 33 17 b8 bf
       0.08938659135225133 -0.09410402123675114
000460 ad cc d9 d3 3d e3 f1 bf d4 36 67 06 56 0f 60 bf
       -1.1179788852139538 -0.0019604377914451496
000470 c4 e2 e7 0a 97 b0 d3 bf ab 8a 40 e1 28 4c cf 3f
       -0.3076531988622657 0.2445117092002723
000480 f1 01 17 67 bb 9b c5 3f df 6f 35 c0 8f 06 e7 3f
       0.16881506475148414 0.719550967605297
000490 b2 68 f6 fd 62 2f a1 3f a5 fc 40 8d cc 80 b4 3f
       0.03356465673569299 0.08009031723576017
0004a0 b2 20 59 fd 69 93 bf bf 96 0c 63 ca f7 1e cd 3f
       -0.12334310946710295 0.22750756628201846
0004b0 06 52 78 21 3e 39 45 3f 67 b7 12 d2 ce cb 72 bf
       0.0006476930020107858 -0.004588897602998055
0004c0 e1 bd b3 a9 a2 fe c0 bf cb cf 5a 15 89 dd c8 3f
       -0.13277085577236306 0.194260726382366
0004d0 00 00 00 a0 94 75 7e 3f 00 00 00 a0 f3 bd a3 bf
       0.00743635231629014 -0.03855859115719795
0004e0 00 00 00 00 d6 d2 c2 bf 00 00 00 a0 c5 fd 5a 3f
       -0.14705920219421387 0.0016474180156365037
0004f0 00 00 00 a0 e3 2b cb bf 00 00 00 c0 ec 76 c0 bf
       -0.212276890873909 -0.12862929701805115
000500 00 00 00 80 23 0a d1 bf 00 00 00 80 9b b8 bf bf
       -0.2662438154220581 -0.12391063570976257
000510 00 00 00 60 91 27 c5 3f 00 00 00 00 c5 9c c4 bf
       0.16527001559734344 -0.1610342264175415
000520 00 00 00 80 30 20 cb bf 00 00 00 60 90 d7 ce bf
       -0.2119198441505432 -0.2409534901380539
000530 00 00 00 60 c2 71 ae bf 00 00 00 e0 19 1f d0 bf
       -0.05946166440844536 -0.25189825892448425
000540 bd a4 9c 61 18 0a e9 3f 8f 8e 5e 0c 96 16 ca bf
       0.7824823290331079 -0.203814273872116
000550 b9 33 60 d4 70 13 eb 3f c9 2f 1a 76 ad f7 a5 3f
       0.8461231372799524 0.04290525499990811
000560 8b 33 1e d2 7a 71 bb 3f 8e ea 7f fc 4d a2 e6 bf
       0.10720031385262822 -0.7073125774034723
000570 ab cf 11 69 e4 53 b7 bf c9 6a 2e 19 90 e9 c3 3f
       -0.09112384381461307 0.15556527356678476
000580 b5 12 a2 b2 14 3f 94 bf 07 34 58 13 c4 d1 b5 3f
       -0.019771884348773045 0.08523202392844108
000590 38 ea 04 00 59 42 b0 bf 09 bc ef 14 77 24 c8 3f
       -0.0635123848959801 0.18861282846725683
0005a0 94 76 d9 58 56 b9 c4 3f 3a cc ec 85 eb a3 d0 3f
       0.1619060453257829 0.2600048835622065
0005b0 e1 72 6c df b5 6f a6 bf 4d e2 9f 7e 99 7d d1 3f
       -0.04382103302325447 0.2732909905021515
0005c0 7e db da 84 6d 88 ba bf b7 64 48 b2 bc c3 59 3f
       -0.10364422315147512 0.0015725462664078324
0005d0 56 60 da 1d 62 0b c8 3f 2b 6d ee f2 f3 e5 a1 bf
       0.1878473897711525 -0.03495752659292813
0005e0 c4 9b f8 c4 5a a4 9d bf 3e f8 3d 4d 79 24 c4 bf
       -0.028947275421298505 -0.157363093105177
0005f0 8f e7 0d 65 ab ff c1 3f aa 95 09 64 30 62 c4 3f
       0.1406149142674704 0.1592464912857115
000600 19 4f 0d cf d3 b0 c4 bf 50 94 5f 71 a5 72 ca 3f
       -0.16164634332619057 0.20662372623260916
000610 0e 95 9a a0 aa 31 aa bf ca c8 5f 99 01 60 c2 bf
       -0.05116017542358452 -0.1435548781296972
000620 3b 2d d8 94 85 2c e1 bf be 78 4d 5d 37 36 da bf
       -0.5366847903364155 -0.40955909835419024
000630 62 df c8 23 eb cb e7 3f 50 64 2f ad eb 00 d9 bf
       0.7436423968237984 -0.3906811896573048
000640 7b 03 16 9b c2 eb cc 3f 01 a2 eb 40 cd a2 d9 3f
       0.22594482967908988 0.40056163158308783
000650 dd 58 84 9d c9 d0 c9 3f ae b4 fa b0 db 74 b3 bf
       0.20168419066675983 -0.07600186415466467
000660 a3 a8 cc 67 22 32 c2 3f 98 b2 ec 6e 01 01 be bf
       0.1421549803574794 -0.11720284422035332
000670 2f ae 4d 51 55 b8 9a 3f e4 02 8a e6 c4 17 ce 3f
       0.02609380062805949 0.2351003766707641
000680 7e cd 53 6e d4 2d bb 3f f0 d3 9e 05 53 2f 9f 3f
       0.1061680573800938 0.030453965395015048
000690 29 29 a9 a4 45 a1 d7 bf 74 23 6b aa d6 75 db bf
       -0.3692182643905136 -0.42906729357178297
0006a0 01 60 d2 3a 3e 56 d8 3f a0 d0 66 22 d9 fe e0 bf
       0.38026386017145347 -0.5311093971163423
0006b0 e9 d9 ef a4 50 e1 e4 3f 5a 2f f1 1e 6d d4 d6 3f
       0.652504274504108 0.3567154695672251
0006c0 19 17 c8 78 d9 06 b1 bf 71 0e 45 e4 f6 a0 c3 3f
       -0.0665107650639495 0.15334974428161588
0006d0 a7 88 d2 e4 76 9c c5 3f 7c 6b a8 5d 1b 4e c1 bf
       0.16883741543739925 -0.13519613335742153
0006e0 f3 14 5f 80 e0 60 c0 3f 45 69 7b 5b 78 73 bc bf
       0.127956450158457 -0.11113693459939096
0006f0 57 74 3c d6 96 ab c9 3f d0 86 15 e6 a2 41 a2 3f
       0.2005489870142891 0.035657015406071246
000700 53 08 f9 e3 f4 7c e1 bf 5e 9b ba cd 5b 7e b9 3f
       -0.5465034916490005 0.0995843293445495
000710 7d 41 7d 83 b3 87 e1 bf 42 45 8c d4 67 50 ed 3f
       -0.5478150909566889 0.916065135128669
000720 7c 0f b9 2e 12 a9 d7 3f f1 b2 60 2a de 36 b6 3f
       0.3696942764547584 0.08677471670734939
000730 f5 b0 f8 55 e2 99 bc 3f c3 90 6b 56 ce 32 a6 bf
       0.11172308539306981 -0.04335636906560716
000740 1c 4d 44 3d 0e 0e ce 3f 61 93 fa 03 ed ec a2 3f
       0.2348039435533814 0.036963850722975485
000750 dc 3c 44 41 8d ff c3 3f e5 54 4e 1d eb 24 a6 3f
       0.15623632132380905 0.04325041516055154
000760 40 65 ba b8 1a cf c5 3f 74 c8 86 7c 1f ae bd bf
       0.17038282413413164 -0.11593815603444729
000770 67 a6 df 00 ce 5a e5 3f b3 cc d0 c7 fc 96 e9 3f
       0.6673345582068578 0.799681082024469
000780 2f 1e 32 14 19 e7 d6 bf 89 05 e9 9e b1 4f d4 bf
       -0.3578551003670069 -0.3173641254289455
000790 e7 a8 68 38 fa 8a a5 bf 51 f1 b8 8c 66 04 df bf
       -0.0420759385927612 -0.4846435903780462
0007a0 37 08 8d e8 e8 20 75 3f 14 b6 10 47 fc 17 a5 3f
       0.005158338354535322 0.04119861953254769
0007b0 e2 69 58 65 29 e2 c0 3f 43 00 2e c1 a6 c9 c1 3f
       0.131901907429735 0.13896641190149425
0007c0 5e 06 50 fd 82 79 d0 3f 6b 64 2e 62 35 e3 96 bf
       0.25741648423727337 -0.022351106755739297
0007d0 b1 95 28 3f 7d d9 b7 bf d3 f9 1b bb 1f a9 59 bf
       -0.09316237251240157 -0.0015662011978175752
0007e0 d0 5d dd 95 a0 43 d1 bf ed 12 ac c4 83 c3 c4 bf
       -0.26975264201379634 -0.16221663573391912
0007f0 e1 0b 0a 7d 1a c1 e5 3f d4 04 e5 70 1a aa d8 bf
       0.6798222009823541 -0.38538228058685076

bias f8 [42]
000000 6c 08 07 45 ee 67 d2 3f b5 77 a1 a1 e2 4d c0 3f
       0.28759342900241935 0.1273768700802386
000010 85 6a cc f6 82 b2 ce bf be 43 1d 2f 3a 35 a6 3f
       -0.23982274103839898 0.04337484192968287
000020 d8 f4 66 e2 01 2e be bf f4 ac 60 87 4e ee d1 3f
       -0.11788951661488356 0.28017008991692127
000030 36 c2 05 d1 84 a3 c9 bf 58 b2 32 dc a4 8b cc 3f
       -0.20030269819427965 0.22301159622056121
000040 71 f1 7d 2e 20 91 c3 3f f8 7d 1b e6 7c c0 a2 3f
       0.15286638517489906 0.03662481602600204
000050 93 a6 7b 4c 87 a7 c1 3f 00 00 00 e0 eb 50 c8 bf
       0.13792506441614147 -0.1899695247411728
000060 91 be d9 ef 90 1c cc 3f 3d da c7 23 75 45 c9 3f
       0.21962177001431774 0.19743217703917706
000070 eb b0 c2 54 f5 92 c6 3f e5 d8 59 ee e9 0e c8 bf
       0.1763598121518791 -0.1879551328490329
000080 22 8e 52 e6 9f 7c d1 3f 26 42 d5 30 44 0f 26 3f
       0.2732314824336034 0.0001683016529718955
000090 a7 5d b2 32 02 d9 bd 3f c0 df 11 be dd 67 b7 bf
       0.11659253823960701 -0.09142862215401149
0000a0 02 5c 16 43 62 0a 9f 3f 34 dd c5 97 00 9d c6 bf
       0.03031304869145047 -0.17666633044039204
0000b0 ba f3 a0 49 8d c4 af bf 62 f4 44 0e 3c 2b b8 3f
       -0.06204644702709268 0.0944097075307169
0000c0 b1 97 19 3b 2f 54 c0 3f ff 4e 83 93 5e 63 a4 3f
       0.1275691069196774 0.03982062864966273
0000d0 b8 4b ed f8 10 78 97 3f 32 d5 8c 6f f7 a1 a3 bf
       0.02291895407990882 -0.038345081679305074
0000e0 8f b3 24 7f 77 65 b1 3f 32 a1 2b 53 96 dd b8 3f
       0.06795451025091225 0.09713115244415318
0000f0 99 93 7f 3d b5 3b a7 3f d6 97 4a c5 03 0d b8 bf
       0.045377410657045654 -0.09394858900722566
000100 72 c0 01 b5 8b 32 b3 3f ee b6 66 9b 66 21 ca bf
       0.07499001664268848 -0.20414431178999543
000110 db 0a cf f3 03 c3 bd 3f 42 b3 61 25 75 6c d1 3f
       0.1162569494472722 0.2722447266631215
000120 b6 d2 01 7b 64 6f c1 3f d0 2a de a7 50 39 a3 bf
       0.1362119293804846 -0.03754665421646097
000130 be 55 c8 e0 c0 4f 9f bf fa d7 14 1f b4 36 c6 bf
       -0.030577672691000528 -0.17354442136428344
000140 17 89 10 f0 5d 72 cc bf f3 65 ab 32 ea af c6 bf
       -0.2222402021589651 -0.17724349474046583

weight f8 [84, 42]
000000 2b 16 31 a7 1b ff 95 3f 05 50 e6 30 43 c8 81 bf
       0.02148097236592698 -0.008682751588629864
000010 d3 2b 0a b7 c5 4a b9 bf 12 ef 09 a9 51 85 b1 bf
       -0.09879718512290418 -0.06844053627895288
000020 8d de cd 8e d0 3c be 3f b3 1c 88 d3 f6 47 bd 3f
       0.11811545835905175 0.1143793360171113
000030 ad c6 fc 7b d9 e6 c0 3f c4 3f 5a 47 ce eb c1 3f
       0.13204496912071786 0.140008721199136
000040 28 cd 2d 5a 2f da bf 3f bd d6 43 1d 70 e8 c1 bf
       0.1244229884303435 -0.13990594319300512
000050 c0 7a 6d 9a 41 49 99 bf 00 00 00 a0 66 6e a9 3f
       -0.02469351296474076 0.04967041686177254
000060 28 53 9b 58 cc f2 8a 3f 4a 1a a2 e3 6d 8f b1 bf
       0.013158413366377866 -0.06859480674220567
000070 f7 0f 31 0f 7f 1d ba bf 85 79 21 d2 4b f7 95 bf
       -0.10201257820978059 -0.021451172542918968
000080 f7 cb 4f ef b5 6c c3 3f 02 39 9b 10 48 cd c3 3f
       0.15175508675710578 0.15470219431740168
000090 f8 7d 9b aa 81 2d c1 bf 0f 67 43 74 69 62 c2 bf
       -0.1342012484592343 -0.14362829377096673
0000a0 32 d4 84 6b 15 15 be 3f 9a 46 b0 9b c1 a6 c6 bf
       0.11750921130153882 -0.17696399785977662
0000b0 ca c6 a1 f0 ac 18 c1 3f 38 6f 9f d5 43 ca bc bf
       0.13356553792578146 -0.11246131863975684
0000c0 38 76 1a b8 3b 3a b1 bf 81 f4 71 9d 3b de b0 bf
       -0.06729481930457204 -0.06589100450396936
0000d0 d8 e4 7b 83 ed 30 c3 bf 98 a3 73 46 7d c0 b5 3f
       -0.1499306575786139 0.08496840448391507
0000e0 14 1c 92 d6 ca 5f 95 3f 1c 7e cd 89 26 e9 c6 bf
       0.020873231264456463 -0.17899018982551318
0000f0 91 2f 85 f8 85 14 b9 3f 09 49 83 ad 2f b3 a7 bf
       0.09796941106213654 -0.04628895752979829
000100 4f e0 de e9 14 39 b6 3f 98 0b 0c 3d fa 32 2b bf
       0.08680849752170271 -0.00020751290005457663
000110 0c d5 73 a9 6a 0b c1 bf b9 8e c9 06 df 0a b9 3f
       -0.1331609084515225 0.09782213130670926
000120 75 e1 cf 86 fc bd ac bf db a9 35 33 8d 0c 98 3f
       -0.05613698144583427 0.023485380411708206
000130 d5 80 2b 26 c1 fc 9d 3f 1c e6 11 51 58 26 b1 bf
       0.02928449435683052 -0.06699134806867629
000140 43 8e 02 8f 41 4f c1 bf 83 45 19 45 d7 c8 b8 3f
       -0.1352312038699087 0.09681458889942544
000150 8c 2e 0a 8b 1b e5 9d 3f 25 5e 74 c5 32 2a a7 3f
       0.029194288598360305 0.04524382267316821
000160 14 e4 56 5b 37 0d b4 bf cc 5b 0b 1a fb e2 c4 bf
       -0.07832666377989056 -0.16317690631578186
000170 1f 47 ff 9a 47 f3 c4 bf c4 39 a0 92 ce 9b ac 3f
       -0.163674307520119 0.05587621250025479
000180 12 d1 e2 d7 7d ea b2 3f 9b 09 e7 41 6e 71 cb 3f
       0.07389055748609888 0.21439913003821406
000190 d9 37 04 fa d0 5e c1 3f 17 36 58 9b d5 1c c0 3f
       0.13570606429897117 0.12587995610412925
0001a0 47 5c 62 1c 9a 7c c2 bf 00 00 00 a0 d5 f8 bd bf
       -0.1444275511355235 -0.11707816272974014
0001b0 8f 7e e7 10 09 cd c9 3f bc 0c 7c 1a df b1 93 bf
       0.20156968427089736 -0.019233213416566683
0001c0 ef 2f 23 fb f8 e0 b3 3f b6 e5 18 27 3c 1b c1 3f
       0.07765155917439846 0.1336436453728262
0001d0 92 7b d5 46 e9 33 be bf 9d b5 9f f1 ca 8b d3 3f
       -0.1179796026167266 0.3054072723014885
0001e0 cb f4 ef a3 e9 1b c8 3f 7c f2 f8 8a da bd 6d bf
       0.188351826713108 -0.003630568353200579
0001f0 21 da 3c 28 30 75 83 bf a0 8d 8f 04 a1 54 92 bf
       -0.009500862338979012 -0.017900958922735577
000200 4e 14 d6 d7 90 09 bd 3f d2 fb e0 6f 87 02 c3 3f
       0.11342721242370254 0.14851468050798516
000210 7b 0e 15 70 a8 b2 c6 3f 85 66 5e 36 8c 56 c3 bf
       0.17732720825926038 -0.15107872633671007
000220 9a 0e 9f 10 69 b1 cb 3f df 32 63 01 19 58 98 3f
       0.2163516360434315 0.023773565969167684
000230 df e5 26 4d 85 4e ac bf 16 70 ff 65 6f d1 b0 3f
       -0.05528656546398358 0.06569572677784694
000240 8a 4f b7 57 3e 6f be bf ac fe b8 66 68 9d b4 3f
       -0.11888494149689968 0.0805268526828466
000250 fd 0c ad 59 f3 29 d0 3f 36 48 c5 ac d8 5c 8a 3f
       0.25256046063823573 0.0128724029279149
000260 04 d0 11 e5 ad 6b bd bf db 41 ac 07 f5 55 bc 3f
       -0.11492430536765147 0.11068660199476403
000270 51 b4 8a d8 58 18 ad bf 9e 57 3b 9d 23 c7 c3 bf
       -0.05682637828190507 -0.15451474358877432
000280 a7 5f 9d 11 1a de c1 3f 2a 82 6a 76 4a 25 af bf
       0.1395905099877812 -0.06083138175495535
000290 2f 95 35 64 80 f1 b4 3f 47 ef b2 99 24 b4 97 3f
       0.08181002089039134 0.023148128396072633
0002a0 ed 38 43 3f bd 88 c8 bf e0 6f 45 47 85 01 bb bf
       -0.19167295063966297 -0.10549195280094592
0002b0 33 82 5d dc f2 69 8f bf 10 2b a7 ea 9b 2a bb 3f
       -0.015338799810423165 0.1061189124949744
0002c0 33 5c d5 33 85 c0 ae bf e3 1c 72 4e 7e 4a 9d bf
       -0.06006256349308394 -0.02860448221011048
0002d0 86 08 31 0f 39 dd bc bf e8 5e 3a 9c d4 07 d1 bf
       -0.11275059338461987 -0.26610293633119264
0002e0 54 13 09 c6 3b 85 ae bf e8 1d 8f 28 af e8 c3 3f
       -0.059610240864037906 0.15553845863745086
0002f0 b5 c4 ec 71 43 ef a0 3f 00 00 00 00 68 cf ba 3f
       0.03307543531116989 0.10472726821899414
000300 d7 10 bf 3b 0e fd 90 bf 1a f8 9a 3a eb f8 b2 3f
       -0.01659033050215516 0.07411070042414317
000310 72 a2 8f 4a 6f c1 92 3f 34 b8 7a 20 10 93 b1 bf
       0.018316019941183766 -0.06865025322869728
000320 32 52 7d e7 bf 78 b5 bf 75 66 f9 dc 27 0e c7 bf
       -0.08387374307250964 -0.18011949815518205
000330 96 a8 df 13 b1 59 af bf 9f 30 26 39 56 03 b8 3f
       -0.061231168437943115 0.09380091567271841
000340 22 4b b3 f9 3b f3 64 bf fd 1a bf 91 d7 7a c8 3f
       -0.0025573893923164373 0.19124884239700882
000350 d7 34 6b 19 c8 40 d0 3f a3 f4 e4 a9 88 5e c6 3f
       0.2539539573888993 0.1747599439203543
000360 7c a7 c6 45 d3 34 c2 bf 4e ff 7d 18 a0 34 90 3f
       -0.142237099714574 0.015825749869235843
000370 bf bc 58 63 81 56 ac bf 0d 09 ba eb ca 4b 8c bf
       -0.05534748399474542 -0.013816438025291445
000380 1a ae 48 60 cc 4e b2 bf ee af 6d 8e 77 73 c5 3f
       -0.07151486731225312 0.16758627371325424
000390 44 44 74 ae 0b b9 aa 3f 99 29 0e fb 7a 57 be bf
       0.05219303612296547 -0.11852234486847237
0003a0 e6 3a fd 56 bc 27 d0 3f 7c 7f cf 74 5b 03 9c 3f
       0.25242527480160815 0.02735655689673376
0003b0 b3 87 e4 86 e3 c5 c8 3f 9b 20 0e 6a a4 53 b6 3f
       0.1935390862136593 0.08721377934682766
0003c0 de 5e 62 e6 e6 1f aa bf 5d d6 1f e8 21 c6 c6 3f
       -0.0510246425848757 0.17792152246663565
0003d0 8f f1 f6 82 81 0d b4 bf 36 f7 ed 12 9b 1a a1 3f
       -0.07833108374956609 0.03340611082147264
0003e0 cb f3 a5 8f bf 55 a5 3f 20 d7 e0 e6 4d 08 c7 3f
       0.0416698325015897 0.17994092725137367
0003f0 11 f1 56 bc e2 6d d3 3f ce 6e db d4 25 18 ad bf
       0.3035818900350629 -0.05682485793451307
000400 f9 57 f6 22 40 e2 bf 3f e3 20 25 0d fb b4 b5 3f
       0.12454605916568075 0.08479279585765513
000410 63 d9 93 11 3b a0 b9 bf d7 df 1f 83 de 1e af 3f
       -0.10010117701663072 0.060782388216409515
000420 16 96 9c 24 2d 66 c5 bf c2 97 65 bf 0d 32 d1 3f
       -0.1671806744354149 0.26868003550623254
000430 55 ca 3a dd eb 15 cf bf 2b 33 13 78 e2 cf b2 3f
       -0.24285648634175297 0.07348456794279616
000440 1f 19 4a 97 fe c1 ba bf 00 00 00 c0 7f 8c bd 3f
       -0.1045226210936545 0.11542509496212006
000450 62 66 50 62 74 14 b0 3f ae 89 71 20 5b 17 ba 3f
       0.06281211281057034 0.1019188837249547
000460 fd 5c 07 3a 5d 60 be 3f cd 84 b1 a8 f0 ae b5 bf
       0.11865790049283827 -0.08470062368862159
000470 50 8b d3 b0 b0 3a bd bf 7f 22 2f 5a ba a1 b6 3f
       -0.11417679135369707 0.08840527250061746
000480 e2 10 8e e6 40 ac a4 3f 1c bd b8 ac 64 04 9c bf
       0.040376690048135946 -0.02736050895890428
000490 3b 42 46 4f ed 3c c9 3f 00 1f 04 a5 93 c1 b0 bf
       0.1971718442041651 -0.0654537465926488
0004a0 03 d2 8b c1 99 04 c7 bf 6e a6 8a 89 f2 cb c5 bf
       -0.17982789946076147 -0.17028648105524574
0004b0 a4 e2 ea e6 9e 55 a1 3f ea 33 93 ef 56 55 d0 3f
       0.033856359184431 0.2552087154006687
0004c0 dd 44 cf 03 16 35 ad 3f 5f cb 07 b3 fd 8e a1 bf
       0.05704563900474977 -0.034294059852888685
0004d0 99 58 2a ca 58 53 c7 3f 69 5f 55 72 d0 be c6 3f
       0.18223104354246258 0.17769818861665534
0004e0 e9 66 d8 1b e4 50 ae 3f de a9 8e f7 7e f9 9b bf
       0.05921089973362632 -0.02731893907518123
0004f0 51 27 d6 05 32 06 d3 bf 9c 7e ec 08 7c 2c bb bf
       -0.29725313730215414 -0.10614752977243785
000500 a1 32 16 22 de b9 c6 3f 79 46 34 0d b5 2f 88 bf
       0.17754723228826655 -0.011809744325123038
000510 44 a8 0f 92 d6 f7 c3 3f 08 35 ef 54 a5 fd 97 3f
       0.15600092059986725 0.023428519543633036
000520 99 2d f3 06 67 c9 be bf c8 52 6e 85 d4 56 c9 bf
       -0.12026065749812744 -0.197962346221763
000530 4f ce ec df 8f 3d a7 3f 9c d9 e8 62 c0 70 a8 3f
       0.04539155586681131 0.047735225747987914
000540 5a e9 c9 03 94 f4 b7 3f 2c ae 99 2a ff a0 ad 3f
       0.09357571690080616 0.057868932676538115
000550 23 03 72 fb 09 07 a0 bf 29 b8 fb 98 57 5e b1 bf
       -0.03130370325471279 -0.06784579739516573
000560 60 04 76 23 1e c4 8c 3f 61 16 ee 55 7f 65 b2 3f
       0.014045939881500213 0.07186122749234293
000570 ee 56 fe 44 8c 27 aa 3f 80 88 f8 40 d7 83 b3 3f
       0.05108297674375516 0.07623048149301503
000580 d8 7f ed de 28 ff bc 3f bb 1c dc 38 fd 78 a1 3f
       0.11326842730113584 0.03412619895066756
000590 1e e7 4a b0 8c 16 69 bf 00 00 00 00 7d a4 91 bf
       -0.003062510282998767 -0.01722903549671173
0005a0 05 1b 51 ff 00 7f cb 3f 36 0e 19 45 13 85 b4 bf
       0.2148133513130334 -0.0801555675216655
0005b0 94 6b 0b d6 30 0f 95 3f 3a 66 03 00 98 53 c0 3f
       0.020565760673757774 0.12755107880257005
0005c0 41 be d5 78 ea 8f bd 3f 99 d3 cd 23 d3 44 b1 3f
       0.11547723245689047 0.0674564325725683
0005d0 f2 79 f1 0c d4 3c cd 3f 7f 7b 4b 44 52 30 ae 3f
       0.22841883308406313 0.0589624126785031
0005e0 96 a7 96 bc 36 85 bd bf 6e 54 53 a1 3c fb d1 3f
       -0.11531393150531097 0.28095927957958267
0005f0 b9 4e 0b 0b 4f ec d2 bf 0c b9 bc 13 8f e0 93 3f
       -0.2956731422284338 0.019411311702406883
000600 6b 08 9d 49 34 25 c7 3f 16 31 34 5a 1e 7a 84 bf
       0.18082288355259676 -0.009998547675899288
000610 8c d4 07 67 27 69 c7 bf 4f 4f b1 2b 15 6b ba bf
       -0.18289654284277324 -0.10319645230020778
000620 39 ea 5a b6 44 ef c9 bf a5 eb cb 9d c7 8c a5 3f
       -0.20261439231929204 0.04208968926646798
000630 9c 13 cc 8d 39 a7 c7 bf 5d 9b 8d cb 13 09 be 3f
       -0.18479079650583408 0.11732600898322461
000640 d7 ae 5c 06 83 d0 c2 3f a9 37 62 7e 82 b9 b3 3f
       0.1469882756294882 0.07704940400637263
000650 ce 53 36 42 a0 14 cd bf 1a 32 b7 06 c4 ec a7 bf
       -0.22719195588129398 -0.04672825414636268
000660 e4 da 27 a6 74 1f 9d 3f 0c 9d a9 2f 92 4e bd 3f
       0.02844030632146656 0.114480148922315
000670 f1 ae b6 a4 af f0 97 bf f1 15 0b 15 b7 dc be 3f
       -0.0233790821345527 0.1205553461432698
000680 de 8e 50 44 70 ad a1 bf 67 f3 b4 65 f8 be ab bf
       -0.03452635606688913 -0.054191362777124046
000690 d5 bb 78 f0 c2 62 bf bf d2 fd c5 8e 30 f6 90 3f
       -0.12260073061837258 0.016564139093586956
0006a0 f7 62 16 ce 8c 48 85 bf d9 e3 1e 29 8c d9 bd bf
       -0.010392284430780203 -0.11660076145098176
0006b0 67 49 c0 41 37 07 c5 bf 35 8e 76 7c 0b da c7 3f
       -0.1642827101755515 0.18634170129108588
0006c0 73 a2 af 6c 13 39 a7 bf c2 87 79 81 d2 73 c3 bf
       -0.04535732938513073 -0.15197211572654906
0006d0 12 58 8b 3d 73 56 c3 bf ba 6d 69 d1 9a 78 b1 3f
       -0.15107574944585217 0.0682465325602867
0006e0 b9 31 9c 2f a6 a3 b8 bf 00 00 00 00 a6 24 b5 3f
       -0.09624708807331829 0.08259046077728271
0006f0 c4 cc 7d 9e 60 75 9b 3f cc c2 f4 29 d3 54 d3 bf
       0.026814946816966737 -0.30205229851985105
000700 55 49 6a 70 3d 1b 93 3f 83 9f 2d 66 bc c7 ba bf
       0.018658599840429464 -0.10461022848687489
000710 61 2f 16 f4 51 90 b1 3f 04 a8 dd ba 9e 4e bd bf
       0.06860840043208107 -0.11448089658884447
000720 d0 3c 28 f5 0e 07 a3 3f 44 28 06 45 94 5b 7d bf
       0.037163226534283944 -0.007167414835189293
000730 c5 97 de c7 b7 fc b4 3f 5e f9 07 2d 75 08 9f bf
       0.081981169029489 -0.03030570113514252
000740 c0 6b 76 83 d5 84 b1 3f ab d4 3a 14 a3 d0 ae 3f
       0.06843313655410466 0.06018552419610875
000750 ec a6 8b ad ea c2 a0 bf ed 73 8c 1a 1c 9c 6b 3f
       -0.03273709648585829 0.0033703373814106736
000760 3d e1 06 ee 56 9f 98 bf a1 9b 04 90 2a 42 91 bf
       -0.024045332220084637 -0.016853966751252284
000770 cc df 51 9c 04 2e c4 bf 9e 65 c3 e5 2d 63 c8 3f
       -0.15765435822299734 0.19052671164426455
000780 3e b5 39 23 02 e1 79 3f 0a 3d 3c fa d6 db b4 3f
       0.006318100309369355 0.08147948846111688
000790 b0 e6 d9 be 5d d3 9e bf 19 2f 44 6f 81 63 a6 3f
       -0.030103173040038456 0.04372791751128897
0007a0 37 8a 4c ed a5 d2 7a bf 9c 0c d1 62 78 76 c6 3f
       -0.0065485459824992575 0.17549042534856063
0007b0 b8 b3 a7 d5 a3 2e c7 3f d1 fd 21 b1 03 f8 c0 bf
       0.18111083919884918 -0.13256879948674663
0007c0 45 d7 88 cf bc 68 c2 bf 80 0f 0e fc cf 27 9c 3f
       -0.14382133611223416 0.02749562240525405
0007d0 46 3a 6a 1d d7 b1 bf 3f d1 2f a8 3a 5c 5e c5 3f
       0.12380737751139134 0.1669421469126733
0007e0 17 0e 56 4f 5c 0f cd 3f 0a 79 42 d8 17 5e 89 3f
       0.22703126787028857 0.012386499678822566
0007f0 0c fb e3 5a 0b ec be 3f 28 d0 0a 73 2f 0c 9c 3f
       0.12078925103194765 0.027390233418103233

bias f8 [84]
000000 64 c2 45 21 87 f9 c0 3f b1 be 07 ff d6 a7 c2 3f
       0.13261498570092833 0.145747065092555
000010 cd 19 a8 5e 5e 38 a0 bf 1e 7a c6 8d b4 dd c6 3f
       -0.03168005853153808 0.17864090845701325
000020 82 fd 63 9c 56 10 b9 bf 51 c7 a4 40 06 40 b0 3f
       -0.09790555303697171 0.06347693517889509
000030 a6 2e ed 21 71 41 be bf 39 04 79 a9 04 d0 c1 3f
       -0.11818606451304933 0.13916071200404348
000040 5d eb 66 33 54 bc be 3f 3b 23 c1 41 cd e5 ae 3f
       0.1200611711018786 0.06034699847857047
000050 b4 82 bf d0 fa de ab bf 58 2a db 51 30 e7 b4 3f
       -0.05443557546801028 0.08165266035499863
000060 c2 75 fc 8d 59 bf a3 bf 0c 33 e6 f9 ca d3 a9 bf
       -0.038569258291527145 -0.05044397640731377
000070 b5 2e fa 9f 6b ce aa bf d6 35 e1 c8 83 69 bc 3f
       -0.05235611274573896 0.11098502783098438
000080 20 ca 84 40 4c 33 bf 3f b8 fb 9f de a7 b1 a6 bf
       0.12187649321712302 -0.04432415573682341
000090 79 92 3b 1d 5a 30 c1 bf 58 ab 4f 0a 39 64 b9 3f
       -0.13428808619859803 0.09918552877176745
0000a0 68 6b b0 84 38 ad ab 3f 90 ce c4 b7 7f 18 b7 bf
       0.05405594463100877 -0.09021757351438908
0000b0 6b 8f 5a 38 9e 2d a2 3f ff e8 3f c9 a6 fc b9 bf
       0.03550428808128355 -0.10151140607186802
0000c0 82 6e 15 df 99 bf b4 3f 0a b1 b2 d8 af 98 b3 3f
       0.08104860016231366 0.07654856720427375
0000d0 d8 32 c2 2b 28 64 33 3f 42 23 fb 7c 54 44 c6 3f
       0.00029588680968898945 0.17396026709163875
0000e0 e2 31 b9 a2 39 e0 ab bf 58 8c 24 98 34 56 bd 3f
       -0.054445077050875104 0.11459664072440157
0000f0 6a 25 0b 87 b4 72 a8 bf 66 b0 fc 16 bd 23 b5 3f
       -0.04775013111572941 0.08257657824714357
000100 a1 ec f6 0e eb 82 a8 bf f6 a3 99 59 8a 48 a3 bf
       -0.0478738265769263 -0.03766281455757074
000110 a4 af 51 ce 79 8c b2 3f 51 ba 7c 65 02 cb a5 3f
       0.07245599066817349 0.042564463509155666
000120 a9 1b 46 fb 8b db a2 bf 93 b5 51 eb d8 f6 8b 3f
       -0.03683125917728287 0.013654417687770237
000130 f1 65 08 ec 55 9b ab 3f 9c c5 19 71 d5 44 96 bf
       0.05391949182758172 -0.021746954944722327
000140 63 2f 31 f2 f9 31 9b bf 1a 21 0f 06 fb 95 a8 3f
       -0.026557832152590232 0.0480192608734475
000150 f6 9f b8 dd 4f 84 b0 3f e9 b5 53 a4 83 7f af 3f
       0.06451892054667482 0.061519731339881485
000160 7c 9a 73 67 55 19 b4 3f 63 38 0d bd 72 8c 85 bf
       0.07851156020806543 -0.010521789926908725
000170 f3 59 c7 3b a0 53 aa 3f ed be 29 26 0a 47 98 3f
       0.051419265076834274 0.023708494738854325
000180 85 f0 62 2c f7 54 b3 3f d7 06 42 f7 fa 30 88 bf
       0.07551522096304282 -0.011812172575676723
000190 12 c5 2b 2e b7 d7 92 3f 04 c3 0f 90 b5 56 c0 bf
       0.018401014512112353 -0.12764615568405457
0001a0 0e 4b bf c6 30 d7 a7 3f 64 54 f1 bb 9f 7e b8 3f
       0.04656364847291715 0.09568212831921269
0001b0 e7 f7 df 22 fa d3 a2 3f d3 5a fe 1b f5 fd 94 bf
       0.03677350688666064 -0.020500020822136044
0001c0 c6 18 bd 2f b5 1c bc 3f 57 af 61 4f 63 a4 c2 3f
       0.10981304564947711 0.14564172149709506
0001d0 1f b6 2a 6e eb 2f 9f 3f 34 f7 a5 f1 d8 5a c2 3f
       0.03045623645691908 0.14339744376405295
0001e0 73 ff e5 8e 94 b5 c8 3f 4b 06 17 b0 21 05 bf bf
       0.19304139115774496 -0.1211720518977241
0001f0 65 ca 22 74 5f 53 ca 3f 62 82 0d 78 88 64 9a 3f
       0.2056693379468754 0.025774128272475834
000200 94 4d 9f a3 d7 0c b9 bf 65 cb 6f 4c f2 67 b0 bf
       -0.0978522085636569 -0.06408609739427858
000210 16 fe 08 c0 3e 8e b0 3f be 3a e6 09 9e fa b4 bf
       0.06467048824651331 -0.08194911710436778
000220 d3 14 66 3d eb 17 76 3f 49 1f d7 34 50 af b0 bf
       0.005393904595966964 -0.06517506876036551
000230 10 fd f7 cc 67 7a 98 3f 6b 74 bb 61 7b af c4 3f
       0.023904439816758105 0.16160528442461283
000240 ce 1f 60 21 0e 51 b7 bf e5 62 a7 0b cb 3f b5 3f
       -0.09108055414992508 0.08300465616720094
000250 b6 72 3a 7b 46 89 a6 3f fe 11 4e 22 5d 5b ad 3f
       0.04401607755901209 0.057337675511949
000260 f1 7a 34 ad a9 f8 90 3f 53 de 16 c0 61 6f be bf
       0.016573573299974723 -0.11888705196076303
000270 26 08 8f 32 47 7a b3 bf e9 1d e6 4a b4 48 c6 3f
       -0.07608456596702293 0.1740937581746345
000280 15 64 2f fe 5c f9 b9 3f 83 88 9c 70 40 e7 c1 3f
       0.10146123128596714 0.13986974238020275
000290 0d 3b f3 88 0b 0d c4 3f 4c 68 d4 ca 73 00 bb 3f
       0.15664810359017914 0.1054756517591226

weight f8 [6, 84]
000000 4d dd d2 ec 40 10 98 bf f8 27 88 5c 70 85 cf 3f
       -0.023499502615519408 0.24625973241955967
000010 37 63 23 b6 83 43 c7 3f 48 47 fe 3f 28 f9 b6 bf
       0.18174787896603004 -0.08973933756194896
000020 35 d2 bd f1 e6 1b 99 3f 4e 1d 4b db 16 87 bb 3f
       0.024520500664453066 0.10753004888384973
000030 66 42 4d e0 c9 35 6e 3f b7 63 0a c3 39 24 a0 bf
       0.00368775776807011 -0.03152637964121346
000040 d3 61 33 88 07 a1 b1 bf 73 1d 81 06 43 15 be bf
       -0.06886336398327524 -0.11751192959592575
000050 8c 51 e4 d5 37 ef 79 3f be 40 39 2d 4f 60 b2 bf
       0.006331651790123859 -0.07178206304638743
000060 43 fd 9d 14 e9 0e 27 bf 57 6c 72 5a fb a8 bc 3f
       -0.0001759204408777558 0.11195345838716385
000070 40 69 16 08 94 e6 89 bf 8f 42 c8 a9 07 32 cb 3f
       -0.012646824356853714 0.21246429243230522
000080 09 0f e3 e9 34 23 b5 3f 49 80 77 de 39 6e af 3f
       0.0825684615147645 0.06138783302935786
000090 69 61 66 c1 8f b5 b5 bf 7d d0 1e 6d 1d f3 c2 bf
       -0.08480165931394414 -0.14804427936690337
0000a0 74 d2 68 b3 4a 50 b4 3f e6 f5 84 7d 18 66 8c bf
       0.07935015564073372 -0.013866607027575872
0000b0 dd 3c ee cc 3d dd d5 3f fd f3 55 7b 43 44 b4 bf
       0.3416285039210843 -0.07916661988379299
0000c0 1a b5 b1 31 c1 8f af bf 79 b6 40 00 65 12 b9 3f
       -0.06164363605135233 0.09793692833110325
0000d0 63 d6 eb 78 92 ee c6 bf d3 5d 8a ac 19 ba ce 3f
       -0.1791556444583647 0.24005433010891739
0000e0 d6 37 1f 68 90 24 bd 3f a0 84 a5 a1 30 cc b8 3f
       0.1138391737178773 0.09686569162797065
0000f0 f4 50 cb db 4e 07 c4 bf 9f 50 aa 07 1a 20 d2 bf
       -0.15647302372111194 -0.28320933102191675
000100 30 e9 a9 7f a6 7f a2 3f a3 7a fa 22 e2 2c a7 bf
       0.036130145152997506 -0.045264307756260246
000110 b2 29 9e 8a bf aa b7 bf 33 40 e3 c5 b5 98 a4 bf
       -0.09244916090225422 -0.04022758522626226
000120 45 74 36 0e 80 9e c0 3f 0c 5b ce 7d 0e 99 b1 3f
       0.1298370427511221 0.06874170848309918
000130 0c 74 ed 0a e2 12 b2 3f 2e 8a 13 78 f7 d0 c5 3f
       0.0706006313971132 0.17043965685941614
000140 7b be a2 f2 5c 97 d3 bf 0c 41 8b 83 53 a5 9c bf
       -0.30611346907514986 -0.027974419502073508
000150 7b 85 70 57 23 56 a5 3f b6 05 97 75 16 76 93 3f
       0.04167280619027288 0.01900515644752484
000160 6e 4c c0 ef 84 8e a5 bf 3f 21 cb 57 db fb cc bf
       -0.04210296084070185 -0.2264360598258097
000170 66 84 ee 5a c7 cb c1 3f 95 45 db 80 06 ad b6 3f
       0.1390313333513717 0.08857765813743008
000180 1e 58 11 23 69 a7 b0 bf 61 47 3c f1 52 51 c0 bf
       -0.06505448442598591 -0.12748181132388495
000190 48 31 0d a4 91 42 89 3f 56 7d 4c c0 a5 da b4 bf
       0.012334001368480188 -0.0814612955550634
0001a0 89 86 3d 4d 06 01 c3 3f 7f e0 25 22 5d ee 8a bf
       0.1484687688016957 -0.013149955372441234
0001b0 fc 91 a5 d6 c6 ce 89 3f e4 bf 0f 31 8f 66 bb 3f
       0.012601426530360442 0.10703368137160357
0001c0 59 90 d6 a9 6c ec c9 bf b6 da e2 42 56 02 d0 3f
       -0.20252760212781842 0.25014263660288394
0001d0 de 8f 55 a6 65 16 b6 3f 67 43 04 db a4 02 c7 3f
       0.08627925215620233 0.17976818746731313
0001e0 9f 50 83 cc 40 6d b1 bf ba 56 29 36 38 3a be bf
       -0.06807332032195966 -0.11807586023618458
0001f0 18 e3 13 f7 3e 8f d3 3f 8a bf a5 4b ca 5e c0 bf
       0.305618039404679 -0.12789276784633002
000200 d3 7d 56 76 46 fe a8 3f 46 88 ce 6f ff b2 b6 bf
       0.048814966149844395 -0.08866878966958422
000210 08 55 c9 05 e4 3a 32 bf 19 bc eb 14 c8 e7 b8 3f
       -0.00027816836317147474 0.09728670607340496
000220 18 7e cc c3 3e 59 ba bf 5e f3 7b d7 4e 41 b3 3f
       -0.10292427330249898 0.07521527062267583
000230 48 f3 42 cf 4f 5b ce bf 01 3e c6 8d b2 20 b5 3f
       -0.2371616136569179 0.08253017388619101
000240 e6 ae 58 b7 0a c5 65 3f a1 bb d4 0b 08 a1 b6 bf
       0.0026574334431382794 -0.08839464463083725
000250 f7 0e 40 f0 a4 dc b2 bf 0d 05 61 f8 0f f0 b6 3f
       -0.07367926469310847 0.08960056127491019
000260 d1 37 e8 43 f8 f4 b2 3f 4e dd 96 d5 8c 1c a2 3f
       0.07405044229400849 0.035374070237078045
000270 c3 18 17 bf b0 90 b6 3f 2a 84 d1 0b 60 dc b8 bf
       0.08814530053413976 -0.09711265839133945
000280 ea 3f fb 4d 6a c2 7c 3f 7c 97 07 ed fd 09 cc 3f
       0.007021346332933812 0.21905492852891573
000290 35 c7 a0 82 3b bd be bf 05 83 af 0d c3 5e cd 3f
       -0.1200749582210648 0.22945440452806323
0002a0 26 0d 67 78 87 23 af 3f b2 bc 84 bc 76 8c b6 3f
       0.06081794113881704 0.08808080770971818
0002b0 25 45 20 f1 4f 18 d2 bf e1 bd bf 21 c2 4c bd 3f
       -0.28273390338388743 0.11445248912763574
0002c0 14 0b ca a0 1c bc b4 bf 30 da 91 0b 0c 6f b6 bf
       -0.08099535871046398 -0.08763194353546377
0002d0 ce 20 14 4c d6 98 ba 3f 87 3a 86 7e 2a 2a c9 bf
       0.10389460904491729 -0.19659930398889378
0002e0 42 d9 a8 0c f5 7b 81 3f c1 75 60 33 e5 b2 a4 bf
       0.00853721089252402 -0.040427362939435614
0002f0 c4 f1 79 a3 51 45 b0 3f 87 89 f3 aa 89 d8 9f bf
       0.063557722483842 -0.031099463519134864
000300 e9 b2 9a 28 cc 40 c4 3f 8e 0e 31 0f 96 53 b0 bf
       0.15822746260291545 -0.06377542372598041
000310 a0 a6 16 07 cd 49 72 3f 37 cc 29 09 7e b2 a8 bf
       0.004464913262759801 -0.048236788385928646
000320 64 e9 93 df bd 4f d3 bf 1c 3d 1a d3 ef d9 c3 3f
       -0.3017420466782339 0.1550884037755872
000330 2e 74 bf aa c3 11 c0 3f 20 a3 ef 57 93 da b2 bf
       0.12554212415025873 -0.07364769837262175
000340 64 64 5a ff 86 e6 cc 3f f3 a5 bc e4 f8 1c a5 bf
       0.22578513592160043 -0.04123666565130781
000350 32 33 60 1a 09 b8 bf 3f 06 8e 38 5a 90 8f c9 3f
       0.12390190977039309 0.19969372182195871
000360 5f db e7 d6 ba df a0 3f 82 ef e5 d2 95 62 bc bf
       0.03295692323074805 -0.11087929152375689
000370 f2 20 44 f4 8b b2 b3 3f 96 86 18 4d 0e 66 c2 bf
       0.07694315637138852 -0.14373949779933487
000380 1c c2 dc 72 5e 33 b5 3f d7 43 1c 79 78 c0 b8 bf
       0.08281507782226821 -0.0966868682555878
000390 ba 52 dd 7b 3d 0b 90 bf ca 66 9a 5e c7 1b c1 3f
       -0.01566787785062005 0.13366024131101134
0003a0 48 26 fe 97 12 4d 99 3f 15 e4 11 e3 7f f4 a9 3f
       0.024708071257498326 0.05069350859498215
0003b0 9d e0 19 aa a7 a3 b8 3f 9e 98 87 4d 58 25 cb 3f
       0.09624717619760977 0.21207717691067257
0003c0 30 c7 1d 8b f7 5a cb bf 15 fa 35 13 d3 3a a5 bf
       -0.21371359150685398 -0.04146442040927326
0003d0 38 99 95 a2 66 84 90 bf 7e e6 dd 9b 6c 3e c8 3f
       -0.016130069421160104 0.18940503702815542
0003e0 8e 52 c2 ff c8 b2 b7 bf ad c8 62 dd 7a 04 a0 3f
       -0.09257179493062948 0.031284179234164135
0003f0 5c be 23 50 8e 5e c4 bf 4a f8 55 fc 38 9c be bf
       -0.1591356173807864 -0.11957126770536877
000400 79 53 71 a9 15 98 bc 3f cf 6b e8 84 d9 14 b9 bf
       0.11169562708648852 -0.097974390934197
000410 b5 10 85 7d b6 c3 a3 bf f4 56 fe 61 8f f0 b5 3f
       -0.038602545568694614 0.08570190565509589
000420 03 28 6b 50 97 f6 bf 3f 7f d0 c3 06 4b 18 9b bf
       0.12485643113464566 -0.026459858215233552
000430 dc f0 48 78 1e 68 a9 bf 0f 6b a5 69 4e 1b b4 bf
       -0.04962249010392991 -0.07854166106464454
000440 e6 71 48 9d f3 5c c7 3f ad 8d 22 ba b1 65 d1 bf
       0.18252415828545948 -0.27183192422145447
000450 38 2f 74 81 13 de b0 3f 3c 29 b2 b5 5d 24 b8 3f
       0.0658886138009479 0.09430490194259716
000460 0b 89 c4 35 d2 d2 97 bf 7b 08 d6 bf c7 34 b8 bf
       -0.023265156299324945 -0.09455536302087524
000470 25 fd 9a e2 38 af c9 bf 1c 02 22 4b f6 39 a1 3f
       -0.20065985741346384 0.03364534060620292
000480 0e e7 5b 92 f8 9c c4 3f a6 db 3c f2 94 52 c4 3f
       0.16104037424502632 0.1587701971818351
000490 76 7e 32 e7 d3 0f 9c bf 1c 7c a6 76 f2 9d bb 3f
       -0.02740412806144695 0.10787883183228114
0004a0 18 df 6a 94 69 dc cf bf 13 37 52 6e 0f 04 a7 bf
       -0.2489139532751714 -0.04495285245603333
0004b0 df b0 0e 75 28 df ab 3f bc 79 5f 6d d2 cb bf 3f
       0.05443693570063756 0.12420382662046497
0004c0 08 ed bc 59 b1 cf cf bf f1 aa cb 55 0e 93 c6 bf
       -0.24852578050363427 -0.1763627928661076
0004d0 23 53 78 cd da e0 c0 3f d6 dc 1c 56 48 0b b4 bf
       0.13186202080455542 -0.0782971582637971
0004e0 62 3c 02 97 95 60 9c bf 8e 45 ac 45 d6 cf a6 3f
       -0.02771219000038306 0.04455442047595702
0004f0 f7 e7 ea 5e ec 72 99 bf f5 cf 16 82 f6 de b0 3f
       -0.02485246018725459 0.06590214420322112
000500 ad d9 49 c2 78 2a d2 bf b9 c3 dc 51 b5 ff c0 bf
       -0.2838422677372375 -0.13280359742341633
000510 a8 2c 4a e7 e0 01 c7 bf ab 68 94 3c cd 1a d0 3f
       -0.17974482816166426 0.2516358462904786
000520 c5 8c da 40 e4 ad b6 bf 4e 11 af c5 d7 88 ac bf
       -0.08859087546675244 -0.05573152816899328
000530 7c d3 d0 cc 5d 1b aa bf 49 6a eb ef af 38 bb 3f
       -0.05099003911201458 0.10633372886096838
000540 96 96 fd 75 22 e9 be bf 98 a4 76 df 26 7a ab 3f
       -0.12074485188130732 0.053666319635632564
000550 3e da 1a 48 71 69 aa bf d7 44 99 96 62 0f cc 3f
       -0.05158571248232534 0.2192195163102386
000560 1f 6b 7f 98 e5 2a c7 3f a4 8a b7 f9 28 d6 c0 3f
       0.1809966082208456 0.13153564637385273
000570 40 a9 76 27 b3 09 c8 3f 9b 76 b7 1a 76 87 d1 3f
       0.18779601504258814 0.27389290436790653
000580 21 ef 06 c7 0b 0c a6 bf 1d fd 94 c5 d7 00 bf 3f
       -0.04306065372972357 0.12110661100176796
000590 94 f7 4d f8 2a 6a ca bf 7a 03 97 13 3e d6 c5 bf
       -0.20636498569723172 -0.1706006618169587
0005a0 7f 2e d6 01 ff 94 c5 bf 72 9b eb 32 06 15 b8 3f
       -0.16860950078659084 0.09407080405399684
0005b0 74 59 75 32 8d 4d af 3f e2 52 c1 f4 ba 4a a7 bf
       0.06113854638049335 -0.045492021920528605
0005c0 e8 84 b1 69 bc 27 be 3f d5 ea c9 ee 73 25 c1 3f
       0.1177938230553256 0.13395547065359517
0005d0 3d 42 4c 1e 48 fc 81 3f 08 60 3f c7 87 6b be 3f
       0.008781970429056258 0.1188282834476696
0005e0 fa e1 f7 00 c7 6a b8 3f 3c 45 51 d3 b7 6a a3 3f
       0.09537929319038332 0.037923569245899874
0005f0 cf 58 66 62 c6 6f c4 bf 9e 73 74 49 4a 19 ba bf
       -0.15966110043218015 -0.101948397572825
000600 95 bb ee ed 9e 37 90 bf 48 93 b4 33 9a 53 a8 3f
       -0.01583717658257518 0.047512835323039015
000610 d4 bf 34 14 ab 13 c3 bf 7c e2 9d 43 21 dc c2 bf
       -0.1490377281820644 -0.14734283258055203
000620 86 38 ab 62 38 65 c1 bf e4 50 02 87 69 26 91 bf
       -0.1359014970570948 -0.01674809347657992
000630 c0 7d 76 fe 0a 41 b9 3f d1 45 f9 b1 37 f3 a3 bf
       0.09864872658226087 -0.038964977717693146
000640 e4 56 6b da 63 12 a5 bf 73 6f ba df f7 5d 8f bf
       -0.041155929958831355 -0.01531594897760844
000650 7e 93 44 e8 6d 8d 9e 3f 17 dd 19 b2 25 d8 b9 3f
       0.029836385060792996 0.1009543952767341
000660 ff 37 a6 02 f1 63 c4 bf 44 2f d6 11 9e 03 be bf
       -0.15929997090682943 -0.11724269805398274
000670 dd 8a ef 02 a1 59 b0 bf c4 f1 e1 91 fa a2 97 3f
       -0.0638676292578952 0.023082652238814352
000680 0e a5 21 54 9f 2f b7 3f 3f eb 60 a3 0e 25 b5 bf
       0.09057040981283057 -0.08259669769988152
000690 a4 2c d6 9f 35 d3 c1 bf d7 72 8d 49 43 e9 a4 3f
       -0.1392581015064468 0.04084215424402309
0006a0 b4 24 0f ce 1a 1a bb 3f 23 a5 69 7c cd a8 b3 3f
       0.10586707621327457 0.0767944744817624
0006b0 1e dc bf 47 56 50 d5 3f 12 ab fb ad a1 a9 b5 bf
       0.33302838331968754 -0.08461962220796362
0006c0 42 fc 20 d0 45 bc 92 3f d1 0c 51 b3 1c 08 d1 bf
       0.018296328380753353 -0.2661201239718141
0006d0 5c 3f f7 fb 3b 5c b2 bf 97 fb 61 33 a6 76 a7 3f
       -0.0717198839331536 0.04582709672194268
0006e0 8a d9 7b 37 bd 1d c2 bf eb fc ff 15 1e 6a ab 3f
       -0.1415325661580023 0.053543987451115736
0006f0 fa 75 b2 98 7e 19 91 3f bb 3a 64 00 e1 64 a6 3f
       0.016698816366092807 0.04373839502124129
000700 ff d5 ea 32 bb 34 d0 3f 91 4f 00 14 28 3c b6 bf
       0.25321845981974883 -0.08685541618643657
000710 b2 0f b3 fa bb 8a c4 3f fb 22 00 84 9c 14 d3 bf
       0.16048383465942845 -0.2981330193584168
000720 c6 6b 25 ac 4c 38 a9 bf 96 d7 58 c3 63 3b b8 3f
       -0.049257656110703915 0.09465621489729723
000730 7f 3a 91 7c 3b 5a bd bf 7c 69 ae df f8 4e ba bf
       -0.11465808669275111 -0.10276751957863967
000740 62 1b b0 07 65 60 b7 bf e7 5a 87 fc f9 b6 b6 3f
       -0.09131461560910517 0.08872949996235101
000750 90 48 c4 7f 51 26 cf 3f a7 64 d6 40 5f 3c c8 bf
       0.2433568834172246 -0.18934240976230862
000760 2c 0b 91 f8 4f a4 94 3f a2 c5 7c f1 62 f5 b3 bf
       0.020158052011775826 -0.07796305080116508
000770 61 57 8c f5 83 47 c1 bf 9f 3c 77 52 1b 83 c2 3f
       -0.13499497880610092 0.1446260597863089
000780 2b bd 03 0b 97 c8 b2 bf 10 d1 58 db 5b 81 a0 bf
       -0.07337326067839871 -0.03223692944121315
000790 0b 5b ee c4 d7 32 b0 3f 9c b1 51 26 19 4f c8 3f
       0.06327580030334105 0.18991388674784282
0007a0 20 c3 92 5e d2 48 b0 bf 4a cc df 3d fd c5 a1 3f
       -0.06361117180746279 0.03471366291332652
0007b0 e3 3b 66 89 79 1b b9 bf 77 55 04 76 2f 23 af 3f
       -0.09807548145748472 0.06081531825672475
0007c0 90 35 aa 8b a9 29 ae 3f 3c 40 4e e2 45 f3 c9 bf
       0.0589116080273967 -0.20273660230714252
0007d0 42 22 8f 51 ad 9c b9 bf 4f a9 a2 51 fd bb be bf
       -0.10004695168675773 -0.12005599253703746
0007e0 f4 55 76 5d 2b fc b6 3f 09 3f 95 8a 04 b2 d2 bf
       0.08978529960435094 -0.29211534055228633
0007f0 1d 7d ad cd 09 cc be 3f c2 28 bb cd 6e ed aa bf
       0.120300877298622 -0.052592718709620026

bias f8 [6]
000000 0c 40 de b9 4b 8e b3 3f d1 ac 0d dc ba 54 bc 3f
       0.0763900116710376 0.11066787598035722
000010 b6 f2 12 f5 ec 7e af 3f 25 b4 d7 18 a3 7f 84 bf
       0.06151524058939144 -0.010009073444019087
000020 c7 f7 c3 d1 03 d8 b6 3f e1 ba 3a 1a c9 69 a2 3f
       0.0892336260912706 0.035963329746086854
