part_4/Reinforcement_Learning/models_lab1/Kuzin_M_A_4.6_model2_winner_test_2_10_float.pt (torch, 23159 bytes, 6 tensors)

weight f4 [42, 14]
0	0x3e45ecfc	0.19328684
1	0x3eae8723	0.34087476
2	0x3e8c82c9	0.2744353
3	0xbcc13ced	-0.023588622
4	0x3d357062	0.04429663
5	0xbdc6dccb	-0.09710082
6	0xbe47f746	-0.19527921
7	0xbe33cec2	-0.1755934
8	0xbd20aee5	-0.039229292
9	0x3de5439d	0.11194537
10	0xbe0fc607	-0.14040385
11	0x3e9c7914	0.30561125
12	0x3e2cc1b7	0.16870771
13	0x3e618559	0.22023524
14	0xbe3b201d	-0.18273969
15	0x3e524d81	0.20537378
16	0xbe8aca91	-0.2710767
17	0xbf4f0592	-0.80867875
18	0x3f139555	0.5764974
19	0x3d92e5af	0.07172715
20	0x3e3ce318	0.18446004
21	0xbdc28984	-0.09498885
22	0x3d36d43e	0.044636004
23	0x3e3ba3ba	0.18324175
24	0x3e3657ab	0.1780688
25	0x3b3b6f86	0.0028600409
26	0x3e88101e	0.26574796
27	0x3c1eb03e	0.009685574
28	0x3eef21ab	0.46705374
29	0x3e0833a4	0.1330095
30	0x3e1dd7f8	0.15414417
31	0x3e55cd00	0.20878983
32	0xbf68878d	-0.90831834
33	0x3e75427d	0.23951145
34	0x3e306193	0.17224722
35	0x3d4d679a	0.05014763
36	0x3df505da	0.11964007
37	0xbda4c8e3	-0.080461286
38	0xbd7ca046	-0.061676286
39	0xbd4f4012	-0.05059821
40	0x3db5c173	0.08874788
41	0x3d599014	0.05311592
42	0xbea4aec6	-0.32164592
43	0x3e0e75f3	0.13912182
44	0x3e77c104	0.24194723
45	0x3f6b8642	0.92001736
46	0x3d1d67af	0.03842896
47	0x3d7c6223	0.061617028
48	0xbdc9ca4d	-0.09853039
49	0x3e47d6bf	0.19515513
50	0xbdc38f23	-0.095487855
51	0x3e519a78	0.20469081
52	0x3dd2f2b2	0.10300197
53	0x3e3fc5f3	0.18727855
54	0x3cbb247b	0.022844544
55	0x3e308bcb	0.17240827
56	0xbf078150	-0.5293169
57	0x3f044f58	0.5168357
58	0xbd388679	-0.045050118
59	0x3f4d3fc9	0.80175453
60	0x3bd90381	0.006622732
61	0xbef53f2c	-0.4789976
62	0x3dabf90c	0.08397111
63	0x3da177a2	0.07884146
64	0xbe14feb5	-0.14550288
65	0xbde4d8d4	-0.11174169
66	0xbd847bbc	-0.06468913
67	0xbd192fd1	-0.037399117
68	0x3e5f15eb	0.21785705
69	0xbe25c55c	-0.16188568
70	0xbebf9634	-0.37419283
71	0xbd8b837f	-0.0681219
72	0x3f575b35	0.84123546
73	0x3d6967bb	0.05698369
74	0xbe8a9025	-0.270631
75	0x3e9c6a5e	0.30549902
76	0x3d554db4	0.052076057
77	0xbb9ef0ba	-0.004850474
78	0x3e14433f	0.14478777
79	0xbd132668	-0.0359253
80	0x3da27e61	0.07934261
81	0xbcf3840a	-0.029726047
82	0x3e1499dc	0.14511818
83	0xbd8d902f	-0.069122665
84	0xbeacb9e7	-0.33735582
85	0x3ebd144b	0.36929545
86	0xbe7282cb	-0.23682706
87	0x3f3049ec	0.68862796
88	0x3f1186fe	0.56846607
89	0xbf0060b1	-0.5014754
90	0xbd4cc8f5	-0.049996335
91	0x3e3e41ae	0.18579742
92	0xbdef5831	-0.11686743
93	0xbd06deae	-0.032927208
94	0x3ba8faa5	0.0051568323
95	0x3e2c4e80	0.1682682
96	0x3e1abb65	0.15110548
97	0xbe3ac4f7	-0.18239199
98	0xbe97475f	-0.2954664
99	0x3f794e99	0.97385556
100	0x3e6aed9a	0.229422
101	0xbf262609	-0.6490179
102	0x3e189f2d	0.1490447
103	0xbe74f231	-0.23920514
104	0xbc492610	-0.012277141
105	0x3d8ab4e9	0.06772787
106	0x3d887144	0.06662229
107	0xbd0a273b	-0.03372882
108	0x3ce47799	0.02788906
109	0x3d176260	0.036959052
110	0xbd40180d	-0.046897937
111	0xbcf5c6a7	-0.030001951
112	0x3ec09743	0.37615404
113	0x3f0b7f45	0.5449107
114	0xbf17e7be	-0.59337986
115	0x3f215887	0.63025707
116	0x3e798982	0.24368861
117	0xbf6c0abe	-0.9220389
118	0x3dbc858f	0.09205162
119	0xbc730e14	-0.014834899
120	0xbccb53dc	-0.02482026
121	0x3cb6e276	0.022324782
122	0xbccf5d04	-0.025312908
123	0x3c2d494b	0.010576556
124	0x3db62500	0.08893776
125	0x3cbaa738	0.022784814
126	0x3f3d039b	0.73833627
127	0xbf6fbd19	-0.93647915
128	0x3c64be0f	0.013961329
129	0x3e3e7fd1	0.18603446
130	0x3d6ef2e7	0.05833712
131	0x3c2f90fa	0.010715717
132	0x3dfae519	0.12250728
133	0x3d559411	0.05214316
134	0xbd99152b	-0.074747406
135	0xbdaeee69	-0.08541567
136	0x3dd31d46	0.10308318
137	0x3db730fc	0.0894489
138	0x3db71051	0.08938659
139	0xbdc0b99c	-0.09410402
140	0xbf8f19ef	-1.1179789
141	0xbb007ab0	-0.0019604377
142	0xbe9d84b8	-0.3076532
143	0x3e7a6147	0.24451171
144	0x3e2cdddb	0.16881506
145	0x3f38347e	0.71955097
146	0x3d097b18	0.033564657
147	0x3da40664	0.080090314
148	0xbdfc9b50	-0.12334311
149	0x3e68f7be	0.22750756
150	0x3a29c9f1	0.000647693
151	0xbb965e77	-0.004588898
152	0xbe07f515	-0.13277085
153	0x3e46ec49	0.19426073
154	0x3bf3aca5	0.0074363523
155	0xbd1def9d	-0.03855859
156	0xbe1696b0	-0.1470592
157	0x3ad7ee2d	0.001647418
158	0xbe595f1d	-0.21227689
159	0xbe03b766	-0.1286293
160	0xbe88511c	-0.26624382
161	0xbdfdc4dc	-0.123910636
162	0x3e293c8b	0.16527002
163	0xbe24e628	-0.16103423
164	0xbe590184	-0.21191984
165	0xbe76bc83	-0.24095349
166	0xbd738e13	-0.059461664
167	0xbe80f8cf	-0.25189826
168	0x3f4850c3	0.7824823
169	0xbe50b4b0	-0.20381427
170	0x3f589b87	0.84612316
171	0x3d2fbd6c	0.042905256
172	0x3ddb8bd7	0.10720032
173	0xbf351270	-0.7073126
174	0xbdba9f23	-0.09112384
175	0x3e1f4c81	0.15556528
176	0xbca1f8a6	-0.019771885
177	0x3dae8e21	0.08523203
178	0xbd8212c8	-0.063512385
179	0x3e4123b9	0.18861283
180	0x3e25cab3	0.16190605
181	0x3e851f5c	0.26000488
182	0xbd337daf	-0.043821033
183	0x3e8beccc	0.273291
184	0xbdd4436c	-0.10364422
185	0x3ace1de6	0.0015725463
186	0x3e405b11	0.18784739
187	0xbd0f2fa0	-0.034957528
188	0xbced22d6	-0.028947275
189	0xbe2123ca	-0.15736309
190	0x3e0ffd5b	0.14061491
191	0x3e231183	0.15924649
192	0xbe25869e	-0.16164634
193	0x3e53952c	0.20662373
194	0xbd518d55	-0.051160175
195	0xbe13000d	-0.14355488
196	0xbf09642d	-0.5366848
197	0xbed1b1bb	-0.4095591
198	0x3f3e5f59	0.7436424
199	0xbec8075d	-0.39068118
200	0x3e675e15	0.22594483
201	0x3ecd166a	0.40056163
202	0x3e4e864d	0.20168419
203	0xbd9ba6de	-0.07600187
204	0x3e119113	0.14215498
205	0xbdf0080b	-0.11720284
206	0x3cd5c2ab	0.026093801
207	0x3e70be27	0.23510037
208	0x3dd96ea3	0.106168054
209	0x3cf97a98	0.030453965
210	0xbebd0a2d	-0.36921826
211	0xbedbaeb5	-0.42906728
212	0x3ec2b1f2	0.38026386
213	0xbf07f6c9	-0.5311094
214	0x3f270a85	0.65250427
215	0x3eb6a369	0.35671547
216	0xbd8836cc	-0.06651077
217	0x3e1d07b7	0.15334974
218	0x3e2ce3b7	0.16883741
219	0xbe0a70db	-0.13519613
220	0x3e030704	0.12795645
221	0xbde39bc3	-0.111136936
222	0x3e4d5cb7	0.20054899
223	0x3d120d17	0.035657015
224	0xbf0be7a7	-0.5465035
225	0x3dcbf2de	0.099584326
226	0xbf0c3d9c	-0.5478151
227	0x3f6a833f	0.91606516
228	0x3ebd4891	0.36969426
229	0x3db1b6f1	0.086774714
230	0x3de4cf13	0.11172309
231	0xbd319673	-0.04335637
232	0x3e707072	0.23480394
233	0x3d176768	0.03696385
234	0x3e1ffc6a	0.15623632
235	0x3d312759	0.043250415
236	0x3e2e78d6	0.17038283
237	0xbded70fc	-0.11593816
238	0x3f2ad670	0.66733456
239	0x3f4cb7e6	0.79968107
240	0xbeb738c9	-0.3578551
241	0xbea27d8d	-0.31736413
242	0xbd2c57d2	-0.04207594
243	0xbef82334	-0.48464358
244	0x3ba90747	0.005158338
245	0x3d28bfe2	0.04119862
246	0x3e07114b	0.1319019
247	0x3e0e4d36	0.13896641
248	0x3e83cc18	0.2574165
249	0xbcb719ab	-0.022351107
250	0xbdbecbea	-0.09316237
251	0xbacd48fe	-0.0015662012
252	0xbe8a1d05	-0.26975265
253	0xbe261c1e	-0.16221663
254	0x3f2e08d4	0.6798222
255	0xbec550d4	-0.3853823

bias f4 [42]
0	0x3e933f72	0.28759342
1	0x3e026f15	0.12737687
2	0xbe759418	-0.23982275
3	0x3d31a9d1	0.04337484
4	0xbdf1700f	-0.117889516
5	0x3e8f7274	0.28017008
6	0xbe4d1c27	-0.2003027
7	0x3e645d27	0.2230116
8	0x3e1c8901	0.15286638
9	0x3d1603e7	0.036624815
10	0x3e0d3c3a	0.13792506
11	0xbe42875f	-0.18996952
12	0x3e60e487	0.21962176
13	0x3e4a2ba9	0.19743218
14	0x3e3497ab	0.17635982
15	0xbe40774f	-0.18795513
16	0x3e8be4ff	0.27323148
17	0x39307a22	0.00016830166
18	0x3deec812	0.11659254
19	0xbdbb3eee	-0.09142862
20	0x3cf85312	0.030313049
21	0xbe34e805	-0.17666633
22	0xbd7e246a	-0.062046446
23	0x3dc159e0	0.094409704
24	0x3e02a17a	0.12756911
25	0x3d231af5	0.03982063
26	0x3cbbc088	0.022918954
27	0xbd1d0fbb	-0.03834508
28	0x3d8b2bbc	0.06795451
29	0x3dc6ecb3	0.097131155
30	0x3d39ddaa	0.04537741
31	0xbdc0681e	-0.09394859
32	0x3d99945e	0.07499002
33	0xbe510b35	-0.20414431
34	0x3dee1820	0.11625695
35	0x3e8b63a9	0.27224472
36	0x3e0b7b24	0.13621193
37	0xbd19ca85	-0.037546653
38	0xbcfa7e07	-0.030577673
39	0xbe31b5a1	-0.17354442
40	0xbe6392f0	-0.22224021
41	0xbe357f52	-0.1772435

weight f4 [84, 42]
0	0x3caff8dd	0.021480972
1	0xbc0e421a	-0.008682752
2	0xbdca562e	-0.09879719
3	0xbd8c2a8d	-0.068440534
4	0x3df1e684	0.118115455
5	0x3dea3fb7	0.11437934
6	0x3e0736cc	0.13204497
7	0x3e0f5e72	0.14000872
8	0x3dfed17b	0.12442299
9	0xbe0f4381	-0.13990594
10	0xbcca4a0d	-0.024693513
11	0x3d4b7335	0.049670417
12	0x3c579663	0.013158414
13	0xbd8c7b6f	-0.068594806
14	0xbdd0ebf8	-0.102012575
15	0xbcafba5f	-0.021451173
16	0x3e1b65af	0.15175508
17	0x3e1e6a41	0.1547022
18	0xbe096c0d	-0.13420124
19	0xbe13134c	-0.1436283
20	0x3df0a8ab	0.11750921
21	0xbe35360d	-0.176964
22	0x3e08c568	0.13356555
23	0xbde6521f	-0.11246132
24	0xbd89d1de	-0.06729482
25	0xbd86f1dd	-0.065891005
26	0xbe19876c	-0.14993066
27	0x3dae03ea	0.0849684
28	0x3caafe57	0.020873232
29	0xbe374934	-0.17899019
30	0x3dc8a430	0.09796941
31	0xbd3d997d	-0.046288956
32	0x3db1c8a7	0.086808495
33	0xb95997d2	-0.0002075129
34	0xbe085b55	-0.1331609
35	0x3dc856f8	0.09782213
36	0xbd65efe4	-0.05613698
37	0x3cc0646a	0.023485381
38	0x3cefe609	0.029284494
39	0xbd8932c3	-0.06699135
40	0xbe0a7a0c	-0.1352312
41	0x3dc646ba	0.09681459
42	0x3cef28dc	0.029194288
43	0x3d395196	0.045243822
44	0xbda069bb	-0.078326665
45	0xbe2717d9	-0.16317691
46	0xbe279a3d	-0.16367431
47	0x3d64de75	0.055876214
48	0x3d9753ef	0.07389056
49	0x3e5b8b72	0.21439913
50	0x3e0af688	0.13570607
51	0x3e00e6ad	0.12587996
52	0xbe13e4d1	-0.14442755
53	0xbdefc6ad	-0.11707816
54	0x3e4e6849	0.20156969
55	0xbc9d8ef9	-0.019233214
56	0x3d9f07c8	0.07765156
57	0x3e08d9e1	0.13364364
58	0xbdf19f4a	-0.1179796
59	0x3e9c5e58	0.3054073
60	0x3e40df4d	0.18835182
61	0xbb6deed4	-0.0036305683
62	0xbc1ba981	-0.009500862
63	0xbc92a508	-0.017900959
64	0x3de84c87	0.113427214
65	0x3e18143b	0.14851467
66	0x3e359544	0.17732722
67	0xbe1ab462	-0.15107873
68	0x3e5d8b49	0.21635164
69	0x3cc2c0c8	0.023773566
70	0xbd62742a	-0.055286564
71	0x3d868b7b	0.065695725
72	0xbdf379f3	-0.11888494
73	0x3da4eb43	0.08052685
74	0x3e814f9b	0.25256047
75	0x3c52e6c5	0.012872403
76	0xbdeb5d6f	-0.114924304
77	0x3de2afa8	0.1106866
78	0xbd68c2c7	-0.05682638
79	0xbe1e391d	-0.15451474
80	0x3e0ef0d1	0.13959052
81	0xbd792a54	-0.060831383
82	0x3da78c03	0.08181002
83	0x3cbda125	0.023148129
84	0xbe4445ea	-0.19167295
85	0xbdd80c2a	-0.10549195
86	0xbc7b4f97	-0.0153388
87	0x3dd954df	0.10611891
88	0xbd76042a	-0.060062565
89	0xbcea53f2	-0.028604481
90	0xbde6e9c8	-0.11275059
91	0xbe883ea5	-0.26610294
92	0xbd7429de	-0.05961024
93	0x3e1f4579	0.15553845
94	0x3d077a1c	0.033075437
95	0x3dd67b40	0.10472727
96	0xbc87e872	-0.01659033
97	0x3d97c75a	0.0741107
98	0x3c960b7a	0.01831602
99	0xbd8c9881	-0.06865025
100	0xbdabc5ff	-0.08387374
101	0xbe38713f	-0.1801195
102	0xbd7acd89	-0.06123117
103	0x3dc01ab2	0.09380092
104	0xbb2799e0	-0.0025573894
105	0x3e43d6bd	0.19124885
106	0x3e820641	0.25395396
107	0x3e32f445	0.17475994
108	0xbe11a69a	-0.1422371
109	0x3c81a501	0.01582575
110	0xbd62b40b	-0.055347484
111	0xbc625e57	-0.013816438
112	0xbd927663	-0.07151487
113	0x3e2b9bbc	0.16758627
114	0x3d55c85d	0.052193034
115	0xbdf2bbd8	-0.118522346
116	0x3e813de3	0.25242528
117	0x3ce01adc	0.027356558
118	0x3e462f1c	0.19353908
119	0x3db29d23	0.08721378
120	0xbd50ff37	-0.05102464
121	0x3e36310f	0.17792152
122	0xbda06c0c	-0.07833108
123	0x3d08d4d9	0.033406112
124	0x3d2aadfc	0.04166983
125	0x3e38426f	0.17994092
126	0x3e9b6f16	0.3035819
127	0xbd68c12f	-0.05682486
128	0x3dff1201	0.12454606
129	0x3dada7d8	0.08479279
130	0xbdcd01d9	-0.10010118
131	0x3d78f6f4	0.060782388
132	0xbe2b3169	-0.16718067
133	0x3e89906e	0.26868004
134	0xbe78af5f	-0.24285649
135	0x3d967f14	0.07348457
136	0xbdd60ff5	-0.10452262
137	0x3dec63fe	0.115425095
138	0x3d80a3a3	0.06281211
139	0x3dd0bad9	0.10191888
140	0x3df302ea	0.1186579
141	0xbdad7785	-0.08470062
142	0xbde9d586	-0.114176795
143	0x3db50dd3	0.088405274
144	0x3d256207	0.04037669
145	0xbce02325	-0.027360508
146	0x3e49e76a	0.19717184
147	0xbd860c9d	-0.065453745
148	0xbe3824ce	-0.1798279
149	0xbe2e5f94	-0.17028648
150	0x3d0aacf7	0.03385636
151	0x3e82aab7	0.2552087
152	0x3d69a8b0	0.05704564
153	0xbd0c77ee	-0.03429406
154	0x3e3a9ac6	0.18223104
155	0x3e35f684	0.1776982
156	0x3d728721	0.0592109
157	0xbcdfcbf8	-0.02731894
158	0xbe983190	-0.29725313
159	0xbdd963e0	-0.10614753
160	0x3e35cef1	0.17754723
161	0xbc417da8	-0.011809744
162	0x3e1fbeb5	0.15600093
163	0x3cbfed2b	0.02342852
164	0xbdf64b38	-0.120260656
165	0xbe4ab6a4	-0.19796234
166	0x3d39ec7f	0.045391556
167	0x3d438603	0.047735225
168	0x3dbfa4a0	0.093575716
169	0x3d6d07f9	0.05786893
170	0xbd003850	-0.031303704
171	0xbd8af2bd	-0.0678458
172	0x3c6620f1	0.01404594
173	0x3d932bfb	0.07186123
174	0x3d513c62	0.051082976
175	0x3d9c1eba	0.07623048
176	0x3de7f947	0.11326843
177	0x3d0bc7ea	0.0341262
178	0xbb48b466	-0.0030625104
179	0xbc8d23e8	-0.017229035
180	0x3e5bf808	0.21481335
181	0xbda4289a	-0.08015557
182	0x3ca87987	0.020565761
183	0x3e029cc0	0.12755108
184	0x3dec7f54	0.115477234
185	0x3d8a2699	0.06745643
186	0x3e69e6a0	0.22841883
187	0x3d718292	0.058962412
188	0xbdec29b6	-0.11531393
189	0x3e8fd9e5	0.28095928
190	0xbe976278	-0.29567313
191	0x3c9f0479	0.019411312
192	0x3e3929a2	0.18082288
193	0xbc23d0f3	-0.009998548
194	0xbe3b493b	-0.18289654
195	0xbdd358a9	-0.10319645
196	0xbe4f7a26	-0.2026144
197	0x3d2c663d	0.04208969
198	0xbe3d39cc	-0.18479079
199	0x3df0489e	0.11732601
200	0x3e168418	0.14698827
201	0x3d9dcc14	0.077049404
202	0xbe68a502	-0.22719195
203	0xbd3f6620	-0.046728253
204	0x3ce8fba5	0.028440306
205	0x3dea7491	0.114480145
206	0xbcbf857d	-0.023379082
207	0x3df6e5b9	0.12055535
208	0xbd0d6b82	-0.034526356
209	0xbd5df7c3	-0.054191362
210	0xbdfb1618	-0.122600734
211	0x3c87b184	0.016564138
212	0xbc2a4466	-0.010392284
213	0xbdeecc61	-0.11660076
214	0xbe2839ba	-0.16428271
215	0x3e3ed05c	0.1863417
216	0xbd39c89b	-0.045357328
217	0xbe1b9e94	-0.15197212
218	0xbe1ab39a	-0.15107575
219	0x3d8bc4d7	0.068246536
220	0xbdc51d31	-0.096247084
221	0x3da92530	0.08259046
222	0x3cdbab05	0.026814947
223	0xbe9aa699	-0.3020523
224	0x3c98d9ec	0.0186586
225	0xbdd63de3	-0.10461023
226	0x3d8c8290	0.0686084
227	0xbdea74f6	-0.1144809
228	0x3d183878	0.037163228
229	0xbbeadca2	-0.0071674148
230	0x3da7e5be	0.08198117
231	0xbcf843a9	-0.0303057
232	0x3d8c26ac	0.068433136
233	0x3d768519	0.060185526
234	0xbd061755	-0.032737095
235	0x3b5ce0e1	0.0033703374
236	0xbcc4fab7	-0.024045331
237	0xbc8a1155	-0.016853968
238	0xbe217025	-0.15765436
239	0x3e43196f	0.19052671
240	0x3bcf0811	0.0063181003
241	0x3da6deb8	0.08147949
242	0xbcf69aee	-0.030103173
243	0x3d331c0b	0.043727916
244	0xbbd6952f	-0.006548546
245	0x3e33b3c3	0.17549042
246	0x3e39751f	0.18111084
247	0xbe07c01e	-0.1325688
248	0xbe1345e6	-0.14382133
249	0x3ce13e80	0.027495623
250	0x3dfd8eb9	0.12380738
251	0x3e2af2e2	0.16694215
252	0x3e687ae2	0.22703126
253	0x3c4af0bf	0.0123865
254	0x3df7605b	0.12078925
255	0x3ce0617c	0.027390234

bias f4 [84]
0	0x3e07cc39	0.13261499
1	0x3e153eb8	0.14574707
2	0xbd01c2f3	-0.03168006
3	0x3e36eda4	0.1786409
4	0xbdc882b5	-0.097905554
5	0x3d820032	0.063476935
6	0xbdf20b89	-0.118186064
7	0x3e0e8025	0.13916071
8	0x3df5e2a2	0.120061174
9	0x3d772e6a	0.060347
10	0xbd5ef7d7	-0.054435577
11	0x3da73983	0.08165266
12	0xbd1dfacc	-0.038569257
13	0xbd4e9e58	-0.050443977
14	0xbd56735d	-0.052356113
15	0x3de34c1e	0.110985026
16	0x3df99a62	0.12187649
17	0xbd358d3f	-0.044324156
18	0xbe0982d1	-0.13428809
19	0x3dcb21c8	0.09918553
20	0x3d5d69c4	0.054055944
21	0xbdb8c3fe	-0.090217575
22	0x3d116cf2	0.03550429
23	0xbdcfe536	-0.101511404
24	0x3da5fccf	0.0810486
25	0x3d9cc57f	0.07654857
26	0x399b2141	0.0002958868
27	0x3e3222a4	0.17396027
28	0xbd5f01cd	-0.054445077
29	0x3deab1a5	0.11459664
30	0xbd4395a4	-0.04775013
31	0x3da91de9	0.08257658
32	0xbd441758	-0.047873825
33	0xbd1a4453	-0.037662815
34	0x3d9463ce	0.07245599
35	0x3d2e5813	0.042564463
36	0xbd16dc60	-0.03683126
37	0x3c5fb6c7	0.013654417
38	0x3d5cdaaf	0.05391949
39	0xbcb226ac	-0.021746956
40	0xbcd98fd0	-0.026557833
41	0x3d44afd8	0.04801926
42	0x3d84227f	0.06451892
43	0x3d7bfc1d	0.06151973
44	0x3da0caab	0.07851156
45	0xbc2c6396	-0.01052179
46	0x3d529d02	0.051419266
47	0x3cc23851	0.023708494
48	0x3d9aa7b9	0.07551522
49	0xbc4187d8	-0.011812173
50	0x3c96bdb9	0.018401014
51	0xbe02b5ad	-0.12764616
52	0x3d3eb986	0.046563648
53	0x3dc3f4fe	0.09568213
54	0x3d169fd1	0.036773507
55	0xbca7efa9	-0.020500021
56	0x3de0e5a9	0.10981304
57	0x3e15231a	0.14564171
58	0x3cf97f5b	0.030456236
59	0x3e12d6c8	0.14339745
60	0x3e45aca4	0.19304138
61	0xbdf8290e	-0.121172056
62	0x3e529afc	0.20566934
63	0x3cd32444	0.025774129
64	0xbdc866bd	-0.09785221
65	0xbd833f92	-0.064086094
66	0x3d8471f6	0.06467049
67	0xbda7d4f0	-0.081949115
68	0x3bb0bf5a	0.0053939046
69	0xbd857a82	-0.06517507
70	0x3cc3d33e	0.023904439
71	0x3e257bdb	0.16160528
72	0xbdba8871	-0.091080554
73	0x3da9fe58	0.08300465
74	0x3d344a34	0.044016078
75	0x3d6adae9	0.057337675
76	0x3c87c54d	0.016573573
77	0xbdf37b0e	-0.11888705
78	0xbd9bd23a	-0.07608457
79	0x3e3245a2	0.17409375
80	0x3dcfcae8	0.10146123
81	0x3e0f3a04	0.13986975
82	0x3e20685c	0.1566481
83	0x3dd8039e	0.10547565

weight f4 [6, 84]
0	0xbcc08207	-0.023499502
1	0x3e7c2b83	0.24625973
2	0x3e3a1c1e	0.18174788
3	0xbdb7c942	-0.08973934
4	0x3cc8df38	0.024520501
5	0x3ddc38b7	0.10753005
6	0x3b71ae4f	0.0036877578
7	0xbd0121ce	-0.03152638
8	0xbd8d083c	-0.06886336
9	0xbdf0aa18	-0.11751193
10	0x3bcf79bf	0.006331652
11	0xbd930279	-0.07178206
12	0xb9387749	-0.00017592045
13	0x3de547db	0.11195346
14	0xbc4f34a0	-0.012646824
15	0x3e59903d	0.21246429
16	0x3da919a7	0.08256846
17	0x3d7b71cf	0.061387833
18	0xbdadac7e	-0.08480166
19	0xbe1798eb	-0.14804427
20	0x3da28256	0.07935016
21	0xbc6330c4	-0.013866607
22	0x3eaee9ee	0.3416285
23	0xbda2221c	-0.07916662
24	0xbd7c7e0a	-0.061643638
25	0x3dc89328	0.09793693
26	0xbe377494	-0.17915565
27	0x3e75d0cd	0.24005432
28	0x3de92483	0.11383917
29	0x3dc66185	0.09686569
30	0xbe203a77	-0.15647303
31	0xbe9100d0	-0.28320932
32	0x3d13fd34	0.036130145
33	0xbd396711	-0.045264307
34	0xbdbd55fc	-0.09244916
35	0xbd24c5ae	-0.040227585
36	0x3e04f400	0.12983704
37	0x3d8cc874	0.06874171
38	0x3d909710	0.07060063
39	0x3e2e87bc	0.17043966
40	0xbe9cbae8	-0.30611348
41	0xbce52a9c	-0.02797442
42	0x3d2ab11b	0.041672807
43	0x3c9bb0b4	0.019005157
44	0xbd2c7427	-0.04210296
45	0xbe67dedb	-0.22643606
46	0x3e0e5e3b	0.13903134
47	0x3db56834	0.08857766
48	0xbd853b49	-0.06505448
49	0xbe028a98	-0.12748182
50	0x3c4a148d	0.012334001
51	0xbda6d52e	-0.081461295
52	0x3e180832	0.14846876
53	0xbc5772e9	-0.013149955
54	0x3c4e7637	0.012601427
55	0x3ddb347a	0.107033685
56	0xbe4f6365	-0.2025276
57	0x3e8012b2	0.25014263
58	0x3db0b32d	0.08627925
59	0x3e381527	0.17976819
60	0xbd8b6a06	-0.06807332
61	0xbdf1d1c2	-0.11807586
62	0x3e9c79f8	0.30561805
63	0xbe02f652	-0.12789276
64	0x3d47f234	0.048814967
65	0xbdb597fb	-0.088668786
66	0xb991d720	-0.00027816836
67	0x3dc73e41	0.09728671
68	0xbdd2c9f6	-0.10292427
69	0x3d9a0a77	0.07521527
70	0xbe72da7e	-0.2371616
71	0x3da90594	0.08253017
72	0x3b2e2856	0.0026574335
73	0xbdb50840	-0.08839464
74	0xbd96e528	-0.07367927
75	0x3db78080	0.08960056
76	0x3d97a7c2	0.07405044
77	0x3d10e467	0.03537407
78	0x3db48586	0.0881453
79	0xbdc6e300	-0.097112656
80	0x3be61352	0.007021346
81	0x3e604fef	0.21905492
82	0xbdf5e9dc	-0.12007496
83	0x3e6af618	0.2294544
84	0x3d791c3c	0.060817942
85	0x3db463b6	0.08808081
86	0xbe90c280	-0.28273392
87	0x3dea6611	0.11445249
88	0xbda5e0e5	-0.08099536
89	0xbdb37860	-0.08763194
90	0x3dd4c6b2	0.103894606
91	0xbe495154	-0.1965993
92	0x3c0bdfa8	0.0085372105
93	0xbd25972a	-0.040427364
94	0x3d822a8d	0.06355772
95	0xbcfec44d	-0.031099463
96	0x3e220661	0.15822746
97	0xbd829cb0	-0.06377542
98	0x3b924e68	0.004464913
99	0xbd4593f0	-0.048236787
100	0xbe9a7def	-0.30174205
101	0x3e1ecf7f	0.15508841
102	0x3e008e1d	0.12554212
103	0xbd96d49b	-0.0736477
104	0x3e673438	0.22578514
105	0xbd28e7c7	-0.041236665
106	0x3dfdc049	0.12390191
107	0x3e4c7c83	0.19969372
108	0x3d06fdd7	0.032956924
109	0xbde314af	-0.110879295
110	0x3d9d9460	0.07694316
111	0xbe133072	-0.14373949
112	0x3da99af4	0.08281508
113	0xbdc603c4	-0.09668687
114	0xbc8059ec	-0.015667878
115	0x3e08de3b	0.13366024
116	0x3cca6895	0.024708072
117	0x3d4fa3ff	0.05069351
118	0x3dc51d3d	0.096247174
119	0x3e592ac2	0.21207717
120	0xbe5ad7bc	-0.21371359
121	0xbd29d699	-0.041464422
122	0xbc842335	-0.01613007
123	0x3e41f365	0.18940504
124	0xbdbd9648	-0.092571795
125	0x3d0023d7	0.03128418
126	0xbe22f473	-0.15913562
127	0xbdf4e1c8	-0.11957127
128	0x3de4c0ad	0.111695625
129	0xbdc8a6cc	-0.09797439
130	0xbd1e1db4	-0.038602546
131	0x3daf847b	0.085701905
132	0x3dffb4bb	0.124856435
133	0xbcd8c258	-0.026459858
134	0xbd4b40f4	-0.04962249
135	0xbda0da73	-0.07854166
136	0x3e3ae79d	0.18252416
137	0xbe8b2d8e	-0.27183193
138	0x3d86f09c	0.06588861
139	0x3dc122ee	0.094304904
140	0xbcbe9692	-0.023265157
141	0xbdc1a63e	-0.09455536
142	0xbe4d79c7	-0.20065986
143	0x3d09cfb2	0.03364534
144	0x3e24e7c5	0.16104038
145	0x3e2294a8	0.1587702
146	0xbce07e9f	-0.027404128
147	0x3ddcef94	0.107878834
148	0xbe7ee34d	-0.24891396
149	0xbd38207b	-0.04495285
150	0x3d5ef944	0.054436937
151	0x3dfe5e93	0.12420382
152	0xbe7e7d8b	-0.24852578
153	0xbe349873	-0.1763628
154	0x3e0706d6	0.13186201
155	0xbda05a43	-0.07829716
156	0xbce304ad	-0.02771219
157	0x3d367eb2	0.04455442
158	0xbccb9763	-0.02485246
159	0x3d86f7b4	0.06590214
160	0xbe9153c6	-0.28384227
161	0xbe07fdab	-0.1328036
162	0xbe380f07	-0.17974482
163	0x3e80d66a	0.25163585
164	0xbdb56f22	-0.088590875
165	0xbd6446be	-0.055731528
166	0xbd50daee	-0.050990038
167	0x3dd9c57f	0.106333725
168	0xbdf74914	-0.120744854
169	0x3d5bd137	0.05366632
170	0xbd534b8a	-0.05158571
171	0x3e607b15	0.21921952
172	0x3e39572d	0.18099661
173	0x3e06b148	0.13153565
174	0x3e404d99	0.18779601
175	0x3e8c3bb1	0.2738929
176	0xbd30605e	-0.043060653
177	0x3df806be	0.12110661
178	0xbe535158	-0.20636499
179	0xbe2eb1f1	-0.17060067
180	0xbe2ca7f8	-0.1686095
181	0x3dc0a832	0.09407081
182	0x3d7a6c6a	0.061138548
183	0xbd3a55d8	-0.045492023
184	0x3df13de3	0.11779382
185	0x3e092b9f	0.13395546
186	0x3c0fe241	0.0087819705
187	0x3df35c3e	0.11882828
188	0x3dc35638	0.09537929
189	0x3d1b55bf	0.03792357
190	0xbe237e33	-0.1596611
191	0xbdd0ca52	-0.101948395
192	0xbc81bcf7	-0.015837176
193	0x3d429cd2	0.047512837
194	0xbe189d59	-0.14903773
195	0xbe16e10a	-0.14734283
196	0xbe0b29c3	-0.1359015
197	0xbc89334c	-0.016748093
198	0x3dca0858	0.09864873
199	0xbd1f99be	-0.03896498
200	0xbd28931f	-0.04115593
201	0xbc7aefbf	-0.015315949
202	0x3cf46b6f	0.029836385
203	0x3dcec12e	0.1009544
204	0xbe231f88	-0.15929997
205	0xbdf01cf1	-0.1172427
206	0xbd82cd08	-0.06386763
207	0x3cbd17d5	0.023082653
208	0x3db97cfb	0.09057041
209	0xbda92875	-0.0825967
210	0xbe0e99ad	-0.1392581
211	0x3d274a1a	0.040842153
212	0x3dd8d0d6	0.10586707
213	0x3d9d466c	0.076794475
214	0x3eaa82b2	0.33302838
215	0xbdad4d0d	-0.08461962
216	0x3c95e22f	0.01829633
217	0xbe8840e6	-0.26612014
218	0xbd92e1e0	-0.071719885
219	0x3d3bb532	0.0458271
220	0xbe10edea	-0.14153257
221	0x3d5b50f1	0.05354399
222	0x3c88cbf5	0.016698817
223	0x3d332708	0.043738395
224	0x3e81a5da	0.25321847
225	0xbdb1e141	-0.08685542
226	0x3e2455e0	0.16048384
227	0xbe98a4e4	-0.29813302
228	0xbd49c265	-0.049257655
229	0x3dc1db1e	0.094656214
230	0xbdead1dc	-0.11465809
231	0xbdd277c7	-0.10276752
232	0xbdbb0328	-0.091314614
233	0x3db5b7d0	0.0887295
234	0x3e79328c	0.24335688
235	0xbe41e2fa	-0.18934241
236	0x3ca52280	0.020158052
237	0xbd9fab18	-0.077963054
238	0xbe0a3c20	-0.13499498
239	0x3e1418db	0.14462607
240	0xbd9644b8	-0.07337326
241	0xbd040adf	-0.03223693
242	0x3d8196be	0.0632758
243	0x3e4278c9	0.18991388
244	0xbd824693	-0.06361117
245	0x3d0e2fea	0.034713663
246	0xbdc8dbcc	-0.09807548
247	0x3d79197c	0.06081532
248	0x3d714d4c	0.058911607
249	0xbe4f9a2f	-0.2027366
250	0xbdcce56b	-0.100046955
251	0xbdf5dfeb	-0.120055996
252	0x3db7e15b	0.0897853
253	0xbe959024	-0.29211533
254	0x3df6604e	0.120300874
255	0xbd576b76	-0.052592717

bias f4 [6]
0	0x3d9c725e	0.07639001
1	0x3de2a5d7	0.11066788
2	0x3d7bf768	0.06151524
3	0xbc23fd19	-0.010009074
4	0x3db6c01f	0.08923363
5	0x3d134e49	0.03596333
