part_4/Reinforcement_Learning/models_lab1/model_kek_winner_v6.pt (torch, 86199 bytes, 6 tensors)

weight f4 [256, 14]
00000000: 5d6b d33c 0ec2 df3c 72e7 d3be 954f fb3e
00000010: 8812 72bf ae65 0dbe 5c79 b5bc d9a8 f53d
00000020: 6d9a 57bd 1be7 323e 0ba8 d8bd 4062 9e3d
00000030: 07e6 483c 7342 3abd 59c3 9fbd fbd8 47bd
00000040: a78d bdbe 0575 81be 8b3a 67bf 1aed 2dbe
00000050: a026 053e 1a3a 473e ba18 c4bb e2a0 76bd
00000060: 06d3 cc3c 42b5 2a3e 5ddf 853c a36b 3e3e
00000070: 9792 13be d937 15bf 4a11 db3e 7d03 c8bd
00000080: 5409 3fbe 9d26 893e 4493 0fbe 7817 313e
00000090: f0d3 28bd 6959 543e b17e 1bbd ac00 953d
000000a0: 7325 833e 64d6 c93d aa2e 933c 4936 10be
000000b0: ee38 bf3e dea3 743e 7a10 033f 2a47 95be
000000c0: abec 353e 09c1 aabb a8dd 6abe 3319 b43c
000000d0: 8377 063e f1aa 9d3d fd7e 023d 1791 9ebc
000000e0: 8ce9 38be d6f2 503e 8288 cc3c 1c89 01be
000000f0: 2f43 a33d 2c4c 873e 2c75 a73d 100b d4bd
00000100: 485e 4abe b94f f63d 21be 583e 7766 a83c
00000110: d091 ccbe 720f d8be d7b4 afbc c72b 2a3c
00000120: 2924 a0bd a1e8 af3e 3d00 4d3d c45e 49be
00000130: 83a8 843d 1ff9 babe 2883 543b b93e 4f3e
00000140: 3724 883d b1dc 94be 1f64 113e ad4e 2bbd
00000150: b983 7c3e 5682 da3e b25d c3be 8561 bcbe
00000160: a855 293f d8d4 24be ddf0 283e 1c96 4a3d
00000170: 9f21 323e e630 22bd 9752 c4bd c566 453e
00000180: 3789 bb3d e7d7 1cbe 4c6a bdbd 0fd1 033e
00000190: 1b65 e1bd 4d4c eb3d 844f 513e 666f 7fbe
000001a0: f451 fbba ea7a 01be e247 1cbe f695 3c3e
000001b0: 51e8 0fbe 5e39 edbd 71ce 76bd ca6d 94be
000001c0: 3746 e93e 3243 46bd f46c 033f 29fd 083d
000001d0: 356f 1d3f b657 df3c 4ca0 293e 672e 97bc
000001e0: 76eb 4abe 07ee 05be da33 24be e82b 223d
000001f0: bb20 69bd c359 b3be d239 0abe 9cd0 82bd
00000200: f09d c93d 7980 8c3d 30fd 65bd 4819 68be
00000210: 03ec 8d3d 2914 69be ea26 40be 629e a6be
00000220: edd1 f63c 4246 3a3e 85c2 5fbe 63b0 93bc
00000230: f729 a23d 4159 243e 1f50 27be c8e5 6bbe
00000240: ebd8 9dbc 967d ccbd eba0 a5be 3578 01bd
00000250: 286a edbd 29f1 6dbe 8b71 94be 1d06 06be
00000260: 4b77 c93d f452 743d e358 7dbe 01b5 cc3e
00000270: 8e51 a33e bbae 61be 5d63 d23e 668d d63d
00000280: be0e 8ebd 8a5e f53d da01 f0bd bdfb 75bc
00000290: d0e9 b2bd 2a6d b9bd 9625 443d b45b 9ebe
000002a0: be58 9a3e 3740 8d3e b481 80be 58ec a23e
000002b0: 5b73 80be 7a83 8b3e 0f47 15be 15f1 36be
000002c0: 1c11 debd 1afc a6bc 37b8 373e 6f51 463c
000002d0: 4b80 c83d f0ba c2bb 5944 843e aac7 2e3e
000002e0: 0490 2ebe ad75 9b3e 97f3 7e3e b8f6 29bf
000002f0: d3d1 853d 0ebc 15bd 99fa 353e 5334 9a3d
00000300: b974 10be 25a0 243d e351 183e 4bf9 063e
00000310: 5206 80bb 634a c0be 5acc 2a3e df8c c03d
00000320: e119 9f3e 1770 a83d 5b24 833c 2776 8cbe
00000330: fd3e 343d ebd9 973e 7a46 8bbe 6161 2fbe
00000340: b2fc ef3d ec7b a4be 2df1 38be 99f9 aabe
00000350: ddc0 84be 2cda 043e c954 debe ea00 f83d
00000360: dd4a d7bd 4abc c73d 6878 493e 67b8 32be
00000370: d8ee 023e 4cf3 2e3e e8a9 b2be 68c7 0ebe
00000380: 5e8f ce3d 4aeb 6bbd e36d 543e d757 c3be
00000390: 360f c73d a1b7 b3bd 505d 83be 076e 453d
000003a0: 642e 2abc 5629 203e e4d7 a0be c79b b1be
000003b0: 627a e93d b038 663d 6466 d4bc f804 2a3c
000003c0: 3a5d 3f3d 64a7 cebd 9a21 dfbd 1ac5 c0bd
000003d0: e8d1 3ebe aa88 0c3d ecd9 1d3e 53c0 17be
000003e0: 93fe 98bd 1924 41be 0734 69bd 7d6c 563d
000003f0: da84 2c3e 4026 59bd 560f 58be 47c1 203e
0.02580803 0.027314212 -0.41387516 0.49084154 -0.94559526 -0.13808319 -0.022152595 0.11995096
-0.052637506 0.17470972 -0.10578927 0.077335835 0.012261874 -0.045473527 -0.078009315 -0.048790913
-0.37022135 -0.2528459 -0.90323704 -0.16984978 0.13003016 0.19455758 -0.005984393 -0.060212024
0.025002968 0.16670707 0.01634186 0.18595748 -0.14411388 -0.5828834 0.42786628 -0.0976629
-0.18655902 0.26787272 -0.14021021 0.17294109 -0.041217744 0.20737232 -0.03796262 0.07275519
0.2561451 0.09855345 0.017966587 -0.14083208 0.3734812 0.23890635 0.51197016 -0.29155856
0.17766063 -0.005211 -0.22936118 0.021984672 0.13131528 0.0769862 0.031859387 -0.019356294
-0.18057841 0.20405135 0.024967436 -0.1264996 0.07971799 0.26425302 0.08176646 -0.103536725
-0.19762528 0.12026925 0.21166278 0.020556672 -0.39954996 -0.42199284 -0.021448536 0.010386414
-0.07819397 0.3435717 0.050049055 -0.19665056 0.064774536 -0.3651819 0.0032426808 0.2023877
0.066475324 -0.29074624 0.1419835 -0.041823078 0.24659623 0.42677563 -0.3815742 -0.36793151
0.66146326 -0.16096818 0.16498132 0.04945956 0.17395638 -0.039597414 -0.09586065 0.19277485
0.09157031 -0.15316735 -0.0924879 0.12872718 -0.110056125 0.114891626 0.20440489 -0.24944839
-0.0019174204 -0.12644544 -0.15261796 0.1841658 -0.14053465 -0.115832075 -0.06025547 -0.28990012
0.45561382 -0.048403926 0.51338124 0.033444557 0.61497813 0.027263504 0.16565055 -0.018454744
-0.19816384 -0.13079081 -0.16035405 0.039592654 -0.05691598 -0.3502942 -0.13498619 -0.06387445
0.09844577 0.06860442 -0.05614966 -0.22665894 0.06929781 -0.22761597 -0.18764845 -0.32542711
0.030129397 0.18190864 -0.21851547 -0.018028444 0.079181604 0.16049673 -0.16339158 -0.23036873
-0.019268474 -0.09984891 -0.32349333 -0.03160878 -0.11592513 -0.23236527 -0.28992876 -0.1308827
0.098372065 0.059649423 -0.24740939 0.39981845 0.3189816 -0.2203931 0.41091433 0.10476188
-0.069364056 0.119809225 -0.11719103 -0.015013632 -0.087360024 -0.090540245 0.047887407 -0.3092934
0.3014583 0.27588055 -0.25098956 0.3182094 -0.2508801 0.27248746 -0.14577888 -0.17865403
-0.10843107 -0.020383883 0.17941366 0.012104376 0.09790095 -0.005942695 0.25833395 0.17068353
-0.17047125 0.30363217 0.2489761 -0.6639209 0.065341614 -0.036556296 0.17771377 0.07529511
-0.14107026 0.04019179 0.14874987 0.13181035 -0.0039070034 -0.37556753 0.16679516 0.09401869
0.31074432 0.082245044 0.016008547 -0.27433893 0.044005383 0.29658446 -0.27202207 -0.17126991
0.1171812 -0.32125795 -0.18060751 -0.33393553 -0.25928393 0.12973851 -0.4342406 0.12109549
-0.10512326 0.0975271 0.19674838 -0.17453156 0.12786424 0.17084998 -0.34895253 -0.13943255
0.10085939 -0.057597436 0.20745043 -0.38152954 0.09719698 -0.08775259 -0.2565713 0.048200633
-0.010387037 0.15640768 -0.3141471 -0.3468916 0.11400296 0.056206405 -0.02592773 0.010377161
0.046719767 -0.10090521 -0.10895081 -0.09412594 -0.1863476 0.03431002 0.15415162 -0.1481946
-0.07470431 -0.18861426 -0.056934383 0.052349556 0.16847554 -0.053014994 -0.210996 0.1569873

bias f4 [256]
00000000: 5225 893e f951 0ebd b903 dfbd e687 8ebd
00000010: 08e7 6cbe 96e8 0c3e 1007 52bc cf59 9fbe
00000020: 5636 e5bc 87f0 623c dd06 583d 21eb 68be
00000030: 9463 bb3d 109c 0b3e 08d1 8dbd c3f7 ecbd
00000040: 0fd7 0b3d 3465 24be 326f 293e bed6 29be
00000050: 117a fcbd 199f 6fbe bc45 81be 4c76 253d
00000060: 589b 89bd 1323 a43c b84d 903d b7b0 73be
00000070: e222 c3bd 1085 90be c71d 28be 5485 24bd
00000080: 1170 753e 263c 733e 0229 a03d 716a 8bbe
00000090: b0f0 5ebe f4f9 6dbd 8b17 25be aeb1 2bbe
000000a0: 02d7 5ab9 8362 02be a203 3c3c 2d07 6dbc
000000b0: c88d 2e3e 376e 343c d20d 56bd 20a1 cebd
000000c0: 4727 84be 1899 c23d d198 88be 50cf 68be
000000d0: 60c9 b6bc 7aed be39 26cf 423d 7832 a9bd
000000e0: c491 dc3d d3f5 0abe 90dd c83d 0768 693e
000000f0: e395 ab3d 1167 e03d f4f1 57be 4144 b03d
00000100: 1ea7 003d 76be 96bd e84e b63d 423f 2bbd
00000110: b0e1 883d 6ea6 83be d355 0c3e f4bf 2dbe
00000120: e8a0 523e dc2e 5cbe b522 1d3d 5950 c73d
00000130: 0bc2 12bb 5e32 af3d 190b d9bd aef8 b43d
00000140: 6aa8 293e 1caa 7c3e bded 88bd cab1 773e
00000150: be75 ad3e e01d 903d c621 603e 6e69 dfbd
00000160: 1843 f43d 6123 2ebe 2aa4 b23d 5ef6 1c3e
00000170: 7076 933d b333 583d 1d4a 02bd b284 163e
00000180: a7eb a7be 66ac 18be cc3e a53b 497b 1dbd
00000190: af8b 5d3e aa8b 933d a4a5 543e a43c 133e
000001a0: 0456 35be 1a8c 4b3e 3963 14be 6a76 ad3d
000001b0: 331b 4ebe ec12 5d3d 367e 433e 9100 b1bd
000001c0: 9615 acbd bb1a 703d 6d43 20be fdc4 b83d
000001d0: 809a 14be f45b 2b3d 916c 243e 4575 8ebd
000001e0: 2344 013e cdee aa3d 4890 703e fcdf c63d
000001f0: b7af 6dbe 4f3c fabc c96a 963d 3778 36bd
00000200: bfab a33c cbc2 243e 0869 973e 9c5e 3a3e
00000210: b821 fa3d a5a7 573e dfed 22be 2ca9 1d3e
00000220: c20b 8f3d 709e 13be a7c4 d43d 302e c3be
00000230: b4f3 993e 058c 48be 4f05 00bd 7563 50be
00000240: e8d0 233d 11f2 abbc 062d a1be b256 94bd
00000250: b305 a2be 19fd 42be ce16 a6bd ab26 653d
00000260: afa1 a1be 3fb4 aabd c0e4 aabe b2a0 21be
00000270: 451f ea3d 90f4 94be e32a d8bd 5faa 663e
00000280: 0200 6abe 6b18 0ebe 1f19 053e e8fb e33c
00000290: ab86 c1bd 17f9 aebd 1765 b1bc a7ad a23e
000002a0: 6764 e63d 81fc 223e 2bd7 613d e9cc 083e
000002b0: 2efb 713e 4e8b b1be 3214 4abe 02fc 223d
000002c0: 83eb 68be a2ad 97ba 5960 9d3d 472e f9bc
000002d0: e4c7 0c3e d361 9abe 1f58 07bb f004 8ebd
000002e0: 3f74 bfbd 0fa6 9abe 44c1 c2bd 82e2 f5bd
000002f0: fc0b 70be 7174 413e b780 44bd c224 6dbe
00000300: 815f cfbd 31cb 3fbe eae0 39be 8726 d4bd
00000310: 5901 f3bd f804 033e 620f d43c 852d c83d
00000320: be5f 23be 1def 1b3e 4f24 43be 571c 2fbe
00000330: 03df 86be ec89 683e 2eb0 a23e ffce fdbd
00000340: 9bdd 8bbe a05e 3ebe 6e80 11be 06e5 033d
00000350: fcfa d43d d3ce d6bd bd48 8b3d f7d1 903e
00000360: 7bfe 8a3b eccb c1bc 49fb 88bd 785e fbbd
00000370: d3b3 023e 9b05 04be df40 08be 6732 0fbe
00000380: 7c1b f3bd ffc1 92be cf0a 79be e557 45bd
00000390: 9da5 9abe 9693 5ebe ddd6 b4bd e578 c73d
000003a0: f71c 7cbe 425d 1f3e e1e3 6a3e e664 97be
000003b0: b9cd 1bbe 6751 ea3d 6657 273e 924b 843d
000003c0: 4ba6 99be e433 39be a4b4 533e e8a6 243e
000003d0: 5ad2 623c d45f 64be 1d21 39bb b9bb 34be
000003e0: 12df 9ebc 5eb3 03be 22ea f4bd 1d6a 8c3a
000003f0: faa4 0e3e b303 3ebd ea99 94be d570 563e
0.26786286 -0.034746144 -0.10889382 -0.06959514 -0.23135006 0.137606 -0.012819067 -0.31123206
-0.027980011 0.0138512915 0.05274092 -0.22745945 0.091498524 0.13633752 -0.06924635 -0.11570694
0.034140643 -0.16054231 0.16546324 -0.16585824 -0.1232797 -0.23400535 -0.25248516 0.04039602
-0.067190826 0.020036256 0.07046074 -0.2379788 -0.09528138 -0.2822652 -0.16417609 -0.040166214
0.23968531 0.23753414 0.078203216 -0.27229646 -0.21771502 -0.058099702 -0.16122262 -0.16766998
-0.00020870197 -0.12732892 0.0114754755 -0.014467043 0.17046273 0.011012605 -0.052259274 -0.10089326
-0.25811216 0.095018566 -0.2667909 -0.22735333 -0.02231282 0.00036416558 0.047560833 -0.08261579
0.1076999 -0.13570337 0.09807885 0.2279359 0.08378198 0.10957158 -0.21088392 0.086067684
0.031409375 -0.07360546 0.08901769 -0.041808374 0.066836715 -0.25712913 0.13704614 -0.16967756
0.20569193 -0.2150225 0.038363177 0.09732122 -0.002239349 0.08554529 -0.1059782 0.088364944
0.16568151 0.24674267 -0.0668597 0.24188915 0.33878893 0.07036948 0.21887884 -0.10908781
0.119268596 -0.17005683 0.08722718 0.15328357 0.072003245 0.05278368 -0.03180896 0.14699057
-0.32796976 -0.14909515 0.0050428864 -0.038447652 0.21635316 0.07204373 0.20766312 0.14378601
-0.17708594 0.19877663 -0.14490975 0.08469851 -0.20127563 0.053973123 0.19091114 -0.08642686
-0.08402555 0.058619242 -0.15650721 0.090219475 -0.14512062 0.04183574 0.1605704 -0.06955961
0.12623648 0.08346329 0.23492539 0.097106904 -0.23211561 -0.030546336 0.073445864 -0.04454824
0.019979356 0.16089933 0.2957232 0.18200153 0.122134626 0.21060045 -0.15911053 0.15396565
0.069846645 -0.14415908 0.10389071 -0.38121176 0.30068743 -0.19584663 -0.031255063 -0.2035044
0.03999415 -0.02098945 -0.31479663 -0.07243098 -0.31644973 -0.19041862 -0.081098184 0.05594508
-0.31568667 -0.083351605 -0.33377647 -0.15783957 0.114317454 -0.29092836 -0.10555055 0.22525929
-0.22851565 -0.13876502 0.12997864 0.02783008 -0.09449514 -0.08543604 -0.021654649 0.3177311
0.11249619 0.15916635 0.05513684 0.13359417 0.23630974 -0.34676594 -0.19734266 0.039791115
-0.2274609 -0.0011572132 0.076843925 -0.030417575 0.13748127 -0.3015276 -0.002065189 -0.069345355
-0.09348344 -0.30204818 -0.09509519 -0.120060936 -0.23442072 0.18892075 -0.047974315 -0.23158553
-0.10125638 -0.18729855 -0.18152204 -0.10358911 -0.118654914 0.12794864 0.025886241 0.09774307
-0.15954491 0.15227933 -0.1905682 -0.17100655 -0.2634202 0.22708863 0.3177504 -0.12392997
-0.2731751 -0.18590784 -0.14209148 0.032200836 0.10399434 -0.10488667 0.06800983 0.2828519
0.004241762 -0.023656808 -0.06688554 -0.12273878 0.1276391 -0.12892763 -0.13305996 -0.1398407
-0.118704766 -0.28663632 -0.2432053 -0.048179526 -0.30204478 -0.21735987 -0.088300444 0.09739856
-0.24620424 0.15562919 0.22938491 -0.29569167 -0.15215196 0.114413075 0.16341934 0.064597264
-0.30009684 -0.18086201 0.20674378 0.16079295 0.013844097 -0.2230218 -0.0028248497 -0.17649736
-0.019393478 -0.12861392 -0.1195872 0.0010712777 0.13930121 -0.046390247 -0.29023677 0.2094148

weight f4 [64, 256]
00000000: d4f7 75be 7a40 bebd 656b 3f3e e106 1f3e
00000010: 2bdc af3a 7eb7 053e 5ca0 cebd 7d0a ba3c
00000020: 8e9f 653d 4bcc ca3c cb7f 8abc f697 83bc
00000030: 0646 c63c b11e a63c dc7a 10bd 698e 11bc
00000040: ece3 3f3b e0d9 44bd 46c0 3bbe b716 6abe
00000050: ff7e 9c3d dee9 36be 9b39 17bd a70a 2bbd
00000060: aea4 74bd d322 9ebc 1f75 393e b91a e83c
00000070: 9c6e 12bd 478c 003d 7af0 71be 58f8 18bd
00000080: 068a 3cbc e87f 963d 34b8 0bbd 5a9f 51bd
00000090: 2062 8a3c 0753 ca3d 3454 80bd 8315 8a3d
000000a0: 623e e03d 16e3 e33d 3754 bcbd eb84 f9bc
000000b0: c169 18be bea5 2f3e 85bc f1bd 7db6 b4bd
000000c0: 606f 04bd 9e2a 0a3e a19d 2c3d ad31 0dbd
000000d0: 076b bcbd faa9 0f3d b521 cd3d 42df 0c3e
000000e0: e989 43be d1b8 cb3b fd0f 903d 9e55 8c3c
000000f0: 095b 6f3c 9997 443c 09fb 52bd 2237 093d
00000100: fba3 9a3d c6c2 cd3d 1c3f 0dbe fc6a 9cbe
00000110: 5618 c3ba 43be 9bbe 030c e53c 00e0 84bd
00000120: 488d 893d ca51 223e 7bce 89bc 088e 823d
00000130: 4149 87bd fd14 5ebc d4d8 32bd adf3 193e
00000140: 4abf 073d 438b 183e c211 b33d 187a 763e
00000150: c184 ad3e 0119 01bd c404 4fbe 73a4 39bd
00000160: 8dd8 9f3d ac17 61bd c4cb 013e 5834 133e
00000170: eb10 a13d 856c 3fbb 4fc1 2ebc 972a 0c3d
00000180: 0191 cfbd 4ed6 c6bd ef06 46bd 5770 0f3e
00000190: 77fe df3c a617 7c3d 24a3 d63b 90ed eb3d
000001a0: 524e b1bd e566 1d3e b7c3 923e 1b44 0bbb
000001b0: 3747 f4bc 36dd e53d e5ab 1c3e a173 f8bd
000001c0: bf70 98bd 9ba8 e6bd 050f 11be ae7b 3a3d
000001d0: fd89 40be 6b02 f93d 4b0c 60bd a5ee b73c
000001e0: 236d 80bd 6880 ae3c f0e9 623d 44de c3bd
000001f0: 7e48 a2bd 2139 c1bd 1c5d e03d d4da 643e
00000200: 71e5 823d 8f51 92bd 3bfb 1f3c 0090 35bd
00000210: 3f55 3a3d d6c7 9abc 12a7 5bbd 6ccb debd
00000220: df56 143d eb8c 093d b019 903c 0b9b 633e
00000230: 6354 b93c 86e8 933c 5d3c b83d 1632 8cbd
00000240: 4600 473e 23b9 2f3d 4a6d 5ebd 5501 143c
00000250: 088b 133e 3d1f 223d 6d5d 43bd a42b c4bd
00000260: 2c5c 233c 4863 063d d6bb 8ebd ef8a 8fbe
00000270: 81e0 ff3c c6da 053c 5bea a1bc 718d ea3c
00000280: 56e4 fcbc 774f 02be f650 e3bd d8c5 fabc
00000290: 9eaf 1d3e 28f4 80bd b48f 17bd b9b5 563e
000002a0: 4069 183c 3104 37bc f8e2 2cbe ac27 7b3d
000002b0: 82e9 25bd 8906 5dbe 29ff 193e 36b0 b7bd
000002c0: 247c d9bd 5a5b 22bd 6dce edbd fdad 463e
000002d0: fa5b e1bd 5ee6 213e c61b fd3b 0189 b1bc
000002e0: 6c75 403d 1e92 08be 19b8 e93b 66d9 dbbd
000002f0: 7496 05bd 52b5 59bd 0200 1dbe 5817 913c
00000300: ed27 413e 22ec 073e 5faf 54bd 9cf7 5a3e
00000310: 6bcc 283d 570f 4fbb e819 0abd 1542 1fbb
00000320: b983 0d3e b398 053e c65b 33bd 98a9 0ebe
00000330: 3084 b2bd 896b f23d f5c0 2f3e fd12 d53d
00000340: cc6e 81bd e385 6bbc 5364 62be bbae 143e
00000350: 0268 023e fbe2 da3c 6d64 92bd 00f8 9e3e
00000360: 46b5 833e e943 95be 64aa 5ebd cc8b 85be
00000370: dca5 f9bd c527 823e 977f 843c 74cb 54be
00000380: 241f ae3d b89e e0bd 6032 e0bb 8d20 b9bd
00000390: 0e83 10bd 8384 adbd 6008 d4bc 2cbd 55be
000003a0: 12b3 b83d 3993 023e 20fc 67bd d1b5 00bd
000003b0: d4d2 0abe cc10 17bd 04bb e23d 6541 4cbd
000003c0: 093b 223d 4dda 17bc f272 683d 4f97 88bc
000003d0: a402 a9bc 01b1 053e c6b1 893c 3703 1dbe
000003e0: 2684 3abd 2d61 ae3c 25c1 4bbe 8a68 5cbd
000003f0: ec63 0dbe 3074 eabc 7fb2 b33d 40a7 bfbd
-0.2402032 -0.09289642 0.18693312 0.15529968 0.0013417056 0.13058278 -0.1008918 0.02271008
0.056060366 0.024755618 -0.01690664 -0.016063672 0.024203312 0.020278307 -0.035273418 -0.008884051
0.002928014 -0.048059344 -0.18335065 -0.22860228 0.0764141 -0.17862651 -0.03692017 -0.041758206
-0.059727363 -0.019303715 0.18111084 0.028333055 -0.035750017 0.03138378 -0.23626891 -0.037346214
-0.011507517 0.07348615 -0.034111217 -0.05117736 0.016892493 0.098791175 -0.062660605 0.06742384
0.109493986 0.111272976 -0.0919575 -0.030458888 -0.14884092 0.1715307 -0.11803535 -0.088238694
-0.032332778 0.1349282 0.042142514 -0.034471203 -0.09200101 0.03507421 0.10016195 0.13757041
-0.19095577 0.0062171 0.070342995 0.01713067 0.014609107 0.011999034 -0.051508937 0.033499844
0.07550808 0.10046916 -0.13793606 -0.30550373 -0.0014884572 -0.30418596 0.02795983 -0.06488037
0.067164004 0.15851513 -0.01682209 0.063747466 -0.06605769 -0.013554809 -0.043663815 0.15034361
0.03314141 0.14896874 0.087436214 0.24070013 0.33890346 -0.031517986 -0.20216662 -0.045322847
0.07804976 -0.054954216 0.12675387 0.14375436 0.07864555 -0.002920897 -0.010666206 0.034220304
-0.10135079 -0.09708844 -0.048346456 0.14007698 0.027343018 0.06154599 0.0065502096 0.11519921
-0.086575165 0.15371282 0.28664944 -0.002125031 -0.029819114 0.11223833 0.15299948 -0.121314295
-0.074433796 -0.11262628 -0.14165886 0.045528106 -0.18802638 0.12158664 -0.054699223 0.022452662
-0.06270816 0.021301463 0.05539888 -0.09563878 -0.07923983 -0.094347246 0.10955259 0.22349101
0.06391419 -0.07144462 0.009764488 -0.044326782 0.045491453 -0.018894117 -0.053626128 -0.108786434
0.03621566 0.033581655 0.017590374 0.22227113 0.022623247 0.018055212 0.089958884 -0.06845491
0.19433698 0.04290117 -0.054303445 0.009033521 0.14408505 0.039580572 -0.04769652 -0.09578636
0.009970706 0.032809526 -0.069694206 -0.28035685 0.031234981 0.008169835 -0.01976507 0.028631898
-0.030870598 -0.12725626 -0.110994264 -0.030611917 0.15399024 -0.06296569 -0.03700228 0.20967759
0.009302437 -0.011170433 -0.16883457 0.06131713 -0.040505894 -0.21584524 0.15038742 -0.089691564
-0.10619381 -0.0396379 -0.11611638 0.19402309 -0.11003871 0.15810534 0.007724258 -0.021671774
0.046986982 -0.1333699 0.007132542 -0.10734825 -0.032614186 -0.053151436 -0.15332034 0.017711326
0.18862887 0.13273671 -0.05192506 0.21383518 0.041210573 -0.0031594837 -0.033716112 -0.0024300863
0.1381978 0.13046531 -0.043788694 -0.13931882 -0.08716619 0.11836917 0.17163451 0.10404012
-0.06319961 -0.014375183 -0.22108583 0.1451978 0.12734988 0.02671956 -0.07148061 0.31048584
0.25724238 -0.29153374 -0.054361716 -0.2608322 -0.12189838 0.25420967 0.01617412 -0.20780736
0.08502033 -0.10967773 -0.0068419427 -0.09039412 -0.035281233 -0.0847254 -0.0258829 -0.20872945
0.0901853 0.12751473 -0.05663693 -0.031423394 -0.13556987 -0.036881253 0.11070827 -0.049867053
0.03960708 -0.009268356 0.056750245 -0.016673712 -0.020631142 0.13055803 0.016808402 -0.15333258
-0.045536183 0.021286571 -0.19897898 -0.053810634 -0.13807648 -0.028619856 0.0877428 -0.09358072

bias f4 [64]
00000000: 50b6 963c 5145 1d3d b7f2 56bc 1fb6 cc3b
00000010: 61f6 00bc 4a5d d93c ad84 903b e90a 86bd
00000020: 9046 1abd f53f a23d 7319 213d 5444 aabb
00000030: 7a5e 3d3c 17a1 6abd abd9 ed3c 8fba 53bc
00000040: a5e2 50bd f4d9 54bb 6361 86bb 7543 ae3b
00000050: 4149 34bc 7584 8bbd 70aa 27bd bf8f 6d3d
00000060: 9092 a7bc c05b 18bd 610d 463c e6a7 34bd
00000070: b812 bcba 49d0 013d 8cc8 fb3b c876 6dbd
00000080: 4194 933d 0b8e ac3c 27b2 293c 35b5 d33c
00000090: 8323 f43c 2237 df3c 4838 aebd 5824 a9bd
000000a0: f3a3 fc3c 1864 253d ac91 c2bc cdd5 a03c
000000b0: a10e 093d 7b04 bbbd 5bee 65bd 1518 76bd
000000c0: f6de 9cbd cfcc d83c be0d 523d 817d 28bb
000000d0: 20d5 443d 67ae 363d f30e 55bd 2b4b 96bd
000000e0: e22a 003e d4b7 cc3c 0422 79bc 2b31 aebd
000000f0: 7024 f03c 0cdd d43b d353 2fbd 6b9b 8dbc
0.01839748 0.038396183 -0.013119391 0.0062472965 -0.007871241 0.026533742 0.0044103474 -0.0654505
-0.03766495 0.07922355 0.03933091 -0.0051961336 0.0115581695 -0.057282533 0.029034456 -0.012922897
-0.050997395 -0.0032478543 -0.004100965 0.0053181 -0.011003793 -0.068123735 -0.040934026 0.057998415
-0.020455629 -0.037196875 0.012088151 -0.044105433 -0.001434884 0.031692777 0.007683819 -0.057974607
0.072060116 0.021063825 0.010357416 0.025843242 0.02980209 0.027247969 -0.085068285 -0.08258885
0.030839896 0.04037866 -0.023751102 0.019633198 0.033461217 -0.09131714 -0.056135517 -0.06008156
-0.07659714 0.026464848 0.051282637 -0.0025709572 0.048054814 0.044599917 -0.05201621 -0.07338556
0.12516358 0.02499 -0.015205864 -0.08505472 0.02931425 0.0064960774 -0.04280455 -0.017286023

weight f4 [6, 64]
00000000: 014c 47be b9eb 89bd 4892 3f3d ecc8 d93d
00000010: b731 d03c cceb 463e 3eb6 c1be e8ed 913d
00000020: 2ed8 a83d 7b31 13bd 49cf bd3d 6d68 a43d
00000030: 6edb a3bd 1942 88bd 315c 5dba 4177 d13c
00000040: bb12 9dbd 9863 413d 2d92 0ebe 6ca7 6bbc
00000050: 50c6 c1bd fe6c 8cbd dcb7 823d cb36 913b
00000060: f0e8 983d 3125 8dbd fac5 a03d ca0f eb3d
00000070: 63a5 d53c 8ce7 0abf 6bf1 44bd 0ce1 453e
00000080: 43be 13bd fa1a ce3c 2998 923e a9b4 65bc
00000090: cd3c aebb 37d3 ce3d e6c3 513e f81e 66bd
000000a0: 09ab 2fbd 9e77 ebbe 0f4f e43d ec6d 86bd
000000b0: f916 423c d2f0 50bd a3ef 88bd f7f6 bbbd
000000c0: 861a c43d 376c 533d 221b ff3c 75b9 a8bd
000000d0: a438 193e 7d04 4bbd 1035 b33d a93d 4abd
000000e0: 2d0d 58be 28c7 f33c 9c52 303e 9519 953e
000000f0: d87d e83b 646b 01bd 4da8 c73d 7adb 99bd
00000100: bde2 60be 071a 8e3c f0a1 7b3d c5e2 3dbd
00000110: 8d1f 523b 7c4c 853e 717d 4cbd b05c 713d
00000120: 915a 243d c301 e83e c171 7abd 47ed f03c
00000130: 0782 18bd 8c43 503a 9037 25bb 99d5 7e3c
00000140: 39e6 0e3d 5599 963c 6e27 a7bc 82a0 ef3d
00000150: 761a 453d b882 ccbd 3576 63bd a821 373d
00000160: 18ef 4b3e 9095 2ebd b00a d73c d690 e23d
00000170: c8a7 8dbd 1f31 1cbe e3ba b33d 9816 423d
00000180: 0ded 95be c447 87bd b964 54be aaf6 6fbd
00000190: ecdd 78bd f17c b5bd 78fd 4ebe c35c cd3d
000001a0: 3b46 853b 1977 03be 6f55 16bd 444d 473c
000001b0: a76f 7dbc 646a af3c 687d bc3c 0c29 6cbd
000001c0: 4925 fa3d 1540 6dbd ce78 813d e558 593d
000001d0: 6559 99be 176e 9d3d 2cc4 2f3e a96d a0bd
000001e0: b957 cfbd 6c64 b6bc 1fd0 523d e2a3 24be
000001f0: 0e32 433d f737 f4b9 49f8 5a3d 29e0 eabd
00000200: 4943 323e ef5f 7d3d 8954 63bd 2c20 85bc
00000210: c891 e53d 3473 eb3d 4d64 83bc 26ea 8b3c
00000220: 1021 f23d 2e81 65bd f673 ecbd c48a 80bd
00000230: ecd1 6c3b 705a 343d cc70 fb3c 10c0 073d
00000240: 9877 01be 8dd1 1e3d ce25 293e fe64 9a3d
00000250: aec3 9d3c 98dc b33d b9bd ca3d b674 c3be
00000260: a92f 863d 9da5 c7bd 3159 643d 084f ff3d
00000270: 2b4d 26b8 b1b2 803e 6006 8b3d e32c 5e3e
00000280: ea49 1dbe a175 01bc 9043 90bc 8185 f53d
00000290: 9ecb ea3d b9a6 1bbd c212 083e b542 483d
000002a0: da22 8e3d f234 6dbc 25f1 82bd a6b4 b3bd
000002b0: 5881 28bd 77dc e1bd c67c e53d 7720 463d
000002c0: 9297 14bd b7c4 babc 169a 8c3e 6bd4 cc3d
000002d0: 8f32 9e3d 1ade 41bd a2b4 f7bc d014 8fbc
000002e0: b5db 553e 966e c3bd f55c 87b9 affb b6be
000002f0: 6f7e 7b3c a5ff e9be 7685 f63d f238 adbd
00000300: 80f4 aebc 0c88 a23b 8185 dcbc bb3e 9ebd
00000310: 36d9 f63b 2aa8 bbbe d33f 023e d238 ed3d
00000320: 527b 8c3d 83ac 06be 2131 c4bd 9aa8 e43c
00000330: e99b f13d 9ad2 9e3d 4e7e 17bd 75eb 8bbc
00000340: 9319 3abe c557 993b 9bbe 503e a9ba c43d
00000350: 6381 af3d fe70 a73c a24e ca3d c3f6 6abd
00000360: 4ed2 393e ac14 33bd b51d 95bd b594 59bd
00000370: eda0 0a3e 9d43 a43d 8376 6bbd 8767 2cbf
00000380: adb5 2cbe ec69 a23c c153 4fbe 737e 61bc
00000390: 8736 b2bd 3a66 bfbc 08fe 56bd b256 07bd
000003a0: b217 89bc dca1 dc3c a1c6 54bd e5ab df3c
000003b0: 9691 073d 075e d5bc a60b 733c 0ac8 d53d
000003c0: 50a6 89bd 561f 96bc 9106 2abf 6165 013c
000003d0: 60bd 9b3e ce6f 9f3e 08be 053e cb5b 743d
000003e0: 9a94 d2bc 952a 69bd 4e61 093e eeec e9bc
000003f0: 46fd b63c a6be 2cbc a883 9b3d 8941 8f3d
-0.19462587 -0.06734414 0.046770364 0.10634026 0.02541433 0.19425887 -0.37834352 0.07125455
0.08244358 -0.03593586 0.09268052 0.0802773 -0.08000837 -0.06653232 -0.00084442185 0.02556956
-0.07669588 0.04721412 -0.13922949 -0.014383178 -0.09461653 -0.06856726 0.06382725 0.0044315807
0.07466304 -0.06891859 0.07850261 0.11477621 0.02607984 -0.5425956 -0.048081797 0.1932413
-0.03607012 0.025159348 0.28631714 -0.0140201235 -0.0053173066 0.1009888 0.20484886 -0.056181878
-0.04288772 -0.45989698 0.11147892 -0.06563935 0.011846297 -0.051010914 -0.06686332 -0.09177964
0.095753714 0.051616874 0.031140868 -0.08238498 0.14963013 -0.049564827 0.08750355 -0.04937521
-0.21098776 0.029758051 0.17219013 0.2912108 0.00709508 -0.031596556 0.09748898 -0.07512565
-0.21961494 0.017346395 0.061433733 -0.046358842 0.0032062263 0.26034915 -0.049924318 0.058926284
0.040125433 0.45313844 -0.06114364 0.029410018 -0.03723338 0.00079446356 -0.002521012 0.015553855
0.034887526 0.018383661 -0.020404544 0.11700536 0.04812094 -0.0998587 -0.055532653 0.04470983
0.19915426 -0.042623103 0.026250213 0.110627815 -0.06916767 -0.15253113 0.0877588 0.04738483
-0.29282418 -0.06605485 -0.20741548 -0.058584847 -0.060758516 -0.08861721 -0.20213878 0.100274585
0.00406721 -0.12838401 -0.03670257 0.012164418 -0.0154685145 0.021413036 0.023009017 -0.057656333
0.12214143 -0.05792244 0.0632187 0.053063292 -0.29951015 0.076870136 0.17164677 -0.07833416
-0.10124154 -0.022264682 0.05146801 -0.16078141 0.047655158 -0.00046581004 0.05345944 -0.114685364
0.1740848 0.061859068 -0.05550054 -0.016250692 0.11209446 0.114965826 -0.016039038 0.017079424
0.118227124 -0.0560314 -0.11545555 -0.062764674 0.0036135865 0.04403156 0.030693434 0.03314215
-0.12643278 0.038774062 0.16518328 0.07538794 0.019258346 0.08782309 0.09899468 -0.3817498
0.06552059 -0.09748385 0.055749122 0.12466246 -3.9649352e-05 0.2513633 0.06788325 0.2169681
-0.15360227 -0.00790158 -0.017610341 0.119883545 0.11464618 -0.038000796 0.13288406 0.04889174
0.06940241 -0.014477955 -0.06393651 -0.0877469 -0.041138977 -0.110283785 0.11205439 0.048370805
-0.03627736 -0.02279888 0.27461308 0.10001453 0.07724487 -0.047330953 -0.0302375 -0.017465979
0.20884593 -0.09542577 -0.00025818465 -0.35738894 0.015349968 -0.45702854 0.120371744 -0.08458127
-0.021356821 0.0049600657 -0.026919128 -0.07726809 0.007533218 -0.36651736 0.1271966 0.11583103
0.06859459 -0.13151745 -0.09579683 0.027912427 0.117973156 0.07755013 -0.036985688 -0.017080048
-0.18173818 0.0046796524 0.2038521 0.09605915 0.085696004 0.020439621 0.09878279 -0.057364237
0.18146631 -0.043720886 -0.07281057 -0.053120334 0.13537951 0.08020709 -0.05748607 -0.6734547
-0.16866179 0.019825898 -0.20246793 -0.013763058 -0.087018065 -0.023364175 -0.052488357 -0.033041663
-0.016734932 0.02693265 -0.05194724 0.027303645 0.033097826 -0.026045812 0.01483432 0.10438545
-0.06721175 -0.018325489 -0.6641627 0.007897706 0.3041792 0.31139988 0.13060772 0.059657853
-0.025705624 -0.056925375 0.13416025 -0.02855536 0.022337567 -0.010543501 0.07593471 0.06994922

bias f4 [6]
00000000: f756 e23d 26f4 44bd 2e05 e13d db28 0f3e
00000010: c4f4 d23c c3b9 d6bd
0.110517435 -0.0480844 0.10987316 0.13980429 0.025751479 -0.1048465
