part_4/Reinforcement_Learning/models_lab1/model5_winner_v10.pt (torch, 22835 bytes, 6 tensors)

weight f4 [42, 14]
0	0x3ed1cebb	0.40978035
1	0x3d6cdd2e	0.05782812
2	0xbf12606e	-0.5717839
3	0xbe57b932	-0.2106674
4	0x3ebc8680	0.36821365
5	0x3c0532a7	0.008129752
6	0x3d7a94b7	0.06117698
7	0xbe30afea	-0.17254606
8	0x3e0fbfec	0.14038056
9	0x3e37af03	0.17937855
10	0x3e6e5d26	0.23277721
11	0x3b8927f5	0.0041856715
12	0x3d2ffe58	0.04296717
13	0xbd87645e	-0.066109404
14	0x3f2b77ea	0.6697985
15	0xbf023ef9	-0.5087734
16	0xbd57cf22	-0.05268777
17	0x3d1fff24	0.03906168
18	0x3e92b2d6	0.28652066
19	0xbe93ca0f	-0.28865096
20	0x3ca333d5	0.019922176
21	0xbc1ff1e6	-0.009762263
22	0x3d8ec9cd	0.06972084
23	0x3d34389e	0.043999307
24	0x3c44e03f	0.012016355
25	0xbd61ddc3	-0.05514313
26	0xbe260893	-0.16214208
27	0x3d2b1fc6	0.04177835
28	0xbf16cf31	-0.589099
29	0x3ebcd477	0.36880848
30	0x3d7ba314	0.06143482
31	0xbf0a315e	-0.5398158
32	0x3f0fe35d	0.56206304
33	0xbde6204e	-0.112366304
34	0xba4b39a9	-0.00077524275
35	0x3da4670d	0.08027468
36	0xbe275c81	-0.16343881
37	0x3d6cbbf4	0.057796434
38	0xbacdad9d	-0.0015692
39	0x3dfe78d4	0.1242539
40	0xbdc6251b	-0.09675046
41	0xbe0272d7	-0.1273912
42	0x3e8996a7	0.2687275
43	0x3e888a61	0.26668075
44	0xbf100357	-0.56255096
45	0xbceca56f	-0.028887479
46	0xbdfc949a	-0.12333031
47	0x3e73b5ad	0.23799773
48	0x3d8334fa	0.06406589
49	0xbdfd9345	-0.12381605
50	0xbe2920b3	-0.1651638
51	0xbe1da9c2	-0.15396789
52	0x3c0ecccd	0.0087158205
53	0x3ce5fc8f	0.02807453
54	0x3d1ce69b	0.03830586
55	0x3d6aca7a	0.057322003
56	0xbf0aaf23	-0.5417349
57	0x3e24e744	0.16103846
58	0xbe9800c4	-0.29688084
59	0x3eab02c1	0.3340054
60	0x3eb3553d	0.3502597
61	0x3dd23720	0.102644205
62	0xbcb2b9ab	-0.021817049
63	0x3ceccf62	0.028907482
64	0xbd222710	-0.039588034
65	0x3da0b5c9	0.07847173
66	0xbe4695fe	-0.19393155
67	0x3e07d8eb	0.13266341
68	0xbdac9712	-0.08427252
69	0xbe163291	-0.14667727
70	0xbe0ae42a	-0.135636
71	0x3e4866c7	0.19570456
72	0x3ecf4ec4	0.4048978
73	0xbe298267	-0.16553651
74	0xbe67754b	-0.22603337
75	0x3e942090	0.28931093
76	0xbc4253b5	-0.011860778
77	0xbe042e56	-0.12908301
78	0xbdf306a0	-0.11866498
79	0x3daabf91	0.0833732
80	0xbd07953d	-0.03310131
81	0x3cfd0cd9	0.030889915
82	0xbe4c831c	-0.1997189
83	0x3d1afd96	0.037839495
84	0x3ea4d28e	0.3219189
85	0x3eb304ac	0.34964502
86	0xbe5713f7	-0.2100371
87	0xbed0284d	-0.40655747
88	0xbf4a366c	-0.7898929
89	0x3e8a7a82	0.2704659
90	0x3e0dbd7d	0.13841815
91	0xbd77e803	-0.060523998
92	0xbe185154	-0.14874774
93	0x389f28df	7.589324e-05
94	0xbe072944	-0.13199335
95	0xbe38ad71	-0.18034913
96	0x3d293dba	0.041318633
97	0xbdc374f4	-0.095437914
98	0x3e66869b	0.22512285
99	0xbf2256a0	-0.6341343
100	0x3df318dc	0.11869976
101	0x3ef24600	0.4731903
102	0x3f16aabc	0.5885427
103	0x3e5cbcd9	0.21556415
104	0x3e2d2df6	0.16912064
105	0xbc0cdd66	-0.008597707
106	0xbd7257dd	-0.059165824
107	0xbe294a75	-0.1653231
108	0xbe0b51a5	-0.13605364
109	0x3c1a19a9	0.009405532
110	0x3d2b64b0	0.04184407
111	0xbe1b7621	-0.15181781
112	0x3b57a0c5	0.0032902223
113	0x3e7fa558	0.24965417
114	0x3f0dd9d4	0.55410504
115	0xbf3c700e	-0.7360848
116	0xbefb57a9	-0.49090317
117	0xbe80a8f2	-0.25128895
118	0x3e11705c	0.14203018
119	0xbda34cc6	-0.07973628
120	0x3dfd5107	0.1236897
121	0xbd706e33	-0.058698844
122	0xbd2324cc	-0.039830014
123	0xbc5b20fb	-0.013374562
124	0xbcc535fd	-0.024073595
125	0xbdb596b7	-0.08866637
126	0x3e9d736f	0.3075213
127	0xbed6279d	-0.41827098
128	0x3d115731	0.035483543
129	0x3e21fd6c	0.15819329
130	0xbd458025	-0.04821791
131	0x3d27b4a0	0.04094374
132	0xbd395def	-0.045255598
133	0xbc76d859	-0.01506623
134	0xbe2bf106	-0.16791162
135	0x3d67dc8e	0.05660682
136	0xbdf7c3c0	-0.12097883
137	0x3e3081e6	0.17237052
138	0x3d8fe78a	0.070265844
139	0xbd7eef2b	-0.062239807
140	0xbe25f0b5	-0.16205104
141	0x3e824839	0.25445727
142	0xbb6d3e7e	-0.0036200578
143	0x3ea63e2b	0.32469305
144	0xbed673ef	-0.41885325
145	0x3d0db419	0.034595583
146	0x3c0bde83	0.008536938
147	0xbdc3857d	-0.09546945
148	0x3e08b5c6	0.13350591
149	0xbe153555	-0.14571126
150	0xbe28e06f	-0.16491865
151	0xbdd5456e	-0.10413633
152	0x3dea96ec	0.11454567
153	0xbe425220	-0.1897664
154	0xbe23bbbf	-0.15989588
155	0xbd369965	-0.044579882
156	0x3ee8e506	0.4548723
157	0xbb457849	-0.003013151
158	0xbf36eb7c	-0.7145307
159	0x3ea445e9	0.32084587
160	0x3d168b14	0.03675373
161	0xbc63ff2f	-0.013915821
162	0x3b905cb7	0.0044055837
163	0xbd9265d5	-0.07148329
164	0x3d768f83	0.060195457
165	0x3d481908	0.048851997
166	0xbb855f4c	-0.004070198
167	0x3baa9bf5	0.00520658
168	0xbedcf7d3	-0.43157825
169	0x3c34c514	0.011033315
170	0x3da5957c	0.080851525
171	0xbebe1041	-0.37121776
172	0xbf0f006c	-0.5586002
173	0x3ed3dbb8	0.4137857
174	0xbdac0f9c	-0.08401415
175	0x3e3f5a2d	0.18686743
176	0x3e2ae097	0.16687237
177	0x3de83d0b	0.11339768
178	0xbdb5f7a9	-0.08885128
179	0xbe6efba1	-0.23338176
180	0xbe26c18b	-0.16284768
181	0xbd461a74	-0.04836507
182	0xbe71cd63	-0.23613505
183	0xbf29333e	-0.66093814
184	0x3f0b603f	0.54443735
185	0x3e647054	0.22308475
186	0x3eaf93f9	0.34292582
187	0xbb9fd703	-0.0048779263
188	0xbe53cc6a	-0.20683447
189	0x3e6246ad	0.22097273
190	0x3d52f1a7	0.05149999
191	0x3d11ead7	0.03562435
192	0x3cf85f0b	0.030318758
193	0x3d958866	0.073014066
194	0xbdaccb1a	-0.08437176
195	0xbe19d7cb	-0.15023725
196	0x3eca00b1	0.39453653
197	0x3d55d757	0.052207317
198	0xbde5381e	-0.11192344
199	0xbf3b9148	-0.73268557
200	0x3f06b45f	0.52618974
201	0x3dc495a8	0.09598857
202	0x3ddd099a	0.10792847
203	0xbd1cf007	-0.038314845
204	0xbdbba547	-0.091623835
205	0xbb41302c	-0.0029478176
206	0x3d65ca4e	0.056101136
207	0x3dcae3b6	0.09906714
208	0xbe60af34	-0.21941835
209	0xbe8c0f6e	-0.27355522
210	0xbe99afae	-0.30016845
211	0x3ec107f8	0.37701392
212	0xbcb2eb24	-0.02184064
213	0xbe9d1cb4	-0.3068596
214	0x3ec565cf	0.38554236
215	0x3d51f9a3	0.051263463
216	0xbda8d301	-0.08243371
217	0x3dce8034	0.100830466
218	0x3d7ce80a	0.061744727
219	0xbe13498c	-0.14383525
220	0xbe694816	-0.22781405
221	0x3d00db79	0.031459305
222	0xbe08f4be	-0.13374612
223	0xbe613f33	-0.21996765
224	0x3e058506	0.13039026
225	0x3ec6654a	0.38749152
226	0xbee2233d	-0.4416751
227	0x3ed8ab34	0.42318118
228	0xbefdb879	-0.49554804
229	0xbe3dcea8	-0.18535864
230	0x3ccfae80	0.025351763
231	0xbbe997b5	-0.0071286806
232	0xbca28e2d	-0.019843185
233	0xbcb98d01	-0.022650244
234	0xbe6083ac	-0.21925229
235	0xbcaec7f4	-0.02133558
236	0x3d079f60	0.033110976
237	0x3c80c5f5	0.015719393
238	0xbefdde43	-0.49583635
239	0x3ef31991	0.47480443
240	0xbf06cf3f	-0.5265998
241	0xbe5e264e	-0.216943
242	0xbcf43e2b	-0.0298148
243	0x3ece331a	0.40273362
244	0x3d9e0249	0.077152796
245	0x3de27b4c	0.11058673
246	0xbe0f4997	-0.13992916
247	0xbcd630b4	-0.02614627
248	0xbc069efc	-0.008216616
249	0xbc823fe5	-0.015899608
250	0xbea0b8aa	-0.31390887
251	0xbe25f1ca	-0.16205516
252	0x3d97d5cd	0.07413826
253	0xbeba9d54	-0.36448157
254	0xbe7b1e7b	-0.24523346
255	0xbd3535d6	-0.044240795

bias f4 [42]
0	0x3d258bd8	0.04041657
1	0x3e1622f9	0.14661779
2	0x3de5010b	0.111818396
3	0x3e2d9ba2	0.169539
4	0x3d1df940	0.03856778
5	0xbe021620	-0.12703753
6	0xbcc6e1ae	-0.024277534
7	0x3d058eed	0.032607008
8	0x3d5913fa	0.052997567
9	0xbdddde72	-0.10833444
10	0x3d8dcec2	0.069242015
11	0x3e0f69e3	0.14005236
12	0xbe756d72	-0.23967531
13	0xbd9147cd	-0.07093773
14	0x3e157631	0.14595868
15	0x3e66108a	0.22467247
16	0x3e3f15c6	0.1866065
17	0xbe0d40e6	-0.13794288
18	0x3da01c89	0.07817943
19	0x3d2b8b21	0.04188073
20	0xbd265074	-0.04060407
21	0xbe8c7b23	-0.27437696
22	0x3c4f0712	0.012635963
23	0x3e51f9c0	0.20505428
24	0xbe634856	-0.22195563
25	0xbe374900	-0.17898941
26	0xbd822066	-0.06353836
27	0xbd796377	-0.060885873
28	0xbe031ee8	-0.12804759
29	0xbda46f64	-0.080290586
30	0xbd985685	-0.07438377
31	0xbd6bb8e6	-0.05754938
32	0xbe893054	-0.26794684
33	0xbe11c94b	-0.14236943
34	0xbd48d08b	-0.049027007
35	0xbe3322b7	-0.17493711
36	0xbdaa9fc3	-0.083312534
37	0xbdfa6fc6	-0.1222835
38	0x3e5617eb	0.20907561
39	0xbebbf355	-0.36709085
40	0xbe100291	-0.14063479
41	0xbe0fb517	-0.14033924

weight f4 [84, 42]
0	0x3e8fc2b1	0.28078225
1	0xbe01474c	-0.12624854
2	0xbd973512	-0.07383169
3	0x3e692cdb	0.22771017
4	0x3cd803d6	0.026369017
5	0xbe296491	-0.1654227
6	0x3e7e6902	0.24844745
7	0xbe0e4922	-0.13895085
8	0x3d089925	0.033349175
9	0xbe019e97	-0.12658153
10	0xbd9f653e	-0.07782982
11	0xbcb2817f	-0.021790264
12	0xbdf890bc	-0.12136981
13	0xbe2eb93d	-0.1706285
14	0x3d810fdc	0.06301853
15	0x3da623ab	0.08112272
16	0x3c9be965	0.01903219
17	0x3e4208eb	0.18948714
18	0x3c9ad2cc	0.018899344
19	0xbd37c467	-0.04486504
20	0x3e5a6766	0.21328506
21	0x3b3fc722	0.002926298
22	0xbe21257c	-0.15736955
23	0x3d89137b	0.06693169
24	0x3def0b26	0.11672048
25	0x3dabb505	0.08384136
26	0xba86f682	-0.0010296854
27	0x3e10ac2e	0.14128181
28	0xbdf33721	-0.118757494
29	0x3d80b9ff	0.06285476
30	0xbc9657db	-0.01835244
31	0xbc27a24b	-0.010231565
32	0xbdccb775	-0.09995929
33	0xbdee3120	-0.116304636
34	0xbd598f6d	-0.053115297
35	0xbb9f9201	-0.0048697
36	0xbd58e838	-0.052955836
37	0xbd85c809	-0.06532294
38	0xbea378d5	-0.31928125
39	0xbdb1df2e	-0.08685146
40	0xbd9178dc	-0.0710313
41	0xbe160226	-0.14649257
42	0xbe55234a	-0.20814243
43	0x3e624a69	0.22098698
44	0xbe393446	-0.18086347
45	0xbdcabcc7	-0.09899288
46	0x3dffc0e1	0.124879606
47	0x3d31cb1f	0.043406602
48	0x3dbed38f	0.09317695
49	0xbdc8a294	-0.09796634
50	0x3d0c5f59	0.034270618
51	0x3dd8bb57	0.10582607
52	0xbde9b798	-0.11411971
53	0x3d77e2e4	0.060519114
54	0xbd28cddd	-0.04121195
55	0x3dc50028	0.096191704
56	0xbd71fe6c	-0.059080526
57	0xbe630115	-0.22168382
58	0x3d8af2be	0.06784581
59	0xbdb8d93d	-0.0902581
60	0xbdab98e5	-0.08378772
61	0x3cf83fd1	0.030303868
62	0x3de7b4bb	0.113137685
63	0xbdd1d994	-0.10246578
64	0xbe18447f	-0.14869879
65	0xbd178a49	-0.036997113
66	0x3dbbfa8d	0.09178648
67	0x3e257796	0.161589
68	0xbda6f7be	-0.08152722
69	0xbe06cce2	-0.13164094
70	0xbcc536dc	-0.02407401
71	0xbd176411	-0.036960665
72	0xbe0a75ab	-0.1352145
73	0xbd86a761	-0.06574894
74	0x3e1b1688	0.15145314
75	0x3dc64682	0.09681417
76	0x3d943c48	0.0723806
77	0x3e024f37	0.1272553
78	0x3dc45fb0	0.095885634
79	0x3d821875	0.06352321
80	0x3d07ca28	0.033151776
81	0x3d3f4900	0.046700478
82	0x3e577bc5	0.21043308
83	0x3e0de925	0.13858469
84	0xba410a3a	-0.00073638896
85	0x3be331ce	0.0069334274
86	0x3ce06d0d	0.02739575
87	0xbdaecba8	-0.08534938
88	0xbe23ed46	-0.16008481
89	0x3e1b830e	0.15186712
90	0x3dfe2047	0.124085
91	0xbdba1d20	-0.090875864
92	0x3ed4a720	0.41533756
93	0x3dfb0560	0.122568846
94	0xbba4e418	-0.0050320737
95	0x3e9dab9c	0.3079499
96	0x3ecdc1b6	0.40186852
97	0x3e2bb8a8	0.1676966
98	0x3e5cd3e4	0.21565205
99	0xbe119581	-0.14217187
100	0xbd8b79e0	-0.06810355
101	0x3da376b6	0.07981627
102	0x3e7aa2e2	0.24476197
103	0xbe3d6448	-0.18495286
104	0x3b17cda6	0.0023163348
105	0xbe13de5f	-0.14440297
106	0x3e0e7853	0.13913088
107	0x3db569a2	0.088580385
108	0x3ea8d3ba	0.32974035
109	0xbe5cae23	-0.21550803
110	0xbde774f1	-0.11301602
111	0x3d08f23a	0.03343413
112	0xbe44b6ac	-0.19210309
113	0xbc6eaef2	-0.014568077
114	0xbe3948bf	-0.18094157
115	0xbe2578f2	-0.16159418
116	0x3e12505d	0.14288469
117	0xbca3dbc9	-0.020002263
118	0xbe33ccd2	-0.17558601
119	0xbcf0ea24	-0.029408522
120	0x3e8c765e	0.27434057
121	0x3ea96e1a	0.33091813
122	0xbdf3e9a5	-0.119097985
123	0x3e2e7ab4	0.17038995
124	0x3e07c19e	0.13257453
125	0xbebe0d38	-0.3711946
126	0x3e218232	0.15772322
127	0x3e51ccde	0.20488307
128	0xbd782f34	-0.06059189
129	0x3ddb81cf	0.107181184
130	0xbdf674ff	-0.12034034
131	0x3e0d9c15	0.13829072
132	0xbbe5f83f	-0.0070181186
133	0x3e2a1168	0.16608202
134	0x3d68294d	0.056680012
135	0x3e2bda47	0.16782485
136	0xbd5e3496	-0.05424937
137	0xbde445e3	-0.11146142
138	0x3d9f4806	0.07777409
139	0x3d7816e4	0.060568705
140	0x3e93c38d	0.2886013
141	0x3d125f43	0.03573538
142	0x3c7e957d	0.0155385705
143	0xbc16a538	-0.009194665
144	0x3e6bd590	0.23030686
145	0xbd547ae5	-0.051875014
146	0x3e43794c	0.1908924
147	0xbd726735	-0.059180457
148	0xbdb66649	-0.08906228
149	0x3d91ec5b	0.07125159
150	0x3e8ab884	0.270939
151	0xbe247185	-0.1605893
152	0xbce4ea76	-0.027943831
153	0x3d350c71	0.04420132
154	0x3dbc74e6	0.09201984
155	0xbe531179	-0.20612134
156	0xbe71b28c	-0.23603266
157	0xbcfb4325	-0.030671665
158	0x3e551fc3	0.20812897
159	0xbd4aa236	-0.049471103
160	0xbbe2605e	-0.0069084605
161	0xba4aba47	-0.0007733446
162	0x3e179f7d	0.14806934
163	0x3e460b68	0.19340289
164	0xbe8150f6	-0.2525708
165	0xbd3d3b06	-0.046198867
166	0x3d67b91b	0.056573015
167	0xbe7b9c9d	-0.24571462
168	0xbcd73e4c	-0.026274823
169	0x3e20020c	0.15625781
170	0xbbe48357	-0.0069736647
171	0xbd3786a9	-0.044806156
172	0xbe965718	-0.29363322
173	0xbe239f41	-0.1597872
174	0xbd099891	-0.033592764
175	0xbe2543b6	-0.16139111
176	0x3e1093a4	0.1411882
177	0x3da42113	0.08014121
178	0xbe11b9ad	-0.14230986
179	0x3d8579ee	0.06517397
180	0xbd39b5aa	-0.045339264
181	0x3de70d36	0.11281817
182	0x3de9b68e	0.11411773
183	0xbe35209b	-0.17688219
184	0x3e294c9d	0.16533132
185	0xbe249a49	-0.1607448
186	0xbb368f28	-0.0027856324
187	0xbe0be8c0	-0.13663006
188	0x3e105e78	0.14098537
189	0xbd8cacb0	-0.06868875
190	0xbda16faf	-0.0788263
191	0x3df6a019	0.12042255
192	0x3da2fd52	0.07958473
193	0x3e30ce9a	0.17266312
194	0xbcea93f5	-0.028635005
195	0xbe193491	-0.14961459
196	0x3d0a1a54	0.033716515
197	0x3dbe738c	0.092993826
198	0xbca0a964	-0.019612022
199	0xbd144d44	-0.0362065
200	0x3cde4a59	0.027135061
201	0xbcfcd834	-0.030864812
202	0x3d21758e	0.03941875
203	0x3db59ff9	0.08868403
204	0x3ea4e1c4	0.32203496
205	0xbd74f146	-0.05980041
206	0xbcd0eb2e	-0.025502767
207	0x3e1c96da	0.1529192
208	0x3ebf32e1	0.37343505
209	0x3e970056	0.29492444
210	0xbea4c1ab	-0.32179007
211	0xbebeafa7	-0.37243387
212	0x3e212605	0.1573716
213	0xbe674f78	-0.22588909
214	0x3e0f0377	0.13966165
215	0x3e3252b5	0.17414363
216	0x3d985ee8	0.07439977
217	0xbcec10ff	-0.028816698
218	0x3e10a3f4	0.14125043
219	0xbcc20f75	-0.023689011
220	0x3d123837	0.035698142
221	0x3e6bc887	0.23025714
222	0x3e216f53	0.15765123
223	0x3daa0e9b	0.08303567
224	0xbda18811	-0.07887281
225	0xbe21b825	-0.15792902
226	0xbddcd4ce	-0.10782777
227	0x3de3e6ff	0.111280434
228	0x3e8d982d	0.27655163
229	0x3c9a4ac8	0.018834487
230	0xbd9547a5	-0.07289056
231	0x3d94e69d	0.072705485
232	0x3e0ead5e	0.13933322
233	0x3da96dea	0.082729176
234	0xbe36fc5c	-0.17869705
235	0xbe61ba97	-0.22043835
236	0x3e40032d	0.18751211
237	0xbdfc7de1	-0.12328697
238	0xba8dd857	-0.0010821921
239	0x3d20d92a	0.039269604
240	0x3d270c01	0.040782932
241	0xbded263e	-0.1157956
242	0x3d593055	0.05302461
243	0x3dbde056	0.09271304
244	0xbda31e1c	-0.07964727
245	0xbcfacb66	-0.030614566
246	0xbe173f4e	-0.14770243
247	0x3c7e924f	0.015537812
248	0x3e7c161b	0.24617808
249	0x3eabf626	0.33586234
250	0xbe155b70	-0.14585662
251	0x3d3ca1c4	0.04605271
252	0x3e088b5a	0.13334408
253	0xbe413403	-0.18867497
254	0xbd81a1bd	-0.06329677
255	0xbd806dfa	-0.06270976

bias f4 [84]
0	0x3cf46d8e	0.029837396
1	0xbe4502f5	-0.1923941
2	0x3d7795f6	0.06044575
3	0x3e1fe338	0.15614021
4	0xbdd0e168	-0.10199243
5	0x3e0a7d8d	0.13524456
6	0x3dba4ab7	0.09096282
7	0xbcce27dc	-0.02516549
8	0xbd862fe9	-0.06552107
9	0xbcd7f2c9	-0.026360886
10	0x3de635ec	0.112407535
11	0xbd22c37f	-0.03973722
12	0xbe240fc6	-0.16021642
13	0xbe15a18b	-0.14612405
14	0x3dbcd02d	0.09219394
15	0x3e246de4	0.16057545
16	0xbdee4afa	-0.116353944
17	0x3dd8b0f1	0.10580624
18	0x3c0ec684	0.008714322
19	0xbb9eaa46	-0.0048420755
20	0xbe59e415	-0.21278413
21	0xbe061fa5	-0.13098009
22	0xbdb31e14	-0.08745971
23	0xbda0bbeb	-0.078483425
24	0x3b0aacb5	0.002116007
25	0x3dfe1eea	0.1240824
26	0x3da89870	0.082322
27	0xbd136cc7	-0.03599241
28	0x3e3967c0	0.18105984
29	0xbe1ba62d	-0.1520011
30	0xbdc4c305	-0.096075095
31	0x3e1f59c9	0.15561594
32	0xbdea7b66	-0.11449318
33	0x3dbcc3ba	0.092170194
34	0x3dcd4eed	0.100248195
35	0x3d6656e0	0.056235194
36	0x3d87c86a	0.06630023
37	0xbc253c7c	-0.010085221
38	0x3c42035f	0.011841624
39	0x3cdd7971	0.027035447
40	0x3e44d574	0.19222051
41	0xbdcef57b	-0.101054154
42	0xbd31dd42	-0.0434239
43	0xbd3ac9c8	-0.04560259
44	0x3d88279f	0.06648182
45	0xba2ebe71	-0.0006665951
46	0xbd91c8bb	-0.071183644
47	0x3d7cdd93	0.061734747
48	0x3d7e46c3	0.062079202
49	0x3e3cea2c	0.18448704
50	0x3ce06ba8	0.027395085
51	0xbda59c12	-0.08086409
52	0xbdd42745	-0.103590526
53	0xbc350d56	-0.011050543
54	0xbc8ec883	-0.017429596
55	0x3d40b559	0.047047947
56	0xbdbac4ec	-0.09119591
57	0xbe207603	-0.15670018
58	0x3d2bfcdb	0.04198919
59	0xbe3a65e3	-0.18202929
60	0x3e191f2f	0.14953302
61	0xbdccb2b8	-0.099950254
62	0xbdd18ece	-0.10232316
63	0x3c1d016e	0.00958286
64	0xbb6098ba	-0.003427072
65	0xbdb6267f	-0.08894061
66	0x3e1b79ec	0.15183228
67	0x3d61d235	0.05513211
68	0xbe687e86	-0.22704515
69	0x3e7a9b14	0.2447322
70	0x3cc404a6	0.023927998
71	0x3db8a3b3	0.09015598
72	0x3e194073	0.14965992
73	0xbd552bf5	-0.052043874
74	0xbda970fd	-0.08273504
75	0x3d2b2d7b	0.04179142
76	0x3d23d67b	0.039999466
77	0xbcc78375	-0.024354676
78	0x3bd9acd4	0.006642917
79	0xbdf06507	-0.117380194
80	0x3e06adb7	0.13152204
81	0xbc9eb42f	-0.019373028
82	0xbddb8cdc	-0.10720226
83	0xbdcc69c3	-0.0998111

weight f4 [6, 84]
0	0x3e0a5c50	0.13511777
1	0x3db474e4	0.088113576
2	0x3d0d1b66	0.034449957
3	0x3dc26ca4	0.09493378
4	0x3e351d3b	0.17686932
5	0xbea7c2ef	-0.3276591
6	0x3e3a6ede	0.18206355
7	0x3d5c715a	0.053819038
8	0x3d63ed7e	0.055646412
9	0x3e0e22a2	0.13880399
10	0xbdbd24d6	-0.092355415
11	0xbe431358	-0.19050348
12	0x3d313094	0.04325922
13	0xbe17b03d	-0.14813323
14	0xbe8fd4a0	-0.28091908
15	0xbec1fae9	-0.37886742
16	0xbe2834a5	-0.16426332
17	0xbe57a0b8	-0.21057403
18	0xbdb82de2	-0.089931265
19	0x3d18873b	0.03723834
20	0x3e18d0de	0.14923427
21	0xbc9f4475	-0.019441823
22	0xbdc1cfe2	-0.094634786
23	0xbe0aa7f9	-0.13540639
24	0xbb9f7529	-0.0048662615
25	0xbd9d296b	-0.076739155
26	0xbe76328a	-0.24042717
27	0x3e75a501	0.23988725
28	0x3deee3a1	0.116645105
29	0xbe1defbd	-0.15423484
30	0xbdb52579	-0.08845038
31	0xbd6758a4	-0.05648102
32	0xbd8ccacd	-0.06874619
33	0x3ce22031	0.02760324
34	0xbe18419a	-0.14868775
35	0x3db5906e	0.088654384
36	0x3e125b17	0.1429256
37	0x3decb678	0.11558241
38	0xbd813719	-0.06309337
39	0xbcbeff51	-0.023315104
40	0xbdae3c23	-0.08507564
41	0xbd70539b	-0.058673482
42	0xbe20bdca	-0.15697399
43	0xbe87157e	-0.26383585
44	0x3e8adfd1	0.27123883
45	0x3e13b4f0	0.14424491
46	0x3e0528a7	0.13003789
47	0xbe9f65c2	-0.31132323
48	0x3e1dc054	0.15405399
49	0xbdcf5264	-0.10123137
50	0xbe2d92c9	-0.16950525
51	0xbdbf8619	-0.09351749
52	0x3e71fa3e	0.23630616
53	0x3e195f4b	0.14977758
54	0x3c3ee63e	0.011651574
55	0x3cc7c889	0.024387615
56	0xbdea369b	-0.114361964
57	0x3d8da33f	0.06915902
58	0x3ca8a0ac	0.020584427
59	0x3d88954e	0.066691026
60	0xbe4e1916	-0.20126757
61	0xbddd7955	-0.10814158
62	0xbd218b9d	-0.039439786
63	0xbd7e2ce2	-0.062054522
64	0xbe07136e	-0.13191006
65	0x3da67fd5	0.08129851
66	0xbceba54e	-0.028765347
67	0x3bb1f789	0.00543112
68	0xbd024944	-0.031808153
69	0x3dc466c0	0.095899105
70	0x3d5281da	0.051393367
71	0x3e078c18	0.13237035
72	0x3d851f2b	0.065000854
73	0x3dee93c2	0.11649276
74	0xbe20bd74	-0.1569727
75	0xbe3d8928	-0.18509352
76	0xbe9b7dcb	-0.3036941
77	0xbe218d84	-0.1577664
78	0xbcd4aeb0	-0.025962204
79	0x3cc0c352	0.023530636
80	0xbe6113cf	-0.21980213
81	0xbeaa7fdf	-0.33300683
82	0x3dc4984b	0.0959936
83	0xbde5e114	-0.11224571
84	0x3dce505e	0.100739226
85	0xbbd97bb3	-0.0066370605
86	0xbcdb5e10	-0.026778251
87	0xbe26218a	-0.16223732
88	0x3c987b1f	0.018613396
89	0xbcec09cf	-0.02881327
90	0x3e6337e0	0.22189283
91	0x3db816bd	0.08988712
92	0x3de115b3	0.10990467
93	0xbe047b63	-0.12937693
94	0x3e6de13b	0.2323045
95	0xbc3b09cf	-0.011415913
96	0xbe5ba303	-0.21448903
97	0x3df9ae10	0.12191403
98	0x3c8aabac	0.016927563
99	0x3d76d8e6	0.060265444
100	0xbd013581	-0.031545166
101	0x3d749a55	0.059717495
102	0xbd7286bb	-0.05921052
103	0xbe30decc	-0.1727249
104	0x3e29e2b4	0.16590387
105	0xbd81880b	-0.06324776
106	0x3d89bbef	0.067252986
107	0xbddbcfdf	-0.10733008
108	0x3e255d47	0.16148864
109	0x3d54b4df	0.051930305
110	0xbe0119ed	-0.12607546
111	0x3dbb24a5	0.09137849
112	0x3dfb794f	0.12278997
113	0x3cb02a1c	0.021504454
114	0xbb46f9b1	-0.003036123
115	0x3cfc20c3	0.03077734
116	0xbdca2f13	-0.0987226
117	0x3e023265	0.12714536
118	0xbcd5eb3c	-0.026113145
119	0x3c2201ea	0.009888152
120	0x3dcf577b	0.101241075
121	0xbd36874c	-0.044562623
122	0xbd9b5289	-0.07584102
123	0x3def6241	0.11688662
124	0x3cf68b93	0.030095851
125	0x3e451d4e	0.1924946
126	0x3d88fcbf	0.066888325
127	0xbe0a9bab	-0.13535945
128	0x3e07e22c	0.13269871
129	0xbde61ff5	-0.11236564
130	0xbcada1e2	-0.021195356
131	0xbe7d164e	-0.2471554
132	0xbe10f924	-0.1415754
133	0x3e41977c	0.18905443
134	0x3d187b1f	0.037226792
135	0x3e18e634	0.14931566
136	0x3ca09d5f	0.01960629
137	0x3da160fe	0.07879828
138	0xbd3125bb	-0.043248873
139	0xbe7f6bf2	-0.24943522
140	0xbcc82dca	-0.024435896
141	0x3d4fffc6	0.050781034
142	0x3e189349	0.14899935
143	0xbdd11f44	-0.102110416
144	0xbd84e0ba	-0.06488176
145	0xbb75c670	-0.0037502311
146	0xbda6e4e0	-0.08149123
147	0xbcc84fab	-0.024452051
148	0xbe1adbc6	-0.151229
149	0xbeb2804b	-0.34863505
150	0xbd5545f5	-0.05206867
151	0x3cd5db96	0.026105683
152	0x3e4966d5	0.19668134
153	0xbeae9be5	-0.34103313
154	0xbd68b3e1	-0.05681217
155	0x3e84966f	0.25896022
156	0xbdc7c471	-0.09754265
157	0xbd924760	-0.0714252
158	0x3b93460b	0.0044944338
159	0xbe1daaa4	-0.15397125
160	0xbe3c4661	-0.18386222
161	0x3c21c52e	0.009873671
162	0xbdb2958c	-0.0871993
163	0x3e21591f	0.15756653
164	0x3d88088d	0.06642256
165	0x3e58262b	0.2110831
166	0x3e20c77b	0.15701096
167	0xbcced64a	-0.025248665
168	0xbe21e6fb	-0.15810768
169	0x3dbd48d3	0.09242406
170	0x3e841472	0.2579685
171	0xbd817931	-0.063219436
172	0x3e07665c	0.13222641
173	0x3e130e19	0.14360847
174	0xbe5de3d0	-0.21668935
175	0x3e23b43b	0.15986721
176	0x3d8c709f	0.06857418
177	0x3cc37d6c	0.023863517
178	0x3b3ce960	0.0028825626
179	0x3deabd1c	0.11461851
180	0x3e28e5c7	0.16493903
181	0x3e10f6df	0.14156674
182	0x3df56425	0.11981992
183	0xbd4e2ef1	-0.050337736
184	0x3caab5c9	0.020838635
185	0x3cae9822	0.021312777
186	0xbcba763a	-0.022761453
187	0x3e24f109	0.16107573
188	0x3cf89081	0.030342342
189	0x3d52e9af	0.05149239
190	0x3d4fbca3	0.050717007
191	0xbe0a55e8	-0.13509333
192	0x3d9812ff	0.07425498
193	0xbe0452c7	-0.12922202
194	0x3d3dcef6	0.04633995
195	0x3dc3c9c6	0.095599696
196	0xbe72fbff	-0.23728941
197	0x3e3b3920	0.1828351
198	0x3e23ca8a	0.15995231
199	0xbe48c692	-0.19606999
200	0xbe651ed5	-0.22375043
201	0x3dae83f1	0.085212596
202	0x3caf66dd	0.021411354
203	0x3e9be502	0.30448157
204	0xbd32b6b1	-0.04363126
205	0xbca7ce1d	-0.020484025
206	0x3deebd3d	0.11657188
207	0xbe26348e	-0.16230986
208	0x3e5fa585	0.21840484
209	0x3cfb3d71	0.030668946
210	0xbb86f6a9	-0.0041187597
211	0xbe149cf5	-0.14513
212	0xba429e65	-0.00074241153
213	0x3db8be0e	0.09020625
214	0x3c7fdc55	0.015616496
215	0x3e54608e	0.20739958
216	0x3c5a0302	0.013306381
217	0x3e01076d	0.12600489
218	0x3cbc248a	0.022966642
219	0xbd4b1dd4	-0.049588993
220	0xbe1edd3a	-0.15514079
221	0xbea10f27	-0.31456873
222	0x3d299f01	0.041411404
223	0xbda8e738	-0.082472265
224	0xbd933305	-0.071874656
225	0x3cc926c9	0.024554627
226	0xbcb89f2e	-0.02253684
227	0x3e53d11c	0.20685238
228	0x3dfa4c48	0.12221581
229	0x3da116b0	0.078656554
230	0xbe9de21b	-0.30836567
231	0x3dff4524	0.124643594
232	0xbdce37ab	-0.100692116
233	0x3dd27b62	0.1027744
234	0x3cfca269	0.030839162
235	0xb988bb1b	-0.00026079346
236	0x3bff33f1	0.0077881743
237	0x3e5a64cb	0.21327512
238	0xbdca4a84	-0.09877494
239	0x3d4b53f4	0.04964061
240	0xbdb57a4e	-0.088612184
241	0xbebc6d40	-0.368021
242	0x3e0b4c4a	0.1360332
243	0x3e1f5702	0.15560535
244	0x3d9a03c8	0.075202525
245	0x3e4fb2b1	0.20283009
246	0x3bdac560	0.006676361
247	0xbd13aad6	-0.036051594
248	0xbddb91dd	-0.107211806
249	0x3d821e1a	0.06353398
250	0x3e0c7f33	0.13720398
251	0x39d41da1	0.00040457866
252	0xbde30cb1	-0.11086405
253	0x3d84b0cf	0.06479036
254	0xbeeabdea	-0.45848018
255	0xbe83e20d	-0.257584

bias f4 [6]
0	0xbd91646a	-0.070992306
1	0x3db9be43	0.09069493
2	0x3ce3b8d4	0.027798094
3	0xbdb052ec	-0.08609566
4	0x3c1804a5	0.009278451
5	0xbaaae7c9	-0.0013039048
