part_4/Reinforcement_Learning/models_lab1/model5_winner_v15power.pt (torch, 22835 bytes, 6 tensors)

weight f4 [42, 14]
000000 a4 85 d3 3e 4c ba 72 3d 94 af 11 bf c5 e0 55 be
       0.41312897 0.059259698 -0.56908536 -0.20886524
000010 0d ab bd 3e f1 91 0b 3c ee 19 79 3d d7 30 31 be
       0.37044564 0.008518682 0.060815744 -0.17303787
000020 93 b2 0f 3e fa 1b 38 3e 2c 99 6e 3e 1c a8 8e 3b
       0.14032964 0.17979422 0.23300618 0.0043535363
000030 d8 ac 2e 3d bb 55 87 bd 70 17 2c 3f aa 66 02 bf
       0.042645305 -0.06608149 0.6722326 -0.509379
000040 46 d8 4c bd 56 b0 27 3d bd f0 93 3e 96 42 93 be
       -0.050010942 0.04093965 0.28894606 -0.2876174
000050 80 14 9f 3c 78 aa 2b bc 82 fe 8a 3d ac 76 2d 3d
       0.019418955 -0.010477655 0.06786825 0.042349502
000060 3d b9 41 3c 31 e5 66 bd 8b 94 27 be f9 5b 2a 3d
       0.011823949 -0.056370918 -0.16365258 0.04159162
000070 0f be 16 bf e4 24 bd 3e 44 01 84 3d 2c 14 0a bf
       -0.58883756 0.36942208 0.06445554 -0.5393703
000080 51 6c 10 3f 47 c0 e4 bd 17 e0 48 39 f1 d6 a6 3d
       0.5641528 -0.111694865 0.00019156966 0.081464656
000090 58 1e 24 be 8e 72 72 3d 70 88 a1 38 2d 50 00 3e
       -0.160272 0.05919128 7.702492e-05 0.12530585
0000a0 b6 80 c4 bd 7a cb 01 be 27 9a 8a 3e 17 63 89 3e
       -0.09594862 -0.12675276 0.27070734 0.26833412
0000b0 87 05 10 bf 82 74 e3 bc e6 2c fc bd 61 68 73 3e
       -0.56258434 -0.027765516 -0.12313251 0.23770286
0000c0 49 bb 82 3d 48 42 fe bd a5 c4 29 be 20 5c 1e be
       0.06383378 -0.12414986 -0.1657892 -0.1546483
0000d0 fa 44 01 3c 3b 83 e3 3c 48 a4 1c 3d f4 16 6c 3d
       0.00788998 0.027772537 0.03824261 0.057639077
0000e0 d0 e7 0a bf b2 4b 24 3e a8 87 97 be 94 c7 aa 3e
       -0.5425997 0.160445 -0.29595685 0.3335539
0000f0 93 79 b3 3e b4 89 d3 3d 92 88 aa bc b5 6f f6 3c
       0.3505369 0.10328999 -0.020817075 0.030082563
000100 ea 8a 22 bd bc 45 a5 3d 25 fb 43 be 66 36 09 3e
       -0.03968326 0.080699414 -0.19138773 0.13399658
000110 29 c4 aa bd d5 ff 13 be 2e 8f 0b be 4d c2 46 3e
       -0.08338196 -0.14453061 -0.13628837 0.19410057
000120 b0 63 cf 3e 61 2b 2b be 35 14 68 be 76 71 93 3e
       0.40505743 -0.16715766 -0.22663958 0.287975
000130 b8 21 3c bc 8b f8 03 be 8c f0 ef bd b3 96 a9 3d
       -0.011482649 -0.1288778 -0.117158026 0.08280697
000140 a4 9a 0a bd 53 29 01 3d ed 3a 4c be 34 44 13 3d
       -0.033838883 0.03153355 -0.19944353 0.035953715
000150 6e 94 a4 3e dd 68 b3 3e a5 ed 59 be b8 74 d0 be
       0.32144493 0.35040942 -0.2128206 -0.4071405
000160 51 89 4a bf 94 09 8a 3e 8c f9 0c 3e 2d 2d 7b bd
       -0.7911578 0.26960433 0.1376707 -0.06132238
000170 4b ca 18 be 09 82 9c ba f0 10 08 be d1 6f 39 be
       -0.14920919 -0.0011940609 -0.13287711 -0.18109061
000180 51 3b 29 3d d6 4e c3 bd 6b 1a 67 3e aa f0 22 bf
       0.041316334 -0.09536521 0.22568671 -0.63648474
000190 3f 02 f7 3d fd 88 f2 3e 70 0b 17 3f 18 61 5d 3e
       0.12060975 0.4737014 0.5900183 0.2161907
0001a0 0b 4b 2e 3e 25 e4 fb bb 63 0c 74 bd c2 53 28 be
       0.17020814 -0.007687109 -0.059582125 -0.16438201
0001b0 79 34 0b be e5 af 2a 3c ae 2d 2b 3d d9 9b 1c be
       -0.13594235 0.010417913 0.04179161 -0.15293826
0001c0 01 73 13 3b 3a 26 7f 3e 99 a1 0d 3f 20 b5 3c bf
       0.0022498968 0.24916926 0.55324703 -0.73713875
0001d0 86 bb fb be d9 06 81 be 81 28 11 3e 7e 0d a4 bd
       -0.49166507 -0.25200537 0.14175607 -0.08010386
0001e0 b3 25 fe 3d ee e8 75 bd b6 86 25 bd b2 45 66 bc
       0.12409534 -0.060036592 -0.040411673 -0.014054703
0001f0 a5 ee c4 bc 3f 52 b8 bd c8 2d 9e 3e 9e 04 d6 be
       -0.024039576 -0.09000062 0.30894303 -0.41800398
000200 a5 42 07 3d 34 79 23 3e c2 54 45 bd df 2d 29 3d
       0.03302254 0.15964204 -0.048176534 0.04130351
000210 7d a5 3c bd f8 0e 82 bc b8 8e 2e be e0 d6 61 3d
       -0.04605626 -0.015876278 -0.1704663 0.05513656
000220 13 53 fb bd 80 d1 2e 3e 13 1d 8d 3d 59 fe 80 bd
       -0.122717045 0.17072105 0.06890311 -0.06298513
000230 9b 16 28 be 16 63 82 3e d9 7a d6 bb 3a 38 a6 3e
       -0.16414873 0.25466222 -0.0065454063 0.32464772
000240 30 14 d7 be de b6 0a 3d 91 f1 f2 3b 62 1a c5 bd
       -0.4200759 0.033865802 0.007414051 -0.09624173
000250 68 90 07 3e 90 2a 16 be 0c 59 29 be 25 a5 d7 bd
       0.1323868 -0.14664674 -0.16537875 -0.10529546
000260 82 71 e9 3d e3 a8 41 be e4 6b 26 be 0e 54 39 bd
       0.11398603 -0.18912081 -0.16252095 -0.045246176
000270 98 64 e7 3e cf 30 83 bb 64 71 37 bf 0a ce a3 3e
       0.45193934 -0.004003621 -0.71657395 0.31993133
000280 fc 6b 14 3d 05 67 6a bc 55 9f 5f 3b 3c 09 95 bd
       0.036235794 -0.014306788 0.003412207 -0.07277152
000290 67 ce 6f 3d 9f 76 45 3d 1b ee 7e bb b9 c3 64 3b
       0.05854645 0.04820883 -0.0038899246 0.00349067
0002a0 c0 92 de be f7 2d 28 3c cf 70 9e 3d 3a 9d bf be
       -0.43471336 0.010264865 0.0773636 -0.37424642
0002b0 a8 bc 0f bf 15 30 d3 3e 59 01 ab bd 48 0a 40 3e
       -0.5614724 0.4124762 -0.083498664 0.18753922
0002c0 fc fd 2a 3e a8 84 e2 3d 5a e6 b7 bd d8 98 6e be
       0.1669845 0.110604584 -0.08979483 -0.23300493
0002d0 7b 67 25 be 72 68 47 bd 12 f4 71 be 42 da 29 bf
       -0.16152756 -0.04868359 -0.23628262 -0.6634866
0002e0 57 77 0b 3f 92 89 64 3e a2 97 af 3e 4c f3 7f bb
       0.54478973 0.22318104 0.34295374 -0.0039054928
0002f0 c7 ec 52 be 42 ef 62 3e 2e 37 51 3d 39 35 15 3d
       -0.20598136 0.22161582 0.051078014 0.03642771
000300 ff df f7 3c 49 b2 96 3d 40 a2 ad bd 5f 61 1b be
       0.030258177 0.07358224 -0.08478212 -0.15173863
000310 30 0e cb 3e 7f bd 54 3d 43 fa e1 bd 50 54 3b bf
       0.39659262 0.05193853 -0.11034062 -0.73175526
000320 a9 2f 07 3f 61 0e c5 3d de 3a dd 3d 1e e4 1d bd
       0.528071 0.09621883 0.10802244 -0.038547628
000330 41 22 b9 bd 7f f9 57 bb 9e 01 66 3d d9 24 cc 3d
       -0.090397365 -0.0032955108 0.056153886 0.09967966
000340 f6 d0 60 be 4a 9b 8c be b7 34 99 be 01 f9 c0 3e
       -0.21954712 -0.27462226 -0.2992303 0.37689975
000350 5f 4b a0 bc 0c d4 9c be 0e 5b c6 3e 8b 91 54 3d
       -0.01956719 -0.3063053 0.38741344 0.051896613
000360 72 f3 a6 bd 6e 31 d0 3d 84 55 86 3d 62 12 12 be
       -0.08151902 0.10165678 0.065592796 -0.14264825
000370 e2 a7 67 be 44 00 06 3d a4 e8 07 be 9a ea 60 be
       -0.22622636 0.032715097 -0.13272339 -0.21964493
000380 11 ca 04 3e 08 f8 c6 3e 47 f4 e2 be ec bb d8 3e
       0.12967707 0.38861108 -0.44326994 0.42330873
000390 10 4a fe be f2 b9 3d be f7 3e cb 3c b0 bf ef bb
       -0.4966588 -0.18527964 0.024810297 -0.007316552
0003a0 4b df ae bc f0 a4 b6 bc 4b 22 60 be 15 1b b8 bc
       -0.021346709 -0.022295445 -0.21888082 -0.022473851
0003b0 d3 db 05 3d 35 88 8b 3c a0 f9 fd be df a3 f3 3e
       0.032680344 0.017032722 -0.4960451 0.4758596
0003c0 c7 d6 06 bf 2b ef 5e be 9d e9 f6 bc 15 b7 cd 3e
       -0.52671474 -0.21770923 -0.030140692 0.40178743
0003d0 c7 4e 9f 3d 0a 49 e4 3d 2f ae 0c be a4 40 cf bc
       0.077786975 0.111467436 -0.13738321 -0.025299378
0003e0 7b 1f fd bb 65 75 6f bc 7d 51 a0 be 7b 9e 24 be
       -0.0077247 -0.014615391 -0.3131217 -0.1607608
0003f0 d9 23 95 3d 04 f3 ba be 26 55 7f be 06 a4 39 bd
       0.07282228 -0.3651353 -0.24934825 -0.04532244

bias f4 [42]
000000 17 0f 24 3d 6c 59 15 3e ad 1f e7 3d 1b 62 2d 3e
       0.040053453 0.14584893 0.112853386 0.16931956
000010 03 c1 22 3d 2b 57 02 be d7 5a cd bc 62 14 09 3d
       0.03973485 -0.12728564 -0.02506773 0.033466704
000020 36 30 57 3d f8 87 df bd 8b 45 8b 3d 93 af 0e 3e
       0.052536212 -0.10914606 0.06800374 0.13934164
000030 50 e1 74 be 4c e2 8f bd 2b 4f 15 3e 87 6b 67 3e
       -0.23914075 -0.070255846 0.14580981 0.22599612
000040 43 f2 3e 3e 6b e9 0b be 12 4e 9e 3d 64 99 2e 3d
       0.18647103 -0.1366326 0.077297345 0.042626753
000050 cd 96 27 bd 21 10 8c be a9 67 5a 3c 86 ce 50 3e
       -0.0409153 -0.27356055 0.013330379 0.20391282
000060 38 71 64 be 6a 98 37 be fd 1f 82 bd b6 0e 73 bd
       -0.22308815 -0.17929235 -0.063537575 -0.0593402
000070 41 3c 02 be 46 a0 a4 bd 86 04 96 bd 9f da 68 bd
       -0.12718298 -0.08038382 -0.073250815 -0.05684912
000080 3d 9f 89 be 43 ee 11 be 84 cb 47 bd 0f bf 33 be
       -0.26879302 -0.14251046 -0.048778072 -0.17553352
000090 29 f7 ac bd 2a 32 fb bd 7e ae 56 3e 1d 61 bc be
       -0.084455796 -0.122654274 0.20965001 -0.36792842
0000a0 60 2d 11 be 64 0e 0f be
       -0.14177465 -0.13970333

weight f4 [84, 42]
000000 9e c0 8f 3e 22 e8 00 be 36 5b 98 bd 34 e6 69 3e
       0.28076643 -0.12588552 -0.07439272 0.22841722
000010 40 6a d8 3c f2 4d 29 be 51 03 7e 3e 3f f0 0e be
       0.026417851 -0.1653364 0.24805953 -0.13958834
000020 3f 40 09 3d eb 11 02 be f1 a4 9e bd 6b 13 bb bc
       0.033508535 -0.12702148 -0.07746304 -0.022836408
000030 a8 0f f7 bd 0e 21 2f be f7 47 80 3d d0 35 a7 3d
       -0.12063533 -0.17102453 0.06263726 0.08164561
000040 43 57 a2 3c 06 4c 42 3e a1 ba 92 3c d1 a3 35 bd
       0.019817 0.18974313 0.017911257 -0.04434568
000050 32 5d 5a 3e 0b aa 65 3b 4d f9 20 be a6 25 8a 3d
       0.21324614 0.003504398 -0.157201 0.06745462
000060 4d 0b f1 3d 58 29 ad 3d aa 8b 7c ba 0d be 10 3e
       0.117697336 0.08455151 -0.00096338487 0.14134999
000070 27 78 f3 bd bd 0c 80 3d 07 48 95 bc ef 49 18 bc
       -0.118881516 0.0625243 -0.018222822 -0.009294971
000080 fb 50 cd bd 37 ab ed bd ed 58 5a bd 44 fb 9a bb
       -0.100252114 -0.11604922 -0.053307462 -0.00472966
000090 34 96 58 bd 08 7d 86 bd 59 ea a3 be 33 56 b1 bd
       -0.05287762 -0.065668166 -0.3201473 -0.08659019
0000a0 4e 46 92 bd 87 e9 15 be 6f e8 53 be 6a 12 62 3e
       -0.07142316 -0.14639865 -0.20694135 0.22077337
0000b0 e2 d1 39 be a2 86 c5 bd 48 44 00 3e e2 41 37 3d
       -0.1814647 -0.0964482 0.12526047 0.044740565
0000c0 87 4b c1 3d f0 e5 cb bd 60 ad 0c 3d df 03 d8 3d
       0.09438234 -0.099559665 0.03434503 0.10547613
0000d0 4e 89 e7 bd b1 42 73 3d 59 d8 29 bd ab e0 bf 3d
       -0.11305486 0.059389774 -0.04146609 0.09369024
0000e0 99 0a 6d bd 73 28 63 be c0 2d 8d 3d db 71 b7 bd
       -0.057871435 -0.22183399 0.06893492 -0.08957263
0000f0 7c 03 a9 bd a0 c4 02 3d 00 87 e4 3d 07 75 cc bd
       -0.08252618 0.031925797 0.11158562 -0.09983259
000100 b2 3b 17 be dc 99 10 bd b0 0e be 3d 26 66 25 3e
       -0.14768866 -0.03530298 0.09280145 0.16152248
000110 b1 66 a2 bd 9e 6f 07 be dc 84 c6 bc ff b4 19 bd
       -0.07929743 -0.13226172 -0.024233274 -0.037526127
000120 84 5a 09 be 25 4c 86 bd 5f fb 1b 3e 7c 75 c9 3d
       -0.13413435 -0.06557492 0.15232609 0.098368615
000130 4b e0 8f 3d 6d b3 03 3e a8 bd c2 3d 49 7b 82 3d
       0.07025202 0.12861414 0.0950883 0.06371171
000140 af 6b fe 3c 76 3c 45 3d 11 99 56 3e 6d 2d 0f 3e
       0.031057207 0.048153363 0.20956828 0.13982172
000150 e9 30 9c ba c5 b8 d2 3b 08 85 e0 3c b7 47 af bd
       -0.0011916432 0.0064307177 0.027407184 -0.085586004
000160 e5 fe 23 be 95 3c 1b 3e 7b 14 fe 3d 6d 9c b8 bd
       -0.16015203 0.15159829 0.1240625 -0.09014211
000170 7a 6d d5 3e bf 86 fb 3d 36 dc 80 bb af 58 9d 3e
       0.41685086 0.1228156 -0.003932501 0.30731723
000180 17 17 ce 3e 1b 02 2c 3e 7c f4 5c 3e ef a1 10 be
       0.4025199 0.16797678 0.21577638 -0.14124273
000190 98 c1 88 bd 5d e2 a2 3d e1 7c 78 3e b3 77 3d be
       -0.0667755 0.079533316 0.24266388 -0.18502693
0001a0 ce 1e 51 3b 7e de 14 be 6f dd 0c 3e a2 10 b5 3d
       0.003190923 -0.14537999 0.13756345 0.08841063
0001b0 d0 6c a7 3e 5c 2f 5c be 4e 04 e9 bd e4 fe 0c 3d
       0.32700205 -0.21502441 -0.11377774 0.03442277
0001c0 a2 5e 45 be 1d d4 6e bc 88 db 39 be f3 eb 24 be
       -0.19274381 -0.014576939 -0.18150151 -0.16105632
0001d0 b4 ab 12 3e 25 6e a7 bc d0 74 33 be 71 09 f1 bc
       0.14323312 -0.020438263 -0.17525029 -0.029423447
0001e0 80 97 8c 3e e4 a4 a9 3e 7e 57 f1 bd 63 be 2d 3e
       0.27459335 0.33133614 -0.11784266 0.16967158
0001f0 f1 57 08 3e 64 55 be be 49 9d 21 3e 9f 52 52 3e
       0.13314797 -0.37174523 0.15782656 0.2053933
000200 e3 10 7c bd cb e2 dd 3d 9f 9e f6 bd cb 1c 0e 3e
       -0.061539542 0.10834273 -0.12041973 0.13878171
000210 27 e6 e8 bb 0a 4e 2a 3e ac 2d 6b 3d 82 73 2b 3e
       -0.0071075144 0.16631332 0.057416603 0.16743281
000220 f5 9a 59 bd a1 a4 e6 bd a5 a4 9f 3d 90 fc 73 3d
       -0.053126294 -0.11261869 0.07795075 0.059567034
000230 9a 2b 94 3e 7a f9 14 3d ce c1 80 3c 81 a6 13 bc
       0.28939515 0.036370732 0.015717413 -0.009011866
000240 12 61 6a 3e 34 d0 51 bd 76 a3 42 3e 34 73 6b bd
       0.22888592 -0.05122395 0.19007668 -0.057482913
000250 fc 27 b5 bd d3 84 93 3d ab 8f 8a 3e 3e 33 24 be
       -0.08845517 0.072030686 0.27062735 -0.16035172
000260 d0 f6 dd bc 6b 09 36 3d e7 01 bc 3d 6b 5e 55 be
       -0.027095228 0.044442575 0.0918005 -0.20836799
000270 40 a6 71 be 6a 43 f3 bc fd bf 55 3e 30 2d 49 bd
       -0.23598576 -0.029695231 0.20874019 -0.04911536
000280 e6 2a fe bb 0c ab 94 38 da 1b 17 3e 5f 25 46 3e
       -0.0077565787 7.08905e-05 0.14756718 0.19350193
000290 bb 85 81 be de 6a 39 bd 24 17 67 3d fe 8f 7a be
       -0.2529734 -0.045267932 0.056418553 -0.24468991
0002a0 a4 e2 c9 bc 2f cf 1f 3e f0 30 f6 bb 34 70 2c bd
       -0.024644203 0.15606378 -0.007513158 -0.042099193
0002b0 4c 41 96 be f0 ef 21 be f6 8e 04 bd bd ac 26 be
       -0.29346693 -0.15814185 -0.0323629 -0.16276832
0002c0 72 f6 10 3e a3 a7 a3 3d c5 a8 10 be 8d 16 83 3d
       0.14156511 0.079909585 -0.1412688 0.064007856
0002d0 c2 e3 39 bd bf 9f e1 3d 37 1e ec 3d 77 27 35 be
       -0.045383222 0.11016797 0.115292005 -0.17690836
0002e0 d2 43 2a 3e ad ac 23 be c9 72 f5 ba 4f 2b 0a be
       0.16627434 -0.1598384 -0.0018726225 -0.13493083
0002f0 fc bd 0e 3e 10 ae 86 bd 02 c1 9e bd 93 2a fa 3d
       0.13939661 -0.065761685 -0.07751657 0.12215152
000300 00 4f a4 3d 10 69 30 3e 45 b4 d8 bc a0 eb 19 be
       0.080228806 0.17227578 -0.026453147 -0.1503129
000310 fe 12 0a 3d 52 a9 bd 3d c8 70 9a bc d6 20 12 bd
       0.03370952 0.09260811 -0.018852606 -0.035675846
000320 ee 13 e6 3c 52 bb f1 bc f7 04 19 3d 85 72 b8 3d
       0.028085675 -0.029508267 0.03735825 0.09006218
000330 0f 62 a4 3e a2 e1 73 bd c1 2a e0 bc 6a 10 1e 3e
       0.32106063 -0.059541352 -0.027364137 0.15435949
000340 2c 80 be 3e 6f 8c 97 3e 16 3c a5 be d7 43 bf be
       0.37207162 0.2959933 -0.32272404 -0.37356445
000350 12 b4 21 3e ff 31 68 be 6d 52 0e 3e 38 af 31 3e
       0.15791348 -0.22675322 0.1389863 0.17351997
000360 a1 cb 97 3d 97 b3 e8 bc 5f 03 11 3e ca 13 ba bc
       0.07411886 -0.028405948 0.14161442 -0.022714514
000370 c2 5a 10 3d 29 09 6c 3e 34 cc 20 3e 6f e2 ab 3d
       0.035242803 0.2305037 0.15702897 0.08392798
000380 b0 6d a3 bd f5 fa 21 be 2d 8a dc bd cd 1b e2 3d
       -0.079799056 -0.15818389 -0.107685424 0.11040459
000390 36 60 8d 3e 29 25 95 3c 5e 8c 93 bd e3 5e 90 3d
       0.27612466 0.018206196 -0.07204507 0.07049348
0003a0 7f bc 0c 3e ef 36 a8 3d 7a c7 37 be e7 5a 62 be
       0.1374378 0.08213603 -0.17947188 -0.22104989
0003b0 1d 49 3e 3e c1 d0 fa bd 20 15 84 ba b5 7b 25 3d
       0.18582578 -0.12246848 -0.0010077097 0.04040118
0003c0 65 80 26 3d 66 54 ef bd d4 64 57 3d 72 f6 bc 3d
       0.04064979 -0.116860196 0.05258639 0.09226693
0003d0 8a 8e a1 bd 10 a1 fe bc cc 0c 16 be b3 26 82 3c
       -0.07888515 -0.03108266 -0.14653319 0.015887594
0003e0 59 dc 7c 3e 48 72 ab 3e de b8 13 be bc c7 39 3d
       0.24693431 0.33485627 -0.1442599 0.045356497
0003f0 5c 16 09 3e b4 60 41 be 04 c5 82 bd 66 71 7d bd
       0.13387436 -0.18884546 -0.06385234 -0.061875723

bias f4 [84]
000000 0e 51 f2 3c bf 57 46 be b3 ef 75 3d ac e9 1e 3e
       0.029579666 -0.1936941 0.060043048 0.15518826
000010 43 b1 d3 bd 51 d4 0a 3e f9 ef b9 3d 3a b0 d4 bc
       -0.10336544 0.13557555 0.09078974 -0.025962938
000020 4a 73 88 bd 50 41 e0 bc 2c c9 e5 3d 21 0d 20 bd
       -0.06662615 -0.027374893 0.11220011 -0.03907502
000030 c6 2e 25 be f3 53 15 be 09 c1 bd 3d c2 37 25 3e
       -0.16131124 -0.14582805 0.09265334 0.16134551
000040 9c fe ec bd fb 50 da 3d 5e 89 1e 3c fc b0 c2 bb
       -0.115720004 0.10659977 0.009676306 -0.0059415083
000050 52 bb 5a be 16 48 05 be 60 de b1 bd 57 79 9e bd
       -0.2136052 -0.1301578 -0.08684993 -0.077379875
000060 5b 0a a1 3a c4 e1 fe 3d 87 b5 a9 3d c0 ef 17 bd
       0.0012286411 0.12445405 0.08286577 -0.037093878
000070 6f 0f 3a 3e f4 2d 1b be 56 49 c4 bd 3c 27 21 3e
       0.1816995 -0.15154248 -0.095843 0.15737623
000080 d0 c7 e7 bd 7a 9c ba 3d 8c 1f cf 3d 8e ff 61 3d
       -0.11317408 0.09111877 0.10113439 0.055175357
000090 c0 bc 86 3d 32 ff 2e bc f0 ca 43 3c f9 0d d9 3c
       0.0657897 -0.0106809605 0.01195024 0.02649592
0000a0 aa a5 44 3e ba 2e ce bd 46 9f 2e bd 49 b9 36 bd
       0.19203821 -0.10067506 -0.042632364 -0.044610295
0000b0 10 8d 86 3d f2 15 dd ba c8 bc 92 bd 10 e0 7e 3d
       0.06569874 -0.0016867502 -0.071649134 0.0622254
0000c0 3d 6b 7b 3d 9b 3f 3e 3e f4 13 e8 3c 36 95 a6 bd
       0.061381567 0.18578951 0.028329827 -0.081339285
0000d0 11 a9 d4 bd 12 c8 36 bc 3e 91 94 bc 6c 80 42 3d
       -0.10383809 -0.011156099 -0.018135663 0.047485754
0000e0 42 89 b8 bd 5d d4 20 be f6 69 2e 3d 76 58 3c be
       -0.09010555 -0.1570601 0.04258152 -0.1839312
0000f0 7f ba 19 3e 86 99 cc bd 8f ce cf bd fe cc 1d 3c
       0.15012549 -0.0999022 -0.1014682 0.0096313935
000100 c6 ff 13 bb 3d 45 b8 bd 4d 30 1c 3e 31 6e 63 3d
       -0.0022582873 -0.08997581 0.152528 0.05552501
000110 34 69 68 be e0 c9 79 3e 70 5d c5 3c a1 ec b6 3d
       -0.22696382 0.24393415 0.024092406 0.08931852
000120 ce f8 19 3e 5c 71 4f bd d3 3c aa bd dd 1f 2d 3d
       0.15036318 -0.050645217 -0.083123825 0.042266715
000130 f9 e6 26 3d 79 92 c5 bc 2f cc f1 3b 82 b9 f0 bd
       0.040747616 -0.024117695 0.007379077 -0.11754133
000140 89 cf 07 3e 2d 56 9a bc 7b b6 dd bd 14 20 ca bd
       0.13262762 -0.01883992 -0.10825821 -0.098694

weight f4 [6, 84]
000000 6c 8c 0a 3e c4 72 b3 3d 44 46 0a 3d 72 f9 c2 3d
       0.13530129 0.08762124 0.033758417 0.09520234
000010 c3 b7 33 3e 0c 65 a7 be 45 f3 3b 3e 1f 58 58 3d
       0.17550568 -0.3269428 0.18354519 0.052818414
000020 36 07 61 3d 4d cd 0d 3e 23 62 bb bd 91 69 43 be
       0.054938518 0.13847847 -0.091495775 -0.19083239
000030 64 2b 2f 3d 8a dd 17 be 67 7e 8f be 69 d1 c2 be
       0.04276599 -0.14830604 -0.28026125 -0.38050392
000040 7e 78 28 be b3 11 59 be 9b c9 b7 bd 93 8e 15 3d
       -0.16452214 -0.21198158 -0.08974 0.036512922
000050 6e 0b 1a 3e 1e 01 ac bc f1 f7 be bd d3 ff 0a be
       0.15043423 -0.020996626 -0.09324635 -0.13574152
000060 d7 a6 85 bb a5 ce 9b bd 5f ba 78 be 7c cb 74 3e
       -0.0040787267 -0.07607774 -0.24289845 0.23905748
000070 67 ea ef 3d da f8 1d be 76 2c b8 bd 68 2a 62 bd
       0.117146306 -0.1542696 -0.08992855 -0.055216223
000080 3e 3d 8d bd 76 fb dc 3c df 6f 19 be 04 bb b2 3d
       -0.06896447 0.026975375 -0.14984082 0.08727077
000090 75 7b 13 3e 12 df ea 3d dc 8e 81 bd 82 ca b1 bc
       0.14402564 0.114683285 -0.063260764 -0.021703009
0000a0 7a 96 af bd 13 85 6e bd 34 5b 22 be ee fd 86 be
       -0.08573623 -0.05823238 -0.15855104 -0.26365608
0000b0 73 9c 8a 3e 0b 7b 13 3e e0 7b 04 3e e3 05 a0 be
       0.27072486 0.14402406 0.1293788 -0.3125449
0000c0 bd 58 1e 3e 94 05 cd bd 20 e7 2d be fc 31 bd bd
       0.15463538 -0.100108296 -0.16982698 -0.092380494
0000d0 9a 94 71 3e 2c 4b 19 3e a4 c2 40 3c 28 19 ca 3c
       0.23591843 0.14970082 0.011765156 0.024670199
0000e0 17 15 ec bd e3 c2 8b 3d 7e 7b ab 3c b4 49 85 3d
       -0.1152746 0.06824281 0.02093291 0.065081984
0000f0 f2 1c 4e be c6 64 dd bd 17 c5 1a bd 8d f8 80 bd
       -0.2012823 -0.10810237 -0.037785616 -0.06297407
000100 83 49 06 be d4 1e a4 3d e8 99 ef bc e7 fc a9 3b
       -0.1311398 0.080136925 -0.029248193 0.005187619
000110 15 c0 06 bd 62 1f c3 3d 38 d2 57 3d be c0 08 3e
       -0.032898027 0.0952747 0.052690715 0.13354775
000120 fb 43 85 3d 82 2f ee 3d 13 21 20 be a3 ad 3e be
       0.06507107 0.11630155 -0.15637617 -0.18620925
000130 84 47 9c be 2c bb 21 be 8c d9 de bc 04 bb c1 3c
       -0.30523312 -0.15794057 -0.027203344 0.023648746
000140 d3 a5 62 be 21 2e aa be d5 04 c5 3d ef 1f e4 bd
       -0.2213357 -0.3323832 0.09620062 -0.11138903
000150 af cd d0 3d d4 87 d0 bb ac c6 da bc 94 b1 27 be
       0.10195481 -0.006363848 -0.026706062 -0.16376334
000160 42 38 99 3c 41 2b f4 bc 8f 2b 64 3e 6d 1c b9 3d
       0.018703584 -0.029805781 0.22282241 0.09038625
000170 75 03 e3 3d bd 7f 04 be 91 ca 6f 3e 3b 0c 3d bc
       0.11084644 -0.12939353 0.23417117 -0.0115385605
000180 ca 34 5d be c2 e7 fc 3d 3e 84 90 3c 74 c7 74 3d
       -0.21602169 0.12348892 0.017641183 0.059760526
000190 08 9d fc bc d3 91 7a 3d 31 e6 76 bd b5 dc 32 be
       -0.030836597 0.061174225 -0.06027812 -0.17467006
0001a0 dc 29 2a 3e 67 f4 83 bd b5 c0 8a 3d a5 3a dc bd
       0.1661753 -0.064431004 0.06775037 -0.10753373
0001b0 14 d2 27 3e 37 9c 56 3d 2e 6b 02 be 34 01 bd 3d
       0.16388732 0.05239507 -0.12736198 0.09228745
0001c0 7a 70 fa 3d 55 b0 af 3c 72 d3 e4 ba 68 be fe 3c
       0.122284845 0.021446386 -0.0017458035 0.031096652
0001d0 41 03 cb bd 3e a0 03 3e 60 03 dc bc 48 6f 30 3c
       -0.0991273 0.12854096 -0.026857078 0.010768719
0001e0 2b 42 cf 3d 58 29 3a bd b8 d8 9d bd 8d c2 f0 3d
       0.101200424 -0.045449585 -0.077073514 0.117558576
0001f0 fc b4 00 3d b5 78 47 3e 0c 2e 8b 3d 05 be 0b be
       0.0314226 0.1947964 0.06795892 -0.13646705
000200 b9 56 09 3e 47 78 e8 bd f9 ce a7 bc ff 35 7d be
       0.13411988 -0.11351066 -0.020484434 -0.24727629
000210 c4 e6 11 be 6a e1 41 3e 3f e4 1d 3d 63 26 1a 3e
       -0.14248186 0.18933645 0.03854775 0.15053706
000220 ef 2b a2 3c 7f b0 a3 3d ca 4f 34 bd e3 40 80 be
       0.01979634 0.07992648 -0.044021405 -0.25049505
000230 8d 03 c5 bc bf 65 4d 3d 59 8c 1a 3e c6 12 d1 bd
       -0.024049545 0.05014586 0.15092601 -0.10208659
000240 08 62 85 bd 2e ef 8b bb 59 e1 a9 bd a4 fd c1 bc
       -0.065128386 -0.004270456 -0.08294935 -0.023680516
000250 96 da 1c be 36 f9 b2 be e2 2c 5a bd 16 02 da 3c
       -0.15317759 -0.34955758 -0.05326546 0.026612323
000260 65 4e 4d 3e 23 b2 ae be cb 11 6b bd bd b5 84 3e
       0.20049436 -0.34120283 -0.057390016 0.25919905
000270 56 21 cb bd fc ba 92 bd b6 3a a2 3b 1f 2e 1f be
       -0.09918468 -0.07164571 0.0049508465 -0.15544938
000280 7f 74 3c be 73 6f 1f 3c dc 69 b2 bd 1f 46 22 3e
       -0.18403815 0.009731161 -0.08711597 0.15847062
000290 7e 56 8b 3d f4 b6 59 3e 65 0d 23 3e b0 50 ca bc
       0.068036065 0.21261197 0.15923078 -0.024696678
0002a0 fb d3 21 be 3a f8 ba 3d 7d 0f 84 3e 84 6e 7e bd
       -0.1580352 0.09129377 0.25793067 -0.062117115
0002b0 22 e7 06 3e 90 99 13 3e d4 0b 5d be e2 16 23 3e
       0.13174108 0.14414048 -0.21586543 0.15926698
0002c0 97 dc 8d 3d d2 96 c0 3c 74 ae 3d 3b 10 12 ea 3d
       0.0692684 0.023509417 0.0028943093 0.114292264
0002d0 17 1e 29 3e b6 42 10 3e e3 18 f5 3d 15 2f 50 bd
       0.16515385 0.14087948 0.119676374 -0.05082615
0002e0 f5 2e a9 3c a4 e4 ab 3c a7 63 bc bc f1 96 25 3e
       0.020652274 0.020983048 -0.022996737 0.16170861
0002f0 26 95 fa 3c 11 ae 4c 3d 1a 33 50 3d 8f 84 0b be
       0.030588698 0.04997069 0.050829984 -0.13624786
000300 b0 29 98 3d 35 57 05 be 28 1e 3e 3d 7d 3f c3 3d
       0.07429826 -0.13021548 0.046415478 0.09533594
000310 d1 6d 72 be cc d7 3a 3e 28 32 23 3e 5e 33 49 be
       -0.23674704 0.18246382 0.15937102 -0.19648501
000320 10 ec 63 be d4 7a ad 3d 2b 6f b3 3c 01 bb 9b 3e
       -0.2225802 0.08470693 0.021903595 0.3041611
000330 a5 87 31 bd 1c 84 a4 bc 7c 96 f1 3d 6e 13 26 be
       -0.04334225 -0.020082526 0.11796281 -0.1621835
000340 6c 06 5f 3e 8f a6 f9 3c 24 8b 95 bb 41 b6 15 be
       0.21779794 0.03047493 -0.004563706 -0.14620306
000350 44 10 80 b9 ad fb bb 3d 1e e2 7d 3c 97 89 53 3e
       -0.0002442618 0.09178863 0.015495805 0.20657955
000360 25 47 5b 3c d5 ad 01 3e 46 96 b8 3c d0 7a 48 bd
       0.013383661 0.12663968 0.022532593 -0.048945248
000370 b0 0a 1f be 72 5c a1 be f3 aa 29 3d ba 59 aa bd
       -0.1553142 -0.31515843 0.041422796 -0.08317895
000380 0b f0 96 bd 76 c0 c0 3c 5f 95 c0 bc 17 6c 53 3e
       -0.07370003 0.023529273 -0.023508726 0.20646702
000390 71 14 f9 3d e2 fa 9e 3d 5f ce 9d be ed 21 ff 3d
       0.12162102 0.07762696 -0.3082151 0.12457643
0003a0 b8 40 ce bd 90 d0 d0 3d 8d e6 04 3d c3 65 98 3a
       -0.10070938 0.1019603 0.032446433 0.0011627007
0003b0 98 d0 ee 3b 36 6f 59 3e 90 8b cb bd d4 24 4d 3d
       0.00728805 0.2123383 -0.09938729 0.05008395
0003c0 e5 24 b5 bd f5 6e bc be 44 8f 0b 3e c1 e4 1f 3e
       -0.08844928 -0.36803403 0.1362887 0.15614606
0003d0 8c 24 9a 3d 40 02 50 3e 40 63 de 3b ae 49 10 bd
       0.07526502 0.20313358 0.006786734 -0.035226516
0003e0 55 0d db bd 40 65 81 3d ce ac 0b 3e 95 6d 8b b9
       -0.10695902 0.0631814 0.13640139 -0.0002659379
0003f0 49 c2 e2 bd 57 92 84 3d f0 80 ea be 40 db 83 be
       -0.11072213 0.064732246 -0.45801497 -0.25753212

bias f4 [6]
000000 f0 14 92 bd 68 ed ba 3d 58 0b de 3c 2c 7b ae bd
       -0.071329 0.09127313 0.027105018 -0.08519587
000010 bf 20 2c 3c 8a 9b a4 b9
       0.010505854 -0.00031396403
