part_4/Reinforcement_Learning/models_lab1/model_best_model.pt (torch, 86175 bytes, 6 tensors)

weight f4 [256, 14]
0.018311173 0.028058276 -0.42620188 0.49226776 -1.0448194 -0.10512337 -0.019352015 0.13098066
-0.058727942 0.17009866 -0.12274319 0.08923905 0.022046084 -0.07135285 -0.09627184 -0.046929542
-0.42237738 -0.19970676 -1.0281817 -0.1641694 0.120299466 0.19389848 -0.016709773 -0.06416853
0.02886554 0.17560734 0.013437917 0.18408051 -0.13951564 -0.58063155 0.45348358 -0.1195478
-0.21940899 0.25471997 -0.12814173 0.16635251 -0.01723127 0.21419854 -0.04119383 0.0803605
0.27584696 0.08539254 0.03766604 -0.10062308 0.3619347 0.24521959 0.5178241 -0.30276996
0.15033723 0.004084101 -0.25456035 0.022794556 0.12685497 0.08770075 0.018347157 -0.010942305
-0.123225786 0.25440803 0.07127667 -0.11439012 0.157149 0.268147 0.06260883 -0.10187104
-0.23022784 0.117162384 0.22264048 0.037294555 -0.3721873 -0.45103666 -0.033145994 0.009541173
-0.10082229 0.36847302 0.030209905 -0.1512322 0.06289102 -0.35528928 -0.0124036465 0.21919832
0.04672976 -0.29876864 0.15476091 -0.043823816 0.2425525 0.42665207 -0.38708282 -0.39958534
0.71423024 -0.15395427 0.15628411 0.050119597 0.16426027 -0.04242143 -0.107543245 0.20649044
0.079904646 -0.15312546 -0.10281347 0.1298439 -0.10738568 0.111701936 0.20700946 -0.24160323
-0.00021023654 -0.13059682 -0.17052463 0.17668924 -0.15114455 -0.10262467 -0.061552193 -0.29138428
0.5087234 -0.0019996557 0.5934499 0.05078449 0.63290215 0.03023748 0.1454151 -0.032218385
-0.22041732 -0.12250811 -0.12324005 0.050368924 -0.05617045 -0.36256826 -0.14356309 -0.07063974
0.08998879 0.06741678 -0.06427156 -0.24242234 0.055559188 -0.23692887 -0.19770128 -0.33189872
0.02775601 0.16733167 -0.22408701 -0.019234601 0.07918246 0.16052473 -0.16339158 -0.23035082
-0.019254236 -0.09984016 -0.3234499 -0.031585556 -0.11237016 -0.2323686 -0.28992876 -0.13084057
0.09839756 0.059675377 -0.16811123 0.5052819 0.40127125 -0.18481864 0.46564046 0.1761542
-0.08964999 0.11013658 -0.08552834 0.026451716 -0.057377387 -0.04876981 0.06607229 -0.3270153
0.29576197 0.2408389 -0.2546493 0.4164634 -0.33351472 0.20681484 -0.21364623 -0.2068128
-0.12766221 -0.015466045 0.1289272 -0.012145175 0.11585762 0.025749955 0.1969404 0.1582082
-0.22661892 0.2612551 0.21133155 -0.77959234 0.047963087 -0.041657247 0.16288808 0.036586564
-0.14132981 0.04205205 0.15754093 0.10962064 -0.046224717 -0.41802397 0.1878132 0.13847128
0.3182157 0.076669745 0.0070736776 -0.29323 0.020381713 0.28754455 -0.27829856 -0.17144272
0.12536696 -0.33415547 -0.21450458 -0.36693728 -0.32374707 0.09611577 -0.4992352 0.1278203
-0.1272582 0.09746166 0.20663191 -0.16707642 0.12471441 0.15510234 -0.3274791 -0.1630796
0.0976428 -0.048667163 0.21150365 -0.3871023 0.08648899 -0.06896194 -0.26388705 0.062639125
-0.0038073054 0.17645428 -0.34263238 -0.37231565 0.12851685 0.057211656 -0.027376575 0.006330161
0.04542507 -0.103323616 -0.11099053 -0.09344931 -0.18100154 0.039429184 0.15931511 -0.14792868
-0.07591339 -0.18588577 -0.05227509 0.053414106 0.16267322 -0.04307981 -0.22501032 0.14681414
00000000: 5001 963c 78da e53c 2237 dabe 850a fc3e
00000010: a4bc 85bf ec4a d7bd 1e88 9ebc cb1f 063e
00000020: b68c 70bd 582e 2e3e c860 fbbd f7c2 b63d
00000030: fd99 b43c 7121 92bd 2c2a c5bd 3139 40bd
00000040: d941 d8be ee7f 4cbe 759b 83bf 061c 28be
00000050: 915f f63d 538d 463e efe2 88bc ca6a 83bd
00000060: 6d77 ec3c 69d2 333e b62a 5c3c 9a7f 3c3e
00000070: 30dd 0ebe 45a4 14bf 002f e83e 7ad5 f4bd
00000080: c0ac 60be a86a 823e 9637 03be 5058 2a3e
00000090: 9828 8dbc dd56 5b3e ddba 28bd 0c94 a43d
000000a0: d03b 8d3e 49e2 ae3d b547 1a3d 7913 cebd
000000b0: 814f b93e d81a 7b3e 1f90 043f aa04 9bbe
000000c0: 01f2 193e ecd3 853b bc55 82be a6bb ba3c
000000d0: 45e6 013e 739c b33d c74c 963c 5b47 33bc
000000e0: cd5d fcbd c541 823e 81f9 913d 5e45 eabd
000000f0: abeb 203e 904a 893e 0f39 803d c4a1 d0bd
00000100: d9c0 6bbe d5f2 ef3d defb 633e 2dc2 183d
00000110: 558f bebe 47ee e6be 18c4 07bd 9552 1c3c
00000120: eb7b cebd 7fa8 bc3e c37a f73c 9ddc 1abe
00000130: 02cd 803d 7ae8 b5be aa38 4bbc 8675 603e
00000140: b467 3f3d 34f8 98be a579 1e3e 9a80 33bd
00000150: af5f 783e 2472 da3e b82f c6be 7396 ccbe
00000160: cbd7 363f 30a6 1dbe f108 203e 354a 4d3d
00000170: d833 283e 18c2 2dbd a23f dcbd 3b72 533e
00000180: 0ca5 a33d eccc 1cbe de8f d2bd cdf5 043e
00000190: 06ed dbbd fcc3 e43d 4afa 533e d666 77be
000001a0: f172 5cb9 2cbb 05be 029e 2ebe 06ee 343e
000001b0: a3c5 1abe e22c d2bd 271e 7cbd 5230 95be
000001c0: b23b 023f a80c 03bb 55ec 173f 6603 503d
000001d0: e005 223f 97b4 f73c b2e7 143e 6df7 03bd
000001e0: 14b5 61be 88e5 fabd 4865 fcbd a54f 4e3d
000001f0: fc12 66bd 8ca2 b9be 3402 13be 91ab 90bd
00000200: 0b4c b83d cf11 8a3d cfa0 83bd 903d 78be
00000210: 0892 633d 7b9d 72be 3472 4abe a1ee a9be
00000220: 9260 e33c fe58 2b3e 1177 65be e291 9dbc
00000230: 6a2a a23d 9860 243e 1f50 27be 16e1 6bbe
00000240: 0fbb 9dbc ff78 ccbd 3a9b a5be db5f 01bd
00000250: 5422 e6bd 09f2 6dbe 8b71 94be 12fb 05be
00000260: a984 c93d 2b6e 743d 5a25 2cbe 285a 013f
00000270: 6d73 cd3e 1941 3dbe 6d68 ee3e c461 343e
00000280: 6a9a b7bd 4a8f e13d 7b29 afbd 45b1 d83c
00000290: 8d04 6bbd dac2 47bd e950 873d 8d6e a7be
000002a0: 1d6e 973e 799e 763e 6561 82be b13a d53e
000002b0: 71c2 aabe 45c7 533e 14c6 5abe bcc6 53be
000002c0: e2b9 02be 4b65 7dbc 7e05 043e 8efc 46bc
000002d0: c346 ed3d 92f1 d23c bfaa 493e 5501 223e
000002e0: ca0e 68be 3ac3 853e 4c67 583e 5d93 47bf
000002f0: f174 443d caa0 2abd 22cc 263e cbdb 153d
00000300: c3b8 10be c53e 2c3d 6952 213e c980 e03d
00000310: 2156 3dbd 3d07 d6be 1a52 403e 6acb 0d3e
00000320: 2bed a23e 0705 9d3d 4fca e73b 3e22 96be
00000330: 8df7 a63c 0a39 933e 267d 8ebe ae8e 2fbe
00000340: 3260 003e 6d16 abbe 17a7 5bbe 34df bbbe
00000350: 2dc2 a5be 58d8 c43d c29b ffbe 53e3 023e
00000360: f94f 02be fb99 c73d 5197 533e 1516 2bbe
00000370: 456a ff3d 26d3 1e3e 57ab a7be 57fe 26be
00000380: f3f8 c73d 3857 47bd 6a94 583e 4632 c6be
00000390: 2421 b13d eb3b 8dbd 341c 87be f148 803d
000003a0: fc83 79bb 6eb0 343e 836d afbe 28a0 bebe
000003b0: ec99 033e c556 6a3d d744 e0bc 3d6d cf3b
000003c0: a30f 3a3d 559b d3bd 014f e3bd 5a62 bfbd
000003d0: 7858 39be 7f80 213d 8023 233e 9e7a 17be
000003e0: 7b78 9bbd d758 3ebe 681e 56bd c0c8 5a3d
000003f0: cf93 263e 7474 30bd 1b69 66be 7256 163e

bias f4 [256]
0.27540103 -0.040123567 -0.10490313 -0.07613678 -0.23054625 0.14434883 -0.016164143 -0.31589675
-0.02822142 0.0005013861 0.052762244 -0.19708443 0.05709286 0.10920423 -0.07914938 -0.12309326
0.04728965 -0.15527318 0.1592444 -0.14592907 -0.10721625 -0.26351583 -0.27046016 0.03612055
-0.067190826 0.01691857 0.074685074 -0.2323348 -0.09528138 -0.2822652 -0.18599232 -0.040725626
0.23688361 0.24414435 0.074842975 -0.30076668 -0.20459412 -0.04766826 -0.18643452 -0.16457874
-0.020831818 -0.12549879 0.01305272 0.0010626506 0.163491 0.0035457974 -0.06601383 -0.116967514
-0.2558261 0.10270341 -0.26752523 -0.22935307 -0.023237731 -0.024774916 0.033904158 -0.08836917
0.10073118 -0.12922442 0.08930277 0.22761168 0.07834644 0.12188728 -0.21602105 0.08712808
0.031431235 -0.07113721 0.107311316 -0.06903472 0.07568198 -0.24266155 0.12652569 -0.16967756
0.21746145 -0.2017526 0.028577656 0.09051254 -0.0034228114 0.088336706 -0.11357063 0.09530078
0.14695305 0.22379884 -0.036478553 0.23830421 0.36732185 0.07036948 0.2058993 -0.13322188
0.13150258 -0.17351353 0.07420535 0.15020727 0.07119393 0.07898969 -0.03537297 0.19170596
-0.28947535 -0.1493491 0.037162118 -0.025127225 0.20307682 0.07204373 0.1980475 0.13690643
-0.1443337 0.20461315 -0.15715319 0.08469851 -0.21956791 0.057626914 0.19990583 -0.0900693
-0.076281145 0.08374335 -0.15554 0.102721 -0.13113852 0.04605817 0.19319984 -0.03706552
0.11828289 0.08346329 0.2631984 0.11060337 -0.25441772 -0.006372121 0.05551065 -0.04309259
0.04864689 0.18870915 0.30834404 0.15001284 0.10979518 0.20975105 -0.17113562 0.121269755
0.068939134 -0.15553665 0.108619325 -0.39256608 0.2981268 -0.18822503 -0.051243406 -0.19476685
0.048570964 -0.013926628 -0.31479663 -0.050479062 -0.3331869 -0.18779801 -0.074620835 0.016579313
-0.31259027 -0.091619216 -0.3600712 -0.17237447 0.091652386 -0.30160126 -0.10573526 0.24099761
-0.22851565 -0.16613914 0.124218024 0.050178133 -0.09249309 -0.0656906 -0.018910278 0.34401098
0.11249619 0.16433655 0.04737888 0.14236884 0.24213476 -0.33859307 -0.1706306 0.027159657
-0.22646707 -0.0062050004 0.08462857 -0.027386196 0.12869324 -0.31495324 -0.024738962 -0.035897482
-0.10244591 -0.30285817 -0.09144459 -0.13131309 -0.23442072 0.18892075 -0.06120297 -0.20269847
-0.11135009 -0.19668546 -0.18279544 -0.10094954 -0.13132937 0.2234955 0.033293787 0.09891881
-0.14953217 0.16667064 -0.1905682 -0.18300277 -0.27166444 0.2249496 0.3082696 -0.11550928
-0.26381284 -0.17168713 -0.15120074 0.043589797 0.09642918 -0.10583371 0.04935918 0.28319964
0.0069453176 -0.06891807 -0.041154996 -0.12241079 0.13184896 -0.13305265 -0.1417486 -0.12550822
-0.09943409 -0.30665624 -0.2432053 -0.03773067 -0.30238625 -0.27943507 -0.10483547 0.09448912
-0.24235265 0.15695617 0.23863246 -0.3063784 -0.13411362 0.14676261 0.13665716 0.087109864
-0.3012286 -0.18086201 0.21892558 0.1331711 0.013844097 -0.18776241 0.0020532648 -0.15018038
-0.015303891 -0.15128112 -0.11473309 0.0149918 0.15120962 -0.04927239 -0.26178715 0.20117176
00000000: 5d01 8d3e 9c58 24bd 74d7 d6bd 9aed 9bbd
00000010: 5114 6cbe 2ed0 133e aa6a 84bc 38bd a1be
00000020: 9b30 e7bc 746f 033a 391d 583d 80d0 49be
00000030: 34da 693d 78a6 df3d 1219 a2bd 5218 fcbd
00000040: cbb2 413d efff 1ebe f710 233e 6e6e 15be
00000050: 3194 dbbd 8ceb 86be c179 8abe 24f3 133d
00000060: 589b 89bd d098 8a3c 7df4 983d 2ce9 6dbe
00000070: e222 c3bd 1085 90be c574 3ebe eacf 26bd
00000080: 9e91 723e fa00 7a3e 4647 993d 17fe 99be
00000090: 1f81 51be cb3f 43bd b1e8 3ebe 5487 28be
000000a0: 7da7 aabc c182 00be 13db 553c a348 8b3a
000000b0: 2f6a 273e 9c60 683b 4232 87bd aa8c efbd
000000c0: a3fb 82be 2a56 d23d 11f9 88be 88db 6abe
000000d0: 0e5d bebc c4f4 cabc 16df 0a3d e5fa b4bd
000000e0: 264c ce3d 6853 04be 5fe4 b63d 0913 693e
000000f0: 1974 a03d 0aa0 f93d 9f34 5dbe 3570 b23d
00000100: 0abe 003d 63b0 91bd 09c6 db3d 1362 8dbd
00000110: 27ff 9a3d 457c 78be f38f 013e f4bf 2dbe
00000120: 37ae 5e3e 3c98 4ebe b01b ea3c a35e b93d
00000130: 3f51 60bb e0e9 b43d b897 e8bd 0e2d c33d
00000140: dc7a 163e 862b 653e 896a 15bd 0506 743e
00000150: 9c11 bc3e e01d 903d 44d7 523e 516b 08be
00000160: 9da8 063e 88ad 31be f9f8 973d efcf 193e
00000170: 20ce 913d 59c5 a13d 3fe3 10bd 914e 443e
00000180: 1d36 94be f8ee 18be 4e37 183d 9cd7 cdbc
00000190: 5ff3 4f3e aa8b 933d f7cc 4a3e 3331 0c3e
000001a0: 37cc 13be 1c86 513e c4ec 20be 6a76 ad3d
000001b0: 69d6 60be 330a 6c3d 1db4 4c3e 4176 b8bd
000001c0: 4a39 9cbd a281 ab3d e145 1fbe 635f d23d
000001d0: 2d49 06be 7ea7 3c3d 2ed6 453e 04d2 17bd
000001e0: 4d3e f23d cdee aa3d f1c1 863e 0584 e23d
000001f0: 0a43 82be 3acd d0bb 235f 633d db81 30bd
00000200: f641 473d f93c 413e 45df 9d3e f79c 193e
00000210: 4cdc e03d fbc8 563e 2d3e 2fbe 475c f83d
00000220: f62f 8d3d 0045 1fbe cf73 de3d 6cfe c8be
00000230: 13a4 983e 10be 40be 9be4 51bd f670 47be
00000240: 59f2 463d 832c 64bc 062d a1be 22c3 4ebd
00000250: 7997 aabe 1f4e 40be cfd2 98bd 57d1 873c
00000260: d50b a0be dba2 bbbd 415b b8be ef82 30be
00000270: 3fb4 bb3d 7b6b 9abe ba8b d8bd 14c8 763e
00000280: 0200 6abe 6120 2abe 0566 fe3d 9687 4d3d
00000290: 046d bdbd cb88 86bd bae9 9abc 3522 b03e
000002a0: 6764 e63d d747 283e 5b10 423d 23c9 113e
000002b0: 2df2 773e 125c adbe cab9 2ebe ee7d de3c
000002c0: fce6 67be 5153 cbbb be51 ad3d 0459 e0bc
000002d0: 29c8 033e 8d41 a1be 5da9 cabc 3d09 13bd
000002e0: 29cf d1bd 3a10 9bbe 4d47 bbbd f076 06be
000002f0: fc0b 70be 7174 413e f7af 7abd 3090 4fbe
00000300: 840b e4bd ea67 49be ba2e 3bbe a2be cebd
00000310: 357b 06be 01dc 643e 115f 083d f295 ca3d
00000320: f61e 19be b5ab 2a3e 4f24 43be 1465 3bbe
00000330: 9a17 8bbe 3059 663e 83d5 9d3e 2190 ecbd
00000340: 7a12 87be c0ce 2fbe 5ed4 1abe 378b 323d
00000350: a97c c53d 58bf d8bd da2c 4a3d 8bff 903e
00000360: 8c95 e33b eb24 8dbd 2492 28bd 82b2 fabd
00000370: 6a03 073e f43e 08be 8c26 11be 3a85 00be
00000380: 1aa4 cbbd 0c02 9dbe cf0a 79be 7a8b 1abd
00000390: 5fd2 9abe 1d12 8fbe fbb3 d6bd 8383 c13d
000003a0: 4b2b 78be 1eb9 203e 115c 743e a1dd 9cbe
000003b0: 1555 09be f048 163e dbef 0b3e a866 b23d
000003c0: a33a 9abe e433 39be 072e 603e 015e 083e
000003d0: 5ad2 623c ca44 40be 1190 063b e3c8 19be
000003e0: 2cbd 7abc 70e9 1abe 2ff9 eabd 2ba0 753c
000003f0: b2d6 1a3e d8d1 49bd f708 86be f8ff 4d3e

weight f4 [64, 256]
-0.24833848 -0.096989915 0.18958238 0.15297407 0.011288717 0.16705383 -0.10032603 0.03508125
0.03573752 0.024102386 -0.01690664 -0.04655147 0.066299364 0.04878569 -0.028887007 0.008354548
-0.03841962 -0.040999707 -0.18655606 -0.2509783 0.061746404 -0.18511981 -0.049418475 -0.037679944
-0.059727363 -0.017849363 0.17230025 0.04962617 -0.035750017 0.03138378 -0.259277 -0.038613778
0.03220577 0.072579674 -0.048398342 -0.050399505 0.023457672 0.11299022 -0.06348757 0.06568484
0.12807195 0.11316919 -0.11318186 -0.017817989 -0.15254806 0.17029518 -0.12087692 -0.10281389
-0.012137087 0.14465675 0.045803335 -0.021675255 -0.08302495 0.050878216 0.10578386 0.14056186
-0.20378709 -0.02832975 0.07603914 0.017052125 -0.001540547 0.019192606 -0.027408218 0.04324074
0.07021234 0.14244424 -0.16722278 -0.32556203 -0.011972893 -0.31875896 0.044825826 -0.06488037
0.071720086 0.16640738 0.032461543 0.09334526 -0.0425915 -0.009221477 -0.010849519 0.16457252
0.036431663 0.15483049 0.08493272 0.24323744 0.3295935 -0.031517986 -0.1841735 -0.059637807
0.09170776 -0.06469777 0.13114086 0.13771151 0.08070656 0.015061072 -0.0039306367 -0.012812711
-0.10751974 -0.09841019 -0.05967836 0.11859883 0.026100142 0.06154599 0.0073192148 0.12282698
-0.067101575 0.13836583 0.2628911 -0.002125031 -0.038437754 0.12094627 0.1674634 -0.11258903
-0.078312814 -0.12531132 -0.14572887 0.051963795 -0.1739297 0.15662755 -0.056421686 -0.045516495
-0.06094199 0.021301463 0.05566345 -0.075394794 -0.09700894 -0.099410325 0.105944976 0.23050876
0.106032394 -0.081519194 0.024215274 -0.035813227 0.053077985 -0.036054626 -0.058235187 -0.0736647
0.03653947 0.03281532 0.015379645 0.21579957 0.027009536 0.012503606 0.09024577 -0.05527041
0.20126872 0.03895678 -0.054303445 -0.0060261562 0.14841029 0.067081675 -0.016885843 -0.101827145
0.015202436 0.0339789 -0.089594945 -0.29621178 0.04204346 0.0018440988 -0.011087312 0.02971577
-0.030870598 -0.13915214 -0.10368371 -0.05187416 0.16403076 -0.06813368 -0.046302404 0.20656423
0.009302437 -0.024256399 -0.16593544 0.0672284 -0.023567185 -0.20434855 0.13995221 -0.09463312
-0.10717782 -0.032937277 -0.118005365 0.18791804 -0.11129377 0.14881739 0.018411443 -0.035118338
0.0663809 -0.13289912 0.011808137 -0.11584418 -0.032614186 -0.053151436 -0.18735772 0.01820142
0.17742875 0.15701567 -0.01517177 0.2465521 0.030143267 0.0034003132 -0.04668624 -0.020418309
0.1258082 0.13284993 -0.043788694 -0.14228153 -0.03277627 0.12823132 0.16692677 0.15094416
-0.049365234 0.006012789 -0.2149579 0.14694247 0.14699371 0.018723136 -0.07296529 0.32294673
0.24074134 -0.30814666 -0.060181458 -0.24081422 -0.08817155 0.25621253 0.008914583 -0.23663169
0.102345176 -0.10734577 -0.0068419427 -0.08336879 -0.034992117 -0.10296574 -0.028450705 -0.22859453
0.16463982 0.10995141 -0.07886165 -0.030112823 -0.15686068 0.0062402813 0.09792236 -0.03119283
0.046304394 -0.009268356 0.13279165 -0.026374929 -0.020631142 0.13649948 0.015358192 -0.17794695
-0.026456654 0.04107111 -0.17560211 -0.07789823 -0.15510124 -0.0031179078 0.054296095 -0.09591125
00000000: 714c 7ebe a6a2 c6bd e221 423e 3ca5 1c3e
00000010: 50f4 383c 2910 2b3e bc77 cdbd 5bb1 0f3d
00000020: 8161 123d 5e72 c53c cb7f 8abc c1ac 3ebd
00000030: f6c7 873d 81d3 473d 72a4 ecbc 84e1 083c
00000040: e45d 1dbd 4fef 27bd 8d08 3fbe 3a80 80be
00000050: cce9 7c3d 0c90 3dbe 076b 4abd 4956 1abd
00000060: aea4 74bd d438 92bc 7a6f 303e d044 4b3d
00000070: 9c6e 12bd 478c 003d f4bf 84be 7b29 1ebd
00000080: 33ea 033d a7a4 943d 573d 46bd b66f 4ebd
00000090: 4e2a c03c 6b67 e73d c505 82bd c685 863d
000000a0: 4b25 033e 40c5 e73d e4cb e7bd 08f7 91bc
000000b0: 8f35 1cbe dc61 2e3e 528e f7bd 1790 d2bd
000000c0: a2da 46bc e620 143e 479c 3b3d 4e90 b1bc
000000d0: fc08 aabd ad65 503d 35a5 d83d 73ef 0f3e
000000e0: 90ad 50be cb13 e8bc 69ba 9b3d e6b0 8b3c
000000f0: 2eec c9ba d039 9d3c 3387 e0bc 341d 313d
00000100: 7dcb 8f3d e7dc 113e 733c 2bbe 11b0 a6be
00000110: f429 44bc 6034 a3be 499b 373d 00e0 84bd
00000120: fbe1 923d b266 2a3e 65f6 043d cd2b bf3d
00000130: 6d74 2ebd ae15 17bc 2ec2 31bc b385 283e
00000140: 5e39 153d e28b 1e3e 35f1 ad3d 3c13 793e
00000150: 7bc0 a83e 0119 01bd fa97 3cbe c646 74bd
00000160: 47d1 bb3d 4480 84bd ca49 063e 3f04 0d3e
00000170: 7b49 a53d b7c2 763c 92cc 80bb 68ec 51bc
00000180: 4f33 dcbd 488b c9bd 4c71 74bd f2e3 f23d
00000190: f7cf d53c a617 7c3d 06d6 ef3b b68c fb3d
000001a0: 8d6c 89bd c6af 0d3e aa99 863e 1b44 0bbb
000001b0: e870 1dbd aeb2 f73d 877b 2b3e 1495 e6bd
000001c0: 7862 a0bd 9c51 00be f339 15be fdd7 543d
000001d0: a11a 32be f962 203e 6d1a 67bd 816f 3abd
000001e0: 4f9e 79bd 6880 ae3c 5cff 633d 9668 9abd
000001f0: a0ac c6bd a497 cbbd aef9 d83d 7d0a 6c3e
00000200: 8327 d93d 89f3 a6bd 1c5f c63c e4b0 12bd
00000210: 4d68 593d 04ae 13bd 0588 6ebd 85dd 96bd
00000220: 69aa 153d 5b69 063d e8fa 7b3c 90fa 5c3e
00000230: 1a43 dd3c eddb 4c3c c6d2 b83d 3a63 62bd
00000240: 6319 4e3e 2591 1f3d 4a6d 5ebd 1077 c5bb
00000250: def8 173e 1e62 893d 2e54 8abc c08a d0bd
00000260: a313 793c 762d 0b3d 8e7d b7bd 12a9 97be
00000270: c335 2c3d b0b5 f13a 8fa7 35bc 7d6e f33c
00000280: 56e4 fcbc e67d 0ebe 2058 d4bd 007a 54bd
00000290: aef7 273e ac89 8bbd 97a7 3dbd 9385 533e
000002a0: 4069 183c 5bb5 c6bc fbea 29be 0baf 893d
000002b0: f80f c1bc bf40 51be a24f 0f3e 02cf c1bd
000002c0: 0b80 dbbd 3de9 06bd ccac f1bd 966d 403e
000002d0: fded e3bd 9663 183e 98d3 963c 3fd8 0fbd
000002e0: b6f2 873d b516 08be eb76 413c b73f edbd
000002f0: 7496 05bd 52b5 59bd b4da 3fbe 251b 953c
00000300: e2af 353e b7c8 203e 0493 78bc 2778 7c3e
00000310: 03ef f63c cad7 5e3b 123a 3fbd 4c44 a7bc
00000320: ddd3 003e d009 083e c65b 33bd 40b2 11be
00000330: 6940 06bd 124f 033e daee 2a3e 1b91 1a3e
00000340: 3333 4abd ee06 c53b ec1d 5cbe 1678 163e
00000350: 8585 163e 4361 993c d36e 95bd 4659 a53e
00000360: e684 763e 66c5 9dbe d580 76bd 0198 76be
00000370: 4993 b4bd 4a2e 833e 790e 123c 944f 72be
00000380: 599a d13d 19d8 dbbd 6032 e0bb 42bd aabd
00000390: e553 0fbd b4df d2bd 7411 e9bc af14 6abe
000003a0: 5797 283e 342e e13d 3782 a1bd 2baf f6bc
000003b0: 16a0 20be 467b cc3b 858b c83d 1b88 ffbc
000003c0: ada9 3d3d 4dda 17bc 89fa 073e 3c10 d8bc
000003d0: a402 a9bc 85c6 0b3e eda0 7b3c ba37 36be
000003e0: a0bb d8bc 2e3a 283d 0ad1 33be 1b89 9fbd
000003f0: dcd2 1ebe d055 4cbb 9565 5e3d 1e6d c4bd

bias f4 [64]
0.025322901 0.038396183 -0.013119391 0.0062472965 -0.007871341 0.03740424 0.007968973 -0.0654505
-0.03769714 0.0723341 0.035529125 -0.0051961336 0.0115581695 -0.05729811 0.019235361 -0.012922897
-0.052663215 -0.0032478543 -0.0032783968 0.0053180973 -0.011003793 -0.068123735 -0.040934026 0.062107228
-0.01316269 -0.031385355 0.00893085 -0.044105433 -0.001434884 0.027506739 0.007683819 -0.074073605
0.07782484 0.021051055 0.013341628 0.025843242 0.02980209 0.02884497 -0.08374549 -0.08258885
0.030839866 0.040373884 -0.023751102 0.019633198 0.033461217 -0.094360836 -0.046816334 -0.06008156
-0.07659714 0.026464848 0.06376806 -0.0025709572 0.07306375 0.060210086 -0.071181744 -0.07338556
0.14083883 0.02499 -0.015205864 -0.12028287 0.02931425 0.011368627 -0.04280455 -0.017286023
00000000: f971 cf3c 5145 1d3d b7f2 56bc 1fb6 cc3b
00000010: ccf6 00bc 3035 193d 4c90 023c e90a 86bd
00000020: 5168 1abd e723 943d fd86 113d 5444 aabb
00000030: 7a5e 3d3c 6cb1 6abd 7a93 9d3c 8fba 53bc
00000040: 62b5 57bd f4d9 54bb 5fda 56bb 6f43 ae3b
00000050: 4149 34bc 7584 8bbd 70aa 27bd 2664 7e3d
00000060: 53a8 57bc ee8d 00bd b352 123c e6a7 34bd
00000070: b812 bcba d055 e13c 8cc8 fb3b e7b3 97bd
00000080: a162 9f3d 4373 ac3c d896 5a3c 35b5 d33c
00000090: 8323 f43c 494c ec3c c182 abbd 5824 a9bd
000000a0: e3a3 fc3c 165f 253d ac91 c2bc cdd5 a03c
000000b0: a10e 093d 4140 c1bd 7cc2 3fbd 1518 76bd
000000c0: f6de 9cbd cfcc d83c d498 823d 817d 28bb
000000d0: 73a2 953d da9e 763d bcc7 91bd 2b4b 96bd
000000e0: 0e38 103e d4b7 cc3c 0422 79bc de56 f6bd
000000f0: 7024 f03c 7a43 3a3c d353 2fbd 6b9b 8dbc

weight f4 [6, 64]
-0.19092582 -0.06734414 0.046770364 0.10634026 0.02541433 0.20167689 -0.4554949 0.07125455
0.08244358 -0.04405952 0.09242586 0.0802773 -0.08000837 -0.06653232 -0.020655455 0.02556956
-0.1093049 0.04721412 -0.13469969 -0.014383178 -0.09461653 -0.06856726 0.06382725 -0.0008718362
0.088535115 -0.061838783 0.07534167 0.11477621 0.02607984 -0.64710844 -0.048081797 0.21692877
-0.08004315 0.025139572 0.3113814 -0.0140201235 -0.0053173066 0.09746436 0.21481976 -0.056181878
-0.04288772 -0.50510705 0.11147892 -0.06563935 0.011846297 -0.04790144 -0.049604364 -0.09177964
0.095753714 0.051616874 0.039894845 -0.08238498 0.18527801 -0.035958342 0.095457084 -0.04937521
-0.2146474 0.029758051 0.17219013 0.3404209 0.00709508 -0.033412714 0.09748898 -0.07512565
-0.24725327 0.017346395 0.061433733 -0.046358842 0.0032062263 0.2771349 -0.03306223 0.058926284
0.040125433 0.48361748 -0.060582984 0.029410018 -0.03723338 0.00079446356 -0.028790127 0.015553855
0.038378004 0.018383661 -0.02830575 0.11700536 0.04812094 -0.0998587 -0.055532653 0.045856915
0.20099708 -0.046848238 0.026250213 0.110627815 -0.06916767 -0.14881304 0.0877588 0.049980734
-0.32603475 -0.06605485 -0.2520496 -0.058584847 -0.060758516 -0.08904702 -0.23532872 0.100274585
0.0040672133 -0.13417086 -0.03670257 0.012164418 -0.0154685145 0.021413036 0.036499746 -0.057656333
0.12214143 -0.05792244 0.0793524 0.053063292 -0.33939612 0.074148 0.16321227 -0.07833416
-0.11722283 -0.022264682 0.05146801 -0.24431689 0.047655158 0.00029180927 0.05345944 -0.114685364
0.16143256 0.061859068 -0.05550054 -0.016250692 0.11209446 0.1266886 -0.052620366 0.017079424
0.1181929 -0.04829064 -0.11312254 -0.062764674 0.0036135865 0.04403156 0.027240928 0.03314215
-0.136137 0.038774062 0.19361585 0.07538794 0.019258346 0.08782309 0.09899468 -0.42527914
0.10236742 -0.102469206 0.052591085 0.12466246 -3.9649352e-05 0.22400217 0.06788325 0.25267828
-0.26295835 -0.00790158 -0.008136239 0.119883545 0.11464618 -0.037573278 0.1632654 0.04889174
0.06940241 -0.06233715 -0.06393651 -0.0877469 -0.041138977 -0.110283785 0.10718952 0.048370805
-0.03627736 -0.02279888 0.27423552 0.10001453 0.08416011 -0.060768146 -0.0052747587 -0.017465979
0.20278946 -0.09542577 -0.00025818465 -0.4583337 0.015349968 -0.48643723 0.120371744 -0.08458127
0.019339586 0.0049600657 -0.026919128 -0.07726809 0.007533218 -0.42013747 0.1324287 0.11583103
0.068602055 -0.14080755 -0.09596528 0.027912427 0.117973156 0.07754699 -0.025086166 -0.017080048
-0.20491838 0.0046796524 0.21072014 0.09605915 0.085696004 0.020439621 0.09878279 -0.044828046
0.18303615 -0.045501526 -0.07281057 -0.053120334 0.13537951 0.124162115 -0.05748607 -0.77148104
-0.21481943 0.019825898 -0.21055512 -0.013763058 -0.087018065 -0.013666495 -0.06877168 -0.033041663
-0.016734932 0.062928244 -0.05194724 0.027303645 0.033097826 -0.029155537 0.009642799 0.10438545
-0.06721175 -0.018325489 -0.74003565 0.007897706 0.31622896 0.33213106 0.13033739 0.059657853
0.007873626 -0.056925375 0.13416025 -0.022836773 0.022337567 -0.00051259267 0.07593471 0.06994922
00000000: 0f82 43be b9eb 89bd 4892 3f3d ecc8 d93d
00000010: b731 d03c 6384 4e3e a136 e9be e8ed 913d
00000020: 2ed8 a83d c177 34bd c549 bd3d 6d68 a43d
00000030: 6edb a3bd 1942 88bd a135 a9bc 4177 d13c
00000040: 3fdb dfbd 9863 413d b7ee 09be 6ca7 6bbc
00000050: 50c6 c1bd fe6c 8cbd dcb7 823d f08b 64ba
00000060: e651 b53d aa4a 7dbd bc4c 9a3d ca0f eb3d
00000070: 63a5 d53c e6a8 25bf 6bf1 44bd 9322 5e3e
00000080: aaed a3bd 81f1 cd3c 626d 9f3e a9b4 65bc
00000090: cd3c aebb 659b c73d b6f9 5b3e f81e 66bd
000000a0: 09ab 2fbd b24e 01bf 0f4f e43d ec6d 86bd
000000b0: f916 423c 4d34 44bd f22d 4bbd f7f6 bbbd
000000c0: 861a c43d 376c 533d c768 233d 75b9 a8bd
000000d0: 85b9 3d3e 0e49 13bd 017f c33d a93d 4abd
000000e0: 87cc 5bbe 28c7 f33c 9c52 303e a64b ae3e
000000f0: d87d e83b c5db 08bd 4da8 c73d 7adb 99bd
00000100: f62f 7dbe 071a 8e3c f0a1 7b3d c5e2 3dbd
00000110: 8d1f 523b a0e4 8d3e 436c 07bd b05c 713d
00000120: 915a 243d b69c f73e dd25 78bd 47ed f03c
00000130: 0782 18bd 8c43 503a 46d9 ebbc 99d5 7e3c
00000140: 4132 1d3d 5599 963c 76e1 e7bc 82a0 ef3d
00000150: 761a 453d b882 ccbd 3576 63bd 76d4 3b3d
00000160: 2ed2 4d3e f0e3 3fbd b00a d73c d690 e23d
00000170: c8a7 8dbd 7262 18be e3ba b33d 99b8 4c3d
00000180: 07ee a6be c447 87bd a50c 81be aaf6 6fbd
00000190: ecdd 78bd 495e b6bd 03fa 70be c35c cd3d
000001a0: 4246 853b 1664 09be 6f55 16bd 444d 473c
000001b0: a76f 7dbc 646a af3c c280 153d 0c29 6cbd
000001c0: 4925 fa3d 1540 6dbd 8383 a23d e558 593d
000001d0: 54c5 adbe e8da 973d 1e21 273e a96d a0bd
000001e0: 8612 f0bd 6c64 b6bc 1fd0 523d 352e 7abe
000001f0: 0e32 433d fafd 9839 49f8 5a3d 29e0 eabd
00000200: 944e 253e ef5f 7d3d 8954 63bd 2c20 85bc
00000210: c891 e53d a8ba 013e 7488 57bd 26ea 8b3c
00000220: 1f0f f23d 68cc 45bd caac e7bd c48a 80bd
00000230: ecd1 6c3b 705a 343d 5e28 df3c 10c0 073d
00000240: 7f67 0bbe 8dd1 1e3d 3c43 463e fe64 9a3d
00000250: aec3 9d3c 98dc b33d b9bd ca3d 30be d9be
00000260: 03a6 d13d 60db d1bd c069 573d 084f ff3d
00000270: 2b4d 26b8 d360 653e 6006 8b3d 0c5f 813e
00000280: 7aa2 86be a175 01bc dc4d 05bc 8185 f53d
00000290: 9ecb ea3d 70e6 19bd 0c2f 273e b542 483d
000002a0: da22 8e3d 3d55 7fbd 25f1 82bd a6b4 b3bd
000002b0: 5881 28bd 77dc e1bd 2e86 db3d 7720 463d
000002c0: 9297 14bd b7c4 babc 9968 8c3e 6bd4 cc3d
000002d0: 235c ac3d 05e8 78bd e2d7 acbb d014 8fbc
000002e0: 0aa8 4f3e 966e c3bd f55c 87b9 b7aa eabe
000002f0: 6f7e 7b3c 4d0e f9be 7685 f63d f238 adbd
00000300: 0d6e 9e3c 0c88 a23b 8185 dcbc bb3e 9ebd
00000310: 36d9 f63b 421c d7be 649b 073e d238 ed3d
00000320: 3c7f 8c3d db2f 10be 7289 c4bd 9aa8 e43c
00000330: e99b f13d f5d0 9e3d 8181 cdbc 75eb 8bbc
00000340: 20d6 51be c557 993b 05c7 573e a9ba c43d
00000350: 6381 af3d fe70 a73c a24e ca3d 9d9d 37bd
00000360: d46d 3b3e cf5f 3abd b51d 95bd b594 59bd
00000370: eda0 0a3e b548 fe3d 8376 6bbd c87f 45bf
00000380: a0f9 5bbe ec69 a23c c39b 57be 737e 61bc
00000390: 8736 b2bd 6fe9 5fbc 2bd8 8cbd b256 07bd
000003a0: b217 89bc 86e0 803d a1c6 54bd e5ab df3c
000003b0: 9691 073d 98d7 eebc d5fc 1d3c 0ac8 d53d
000003c0: 50a6 89bd 561f 96bc fa72 3dbf 6165 013c
000003d0: c3e8 a13e 150d aa3e 2a77 053e cb5b 743d
000003e0: 6200 013c 952a 69bd 4e61 093e 2f14 bbbc
000003f0: 46fd b63c 835f 06ba a883 9b3d 8941 8f3d

bias f4 [6]
0.12878032 -0.057714112 0.11627729 0.15910448 0.025813958 -0.12921175
00000000: fdde 033e a265 6cbd ca22 ee3d 49ec 223e
00000010: cb77 d33c 1650 04be
