part_4/Reinforcement_Learning/models_lab1/model_kek_winner_v5.pt (torch, 86199 bytes, 6 tensors)

weight f4 [256, 14]
0.03639621 0.047833674 -0.39996302 0.49202448 -0.8968944 -0.13279513 -0.0064456398 0.12407729
-0.0328969 0.1796259 -0.094973125 0.07604024 0.025339471 -0.0448705 -0.083154045 -0.059904218
-0.34649533 -0.25381106 -0.8586264 -0.1738426 0.13601658 0.19237898 0.014817967 -0.062429797
0.0070320684 0.17323811 0.01980879 0.179769 -0.13473693 -0.56444097 0.41294283 -0.093111165
-0.18491721 0.27033845 -0.12700868 0.17700933 -0.050721966 0.21573202 -0.034153152 0.07071784
0.2621367 0.11349046 0.029308142 -0.13840681 0.36099732 0.23979145 0.5110294 -0.3000703
0.17875618 -0.0042658523 -0.2168329 0.024922265 0.14173426 0.07845743 0.041180123 -0.01118491
-0.18015711 0.16824247 0.023007285 -0.114327945 0.058438376 0.2588002 0.07751632 -0.10365606
-0.19581608 0.109789245 0.20582056 0.025322337 -0.40945512 -0.44023463 -0.015121776 0.018139213
-0.078714125 0.3378786 0.05305109 -0.1803137 0.07080781 -0.36032516 0.0033179114 0.20974976
0.07375514 -0.2916556 0.14262223 -0.038736425 0.2372892 0.4233492 -0.369613 -0.3605056
0.6465328 -0.16337065 0.16463025 0.051695876 0.16245379 -0.042918693 -0.09017058 0.2051535
0.09022162 -0.15424077 -0.09028902 0.12550724 -0.115344696 0.11129362 0.20166354 -0.24673171
-0.0049957545 -0.12866722 -0.15617934 0.1801609 -0.13724573 -0.1266598 -0.065501325 -0.29040653
0.45421445 -0.059716992 0.45372063 0.034553915 0.5865856 0.015170543 0.1599582 -0.024214646
-0.20375384 -0.13125716 -0.16362312 0.051814307 -0.061162803 -0.36203575 -0.1229034 -0.028349923
0.11738356 0.09097359 -0.04934953 -0.2056674 0.091956876 -0.20999363 -0.16155595 -0.3162967
0.043787796 0.21600084 -0.18573382 0.004215602 0.07917912 0.16049223 -0.16657159 -0.23036873
-0.019270806 -0.099850334 -0.32350054 -0.031610843 -0.11596733 -0.2323789 -0.2931803 -0.13088283
0.09836798 0.059645273 -0.22916244 0.37940857 0.30245423 -0.20208421 0.4022501 0.09211015
-0.07327078 0.11453338 -0.121411726 0.006441362 -0.09143259 -0.08864163 0.037687507 -0.31737182
0.27865407 0.25527272 -0.2700866 0.2872324 -0.24912953 0.27238327 -0.15752612 -0.16224746
-0.11238341 0.004604463 0.18075344 0.01703526 0.11977109 0.0026346305 0.27225336 0.15543306
-0.1294653 0.31782258 0.2666862 -0.6148377 0.05783877 -0.04307679 0.17802367 0.09287264
-0.13675344 0.026870187 0.15294354 0.14198573 -0.016381538 -0.37663862 0.13757825 0.058790315
0.294291 0.07256083 0.012737228 -0.28189817 0.031534746 0.2815169 -0.2994416 -0.17749552
0.111506455 -0.31868416 -0.16747536 -0.31134188 -0.22074862 0.15175617 -0.38728094 0.13218145
-0.08684984 0.10053589 0.19506872 -0.15378542 0.13783479 0.17140485 -0.35737172 -0.14171806
0.100995325 -0.05029564 0.20731522 -0.3689319 0.09559106 -0.08890807 -0.25067428 0.059275735
-0.018585721 0.1608134 -0.30943996 -0.33486038 0.113774806 0.063724585 -0.024153614 0.007516395
0.045224108 -0.10789703 -0.11265916 -0.101514325 -0.19535932 0.022300528 0.14453034 -0.1500844
-0.079639666 -0.18804227 -0.05986121 0.051577847 0.16175805 -0.06024221 -0.21295877 0.16212076
00000000: 3114 153d 3eed 433d f4c7 ccbe a2ea fb3e
00000010: df9a 65bf 72fb 07be f235 d3bb 3c1c fe3d
00000020: e6be 06bd daef 373e 4581 c2bd fcba 9b3d
00000030: b994 cf3c 21ca 37bd ab4c aabd 205e 75bd
00000040: d667 b1be 86f3 81be f1ce 5bbf cb03 32be
00000050: ee47 0b3e fffe 443e 0fc7 723c 63b6 7fbd
00000060: 446d e63b 5565 313e 0b46 a23c 5d15 383e
00000070: 7af8 09be 347f 10bf 3e6d d33e 11b1 bebd
00000080: f05a 3dbe cd69 8a3e 900e 02be ef41 353e
00000090: d6c1 4fbd dbe8 5c3e 2de4 0bbd 84d4 903d
000000a0: c836 863e b06d e83d a117 f03c 84ba 0dbe
000000b0: a4d4 b83e e48b 753e d3d2 023f d0a2 99be
000000c0: dc0b 373e 90c8 8bbb 7209 5ebe c729 cc3c
000000d0: c922 113e 4aae a03d 7dac 283d ea40 37bc
000000e0: 1b7b 38be c147 2c3e c679 bc3c c524 eabd
000000f0: 145d 6f3d 7681 843e e0c0 9e3d a149 d4bd
00000100: 0384 48be 2fd9 e03d a0c2 523e ca70 cf3c
00000110: 1aa4 d1be 6f66 e1be 53c1 77bc b098 943c
00000120: df34 a1bd 6dfe ac3e 1a4c 593d 28a4 38be
00000130: af03 913d 8a7c b8be 5171 593b a4c8 563e
00000140: ef0c 973d e253 95be 900b 123e 16aa 1ebd
00000150: f1fb 723e 3ac1 d83e ea3d bdbe 3194 b8be
00000160: 2c83 253f a34a 27be d594 283e 0ebf 533d
00000170: 495a 263e 83cb 2fbd 5aab b8bd c213 523e
00000180: 1dc6 b83d 4bf1 1dbe 73e9 b8bd f884 003e
00000190: d739 ecbd e9ed e33d e380 4e3e 3da7 7cbe
000001a0: 6db3 a3bb 57c1 03be 7aed 1fbe 197c 383e
000001b0: 258a 0cbe 1bb3 01be 8f25 86bd 2ab0 94be
000001c0: cc8e e83e ce99 74bd 124e e83e 6888 0d3d
000001d0: 792a 163f df8d 783c 15cc 233e cb5d c6bc
000001e0: d9a4 50be 4768 06be d28c 27be 3d3b 543d
000001f0: d985 7abd c05c b9be c7b4 fbbd 193e e8bc
00000200: cb66 f03d 5d50 ba3d bc22 4abd 7a9a 52be
00000210: e353 bc3d 9208 57be ec6e 25be a4f1 a1be
00000220: d55a 333d 532f 5d3e 0231 3ebe 0823 8a3b
00000230: aa28 a23d 1358 243e be91 2abe c8e5 6bbe
00000240: cfdd 9dbc 557e ccbd dda1 a5be 5f7a 01bd
00000250: 4880 edbd bcf4 6dbe ba1b 96be 2606 06be
00000260: 2775 c93d 9a4e 743d 8fa9 6abe d741 c23e
00000270: 48db 9a3e 2aef 4ebe baf3 cd3e 3fa4 bc3d
00000280: fe0e 96bd 7a90 ea3d b6a6 f8bd 1012 d33b
00000290: 0241 bbbd be89 b5bd 375e 1a3d 8f7e a2be
000002a0: bfab 8e3e 1bb3 823e ca48 8abe 2010 933e
000002b0: d01b 7fbe d275 8b3e 874e 21be 3324 26be
000002c0: 4629 e6bd 09e1 963b 6e17 393e 888d 8b3c
000002d0: 8c4a f53d c4a9 2c3b cb64 8b3e d829 1f3e
000002e0: 8d92 04be a4b9 a23e 188b 883e 0166 1dbf
000002f0: 59e8 6c3d 4a71 30bd d64b 363e 0334 be3d
00000300: 1809 0cbe de1e dc3c 3b9d 1c3e b564 113e
00000310: 9332 86bc c7d6 c0be 50e1 0c3e 1dce 703d
00000320: 4fad 963e c69a 943d ceaf 503c f554 90be
00000330: 942a 013d fc22 903e 6950 99be 63c1 35be
00000340: 7f5d e43d 922a a3be a97e 2bbe 3468 9fbe
00000350: ed0b 62be f865 1b3e b049 c6be 935a 073e
00000360: 54de b1bd c3e5 cd3d 18c0 473e ed79 1dbe
00000370: 9024 0d3e c184 2f3e 6df9 b6be 8a1e 11be
00000380: a3d6 ce3d cd02 4ebd 714a 543e a4e4 bcbe
00000390: 3fc5 c33d 6f15 b6bd 6158 80be 1dcb 723d
000003a0: 1541 98bc 45ac 243e ea6e 9ebe d272 abbe
000003b0: c402 e93d 0982 823d cddd c5bc 174c f63b
000003c0: ea3c 393d 1ef9 dcbd d8b9 e6bd bee6 cfbd
000003d0: 460c 48be 99af b63c c3ff 133e baaf 19be
000003e0: 1f1a a3bd 278e 40be 0731 75bd 4b43 533d
000003f0: e7a3 253e 89c0 76bd dd11 5abe fc02 263e

bias f4 [256]
0.28095582 -0.03387971 -0.09967835 -0.06359992 -0.23784733 0.1439836 -0.011741507 -0.31605247
-0.03712452 0.045916885 0.052737337 -0.23187014 0.0956322 0.13581125 -0.082891546 -0.105200455
0.041300457 -0.17065994 0.16659182 -0.16307689 -0.11641709 -0.22589955 -0.2530129 0.0051889974
-0.07035299 0.030003726 0.0691669 -0.24909507 -0.09528138 -0.2822652 -0.16141737 -0.035079796
0.23387676 0.24354042 0.06438136 -0.2695049 -0.22629683 -0.06334819 -0.16387343 -0.15674219
-0.00034750503 -0.11639085 0.003936344 -0.009413714 0.17859428 0.015535357 -0.059930705 -0.122950785
-0.25745037 0.092197075 -0.26865035 -0.23225224 -0.028125357 0.014699017 0.059793584 -0.08229338
0.10654798 -0.14006723 0.109808266 0.2314534 0.08637077 0.114670426 -0.2091076 0.10212721
0.037228934 -0.060983293 0.07896707 -0.031376112 0.07682221 -0.25727135 0.16770919 -0.16967756
0.21168613 -0.21637152 0.027150238 0.110452555 -0.012662598 0.085277244 -0.09855678 0.088936165
0.1600238 0.25566345 -0.09361431 0.22901863 0.32573974 0.07036948 0.2159886 -0.097784266
0.12531379 -0.1588217 0.09511376 0.15283373 0.07422994 0.04291388 -0.036409497 0.14460795
-0.32567555 -0.14287962 0.0071345223 -0.036403634 0.21797177 0.07204373 0.21117134 0.15288232
-0.1736863 0.2003631 -0.15967728 0.08785919 -0.20988502 0.042830873 0.20084506 -0.09535342
-0.069014266 0.06625029 -0.15614717 0.0727857 -0.14297943 0.02122675 0.17448188 -0.06519363
0.12384611 0.08346329 0.22597702 0.09453894 -0.216816 -0.02547952 0.0737995 -0.025782246
0.036972582 0.16094187 0.30744472 0.16418688 0.12448893 0.2122884 -0.14642921 0.15709679
0.071124904 -0.1425628 0.12298063 -0.3791306 0.29563662 -0.19521312 -0.022924587 -0.2035184
0.043297645 -0.021826005 -0.31479663 -0.07084903 -0.30720395 -0.20863183 -0.075746626 0.0530488
-0.31809363 -0.083871536 -0.32277748 -0.16503164 0.12391725 -0.2886372 -0.09831061 0.23561415
-0.22857526 -0.14419974 0.11231317 -0.0065529766 -0.105741985 -0.0939045 -0.0029495903 0.3290962
0.11249619 0.16281071 0.051820192 0.14111277 0.22541986 -0.345039 -0.20544311 0.039471652
-0.23364736 -0.008726053 0.06909748 -0.030249614 0.13191438 -0.3011499 0.026250176 -0.07497034
-0.10665235 -0.30028322 -0.08855244 -0.10798252 -0.23442072 0.18892075 -0.088333346 -0.23456502
-0.08930327 -0.189589 -0.18707961 -0.11142425 -0.11210065 0.12792227 0.018266695 0.11686884
-0.15449905 0.15765564 -0.1905682 -0.17057464 -0.25701517 0.22910844 0.3120153 -0.11578204
-0.27770063 -0.1910377 -0.1433338 0.030283919 0.104959026 -0.11396959 0.076770276 0.28198963
-0.0024831467 -0.016488517 -0.06564104 -0.12464222 0.12326171 -0.12925899 -0.11264885 -0.1477121
-0.13274923 -0.26434198 -0.2432053 -0.041424967 -0.3034234 -0.22312357 -0.08365551 0.10221777
-0.25529584 0.16640303 0.22888608 -0.2901509 -0.15190826 0.10505379 0.1718125 0.052239913
-0.30226773 -0.18086201 0.23278274 0.16339433 0.013844097 -0.22197321 -0.011784885 -0.19562498
-0.022292584 -0.13900352 -0.122249454 -0.03391955 0.13195251 -0.028204206 -0.28141928 0.20706126
00000000: 71d9 8f3e 73c5 0abd 2a24 ccbd ad40 82bd
00000010: 408e 73be 7070 133e 735f 40bc a1d1 a1be
00000020: e10f 18bd 5813 3c3d 1b03 583d 5e6f 6dbe
00000030: d1da c33d 1b12 0b3e 0bc3 a9bd 5673 d7bd
00000040: ab2a 293d 7bc1 2ebe 0c97 2a3e a1fd 26be
00000050: 156c eebd 3652 67be e88a 81be 7708 aa3b
00000060: 3a15 90bd 60ca f53c 60a7 8d3d c712 7fbe
00000070: e222 c3bd 1085 90be 984a 25be d5af 0fbd
00000080: 647d 6f3e a962 793e 60da 833d 8cfc 89be
00000090: 5bba 67be b2bc 81bd 70ce 27be 0681 20be
000000a0: 5631 b6b9 535e eebd 72fc 803b fa3b 1abc
000000b0: 6be1 363e 0388 7e3c e679 75bd 9fcd fbbd
000000c0: 89d0 83be d2d1 bc3d 8a8c 89be 88d3 6dbe
000000d0: 2667 e6bc 25d4 703c 1eea 743d 6e89 a8bd
000000e0: d435 da3d c96d 0fbe 28e3 e03d 1f02 6d3e
000000f0: 29e3 b03d 54d8 ea3d 4d20 56be 1228 d13d
00000100: 5e7d 183d 9ec9 79bd 7db9 a13d 3d84 00bd
00000110: f654 9d3d 12b9 83be f5bb 2b3e f4bf 2dbe
00000120: 40c4 583e 7f90 5dbe 2d6a de3c f334 e23d
00000130: c976 4fbc d6a5 ae3d 23d8 c9bd 2a24 b63d
00000140: 47dd 233e 52e6 823e dcb8 bfbd dc83 6a3e
00000150: 5cc7 a63e e01d 903d 1e2c 5d3e 1e43 c8bd
00000160: 4252 003e 28a2 22be 01cb c23d 7280 1c3e
00000170: de05 983d 77c6 2f3d 2022 15bd 1b14 143e
00000180: f2be a6be 094f 12be b6c8 e93b fa1b 15bd
00000190: fe33 5f3e aa8b 933d 4d3d 583e 2f8d 1c3e
000001a0: d2da 31be fc2b 4d3e 7182 23be 85ef b33d
000001b0: 19ec 56be 6d6f 2f3d 54aa 4d3e a748 c3bd
000001c0: 5a57 8dbd 3bae 873d 0be5 1fbe ab10 953d
000001d0: 3369 12be b9e3 ad3c 61ab 323e 3d84 85bd
000001e0: 08a3 fd3d cdee aa3d 8566 673e a29d c13d
000001f0: 0305 5ebe 6dba d0bc 3124 973d 4a35 d3bc
00000200: 9070 173d f2cd 243e 6569 9d3e 9b20 283e
00000210: 0df4 fe3d 2162 593e 8af1 15be fbdd 203e
00000220: efa9 913d fcfb 11be 45dd fb3d 681d c2be
00000230: af5d 973e f3e5 47be 58cc bbbc 2167 50be
00000240: df58 313d 73cc b2bc 062d a1be 4c19 91bd
00000250: d649 9dbe 95a3 55be 0c21 9bbd b349 593d
00000260: 2bdd a2be d7c4 abbd 1743 a5be 0efe 28be
00000270: 54c8 fd3d 41c8 93be 1357 c9bd d644 713e
00000280: a20f 6abe 19a9 13be 7304 e63d 5aba d6bb
00000290: 418f d8bd 0151 c0bd ea4d 41bb 4c7f a83e
000002a0: 6764 e63d dab7 263e 6941 543d de7f 103e
000002b0: 77d4 663e f4a8 b0be ae5f 52be 07ad 213d
000002c0: 4141 6fbe b8f7 0ebc fb82 8d3d 0ace f7bc
000002d0: 9014 073e 5230 9abe 9c0a d73c 0d8a 99bd
000002e0: 8c6c dabd b9be 99be fb5a b5bd f025 ddbd
000002f0: fc0b 70be 7174 413e 1de8 b4bd d031 70be
00000300: a2e4 b6bd 9e23 42be cc91 3fbe 6632 e4bd
00000310: 0795 e5bd 0efe 023e 09a4 953c ee58 ef3d
00000320: 0035 1ebe 7b70 213e 4f24 43be 1eab 2ebe
00000330: 7e97 83be 679b 6a3e 78c0 9f3e 221f edbd
00000340: c72e 8ebe 639f 43be 18c6 12be fb15 f83c
00000350: c2f4 d63d e368 e9bd bc39 9d3d f260 903e
00000360: 4abc 22bb ed12 87bc cf6e 86bd 6c44 ffbd
00000370: a370 fc3d 785c 04be 71b4 e6bd d741 17be
00000380: 6aef 07be d557 87be cf0a 79be 3aad 29bd
00000390: 505a 9bbe 817a 64be 9453 abbd 8d57 d13d
000003a0: 23b6 82be 8e65 2a3e 1d61 6a3e a98e 94be
000003b0: d78d 1bbe 7126 d73d 9eef 2f3e 85f9 553d
000003c0: d6c2 9abe e433 39be 995e 6e3e d850 273e
000003d0: 5ad2 623c f24c 63be 6415 41bc ea51 48be
000003e0: f09e b6bc f056 0ebe ec5d fabd 3aef 0abd
000003f0: 8f1e 073e 820c e7bc 3016 90be de07 543e

weight f4 [64, 256]
-0.24191914 -0.09064666 0.1808693 0.16507904 -0.00897759 0.12860912 -0.10363398 0.02756662
0.052835587 0.021803947 -0.01690664 -0.0016173465 0.0081103835 0.017518125 -0.012289783 -0.01166342
0.0044719186 -0.058205917 -0.18311772 -0.22441638 0.05977161 -0.1709932 -0.046750136 -0.04346039
-0.06288958 -0.02168691 0.17076059 0.037566435 -0.035750017 0.03138378 -0.23061787 -0.042978533
-0.001178678 0.0648551 -0.02537922 -0.0773943 0.0006476764 0.09604244 -0.06309069 0.068665
0.103204295 0.11234307 -0.1074621 -0.039297506 -0.14633407 0.1587939 -0.122977406 -0.09140759
-0.051564798 0.12184688 0.042142514 -0.043492217 -0.09004096 0.030961903 0.08696747 0.13260058
-0.19162315 0.023188544 0.058800865 0.0142511455 0.016238337 0.0050403983 -0.04687777 0.041905776
0.07309297 0.10215142 -0.13204269 -0.29955038 0.009005067 -0.2967039 0.038876124 -0.06488037
0.056945052 0.13435881 -0.021206161 0.050221924 -0.058969934 -0.022370229 -0.039173696 0.1488963
0.039843895 0.14841278 0.08470024 0.22725281 0.3332536 -0.031517986 -0.19648331 -0.037298396
0.059004754 -0.05344101 0.124165945 0.11335771 0.06797351 0.0005412384 -0.0122121 0.032745264
-0.11101319 -0.084184624 -0.062831186 0.14309214 0.01988584 0.06154599 -0.0111864135 0.11971039
-0.08652436 0.15270697 0.268996 -0.005284163 -0.016974283 0.11290311 0.15355848 -0.119135
-0.057699434 -0.124984115 -0.14088821 0.04446531 -0.18345708 0.113616675 -0.04949841 0.026747735
-0.06575503 0.021301463 0.05418519 -0.08881989 -0.07565911 -0.08634478 0.09763597 0.22627595
0.05564951 -0.06628176 0.01686954 -0.052383643 0.033728488 -0.03370798 -0.05230972 -0.12521784
0.03699409 0.03398046 -0.0071570813 0.21437019 0.035736892 0.014344993 0.08204069 -0.072833985
0.19008517 0.021395486 -0.054303445 -0.0016542315 0.13828564 0.025188657 -0.04071204 -0.09650723
0.011226708 0.028166328 -0.08080555 -0.27968043 0.030549748 0.019924192 -0.0105251465 0.035202585
-0.030505458 -0.12074703 -0.11816606 -0.031934857 0.15614778 -0.048907433 -0.03589531 0.19308381
0.009302437 -0.018773917 -0.16975264 0.061982013 -0.047082793 -0.19728878 0.14434518 -0.0887487
-0.09235551 -0.008799141 -0.11315306 0.19005851 -0.113145344 0.14295417 0.0052761426 -0.0035441164
0.041619603 -0.133889 0.011408239 -0.10350895 -0.032614186 -0.053151436 -0.14344437 0.016799906
0.18949588 0.12017582 -0.05059162 0.1920571 0.03623077 -0.010702193 -0.027833315 0.00780767
0.14112234 0.13288042 -0.043788694 -0.13822205 -0.080111966 0.11791451 0.1599268 0.10818645
-0.060525242 -0.011458725 -0.23483302 0.140146 0.13211893 0.016890928 -0.07159459 0.3042035
0.24703988 -0.28341106 -0.041825417 -0.26514372 -0.10670074 0.24346972 0.009696678 -0.2026682
0.08464369 -0.10721931 -0.0068419427 -0.09343714 -0.034523323 -0.08700618 -0.02314343 -0.19723578
0.05872856 0.13738252 -0.06824993 -0.03272629 -0.1266312 -0.037068512 0.11256008 -0.046206176
0.043229185 -0.009268356 0.040874463 -0.023965571 -0.020631142 0.13463221 0.018043626 -0.13785554
-0.06543344 0.005051635 -0.19955422 -0.05530176 -0.14217336 -0.046476535 0.09339976 -0.09358388
00000000: a7b9 77be f5a4 b9bd cd35 393e 7b0a 293e
00000010: be16 13bc 1cb2 033e 0d3e d4bd 64d3 e13c
00000020: 216a 583d 319e b23c cb7f 8abc 25fd d3ba
00000030: 6ae1 043c 2c82 8f3c 165b 49bc ee17 3fbc
00000040: 2c89 923b 5469 6ebd 3683 3bbe 68cd 65be
00000050: 13d3 743d d718 2fbe 127d 3fbd 8603 32bd
00000060: 41cc 80bd bfa8 b1bc dddb 2e3e 43df 193d
00000070: 9c6e 12bd 478c 003d 1727 6cbe 420a 30bd
00000080: df7d 9aba c0d2 843d 15e8 cfbc e780 9ebd
00000090: d4c8 293a e6b1 c43d b135 81bd 3ca0 8c3d
000000a0: c65c d33d 2014 e63d 1715 dcbd 6cf6 20bd
000000b0: 99d8 15be de9a 223e 94db fbbd e733 bbbd
000000c0: 9c35 53bd db8a f93d a19d 2c3d e524 32bd
000000d0: 6567 b8bd d1a3 fd3c 001c b23d 72c8 073e
000000e0: dc38 44be e7f5 bd3c 2dd9 703d a37d 693c
000000f0: 4306 853c ed29 a53b e802 40bd 64a5 2b3d
00000100: c4b1 953d c434 d13d 3336 07be ab5e 99be
00000110: fd89 133c 93e9 97be 923c 1f3d 00e0 84bd
00000120: 373f 693d 5b95 093e 8bb8 adbc 81b5 4d3d
00000130: 758a 71bd c541 b7bc 9974 20bd 4678 183e
00000140: 5a33 233d 85f9 173e 5277 ad3d f6b4 683e
00000150: 37a0 aa3e 0119 01bd ec32 49be 34c6 18bd
00000160: f8ae 713d f6e4 5abd b74a fe3d 1628 e83d
00000170: b235 8b3d e5e1 0d3a 4315 48bc e61f 063d
00000180: e25a e3bd fd68 acbd a3ad 80bd bf86 123e
00000190: a1e7 a23c a617 7c3d 3847 37bc b92a f53d
000001a0: af33 b1bd 375f 1c3e d8b9 893e c626 adbb
000001b0: a70d 8bbc bf39 e73d 6f3e 1d3e 0dfd f3bd
000001c0: 3e56 6cbd acf7 ffbd 0045 10be 4221 363d
000001d0: 2cdc 3bbe dcaf e83d d8be 4abd 111e db3c
000001e0: 93aa 86bd 6880 ae3c 4af1 5d3d 34e7 b5bd
000001f0: 2af3 9abd 88d5 b0bd 5ef5 c73d e2b4 673e
00000200: bef0 633d bbbe 87bd fd31 8a3c 3b90 56bd
00000210: e226 0a3d 6111 0abd b842 56bd 1b39 00be
00000220: 1d87 173d 182f 0b3d f385 eabb dc83 5b3e
00000230: d960 123d 4307 6b3c f304 a83d fc29 95bd
00000240: b0a5 423e 9645 af3c 4a6d 5ebd ccd2 d8ba
00000250: c09a 0d3e 7158 ce3c abc1 26bd 95a5 c5bd
00000260: 3af0 373c 12bd e63c 617d a5bd 4632 8fbe
00000270: 7743 fa3c 0f38 a33c aa71 2cbc 9630 103d
00000280: 95e6 f9bc 384a f7bd 0c01 f2bd 20ce 02bd
00000290: 34e5 1f3e 2953 48bd f606 13bd c3b7 453e
000002a0: 4069 183c c2cb 99bc a3d3 2dbe dae0 7d3d
000002b0: e3d9 40bd 1206 4abe 39cf 133e e1c1 b5bd
000002c0: e324 bdbd 462a 10bc cbbc e7bd b39e 423e
000002d0: bfb8 e7bd 9462 123e 7ee3 ac3b 6844 68bb
000002e0: 5179 2a3d 331a 09be 9fe9 3a3c 80fc d3bd
000002f0: 7496 05bd 52b5 59bd 15e3 12be f59f 893c
00000300: 350b 423e be1e f63d 2939 4fbd 9eaa 443e
00000310: b766 143d 4058 2fbc b102 e4bc 7cd7 ff3b
00000320: 6082 103e ce11 083e c65b 33bd 158a 0dbe
00000330: be11 a4bd 2a7d f13d dac3 233e dc90 dd3d
00000340: 51e9 77bd 60bd 3bbc 1178 70be 6f82 0f3e
00000350: 2f4a 073e d85e 8a3c 2fa0 92bd 90c0 9b3e
00000360: 06f8 7c3e 411b 91be 2151 2bbd ebc0 87be
00000370: eb85 dabd 2050 793e d1de 1e3c 4188 4fbe
00000380: ac59 ad3d cc95 dbbd 6032 e0bb f95b bfbd
00000390: 5468 0dbd 4c30 b2bd 4a97 bdbc 2df8 49be
000003a0: 5c8d 703d 01ae 0c3e 9fc6 8bbd 010c 06bd
000003b0: 9cab 01be 27d5 17bd e685 e63d b042 3dbd
000003c0: 1611 313d 4dda 17bc fb6b 273d 7253 c4bc
000003d0: a402 a9bc 07dd 093e 3ad0 933c 012a 0dbe
000003e0: f801 86bd 3088 a53b f157 4cbe 1984 62bd
000003f0: e595 11be 2e5e 3ebd 6048 bf3d e8a8 bfbd

bias f4 [64]
0.018833492 0.038396183 -0.013119391 0.0062472965 -0.007871241 0.01640863 0.004680453 -0.0654505
-0.036545202 0.07243772 0.039771996 -0.0051961336 0.014720439 -0.057282533 0.01604462 -0.012924485
-0.041972343 -0.0032478543 -0.0067613055 0.005325808 -0.011003793 -0.068123735 -0.040934026 0.061323207
-0.021317733 -0.03758876 0.010811748 -0.044105433 -0.001434884 0.040411793 0.007683819 -0.049803637
0.061389033 0.021063825 0.016766865 0.025843242 0.026656399 0.04302126 -0.08648512 -0.08258885
0.030496968 0.043668605 -0.023751102 0.019633198 0.033461217 -0.09131714 -0.056075335 -0.06008156
-0.07659714 0.026464848 0.049161986 -0.0025709572 0.050334867 0.041168958 -0.05084095 -0.07063498
0.118290804 0.02499 -0.015205864 -0.07366539 0.02931425 0.018360803 -0.04280455 -0.017286023
00000000: b248 9a3c 5145 1d3d b7f2 56bc 1fb6 cc3b
00000010: 61f6 00bc 646b 863c 7c5e 993b e90a 86bd
00000020: 6cb0 15bd 3a5a 943d f6e7 223d 5444 aabb
00000030: ff2d 713c 17a1 6abd 0270 833c 38c1 53bc
00000040: 31eb 2bbd f4d9 54bb f18d ddbb 1e84 ae3b
00000050: 4149 34bc 7584 8bbd 70aa 27bd 0b2e 7b3d
00000060: 87a2 aebc acf6 19bd c223 313c e6a7 34bd
00000070: b812 bcba d686 253d 8cc8 fb3b e6fe 4bbd
00000080: 1173 7b3d 0b8e ac3c aa5a 893c 35b5 d33c
00000090: 855e da3c 1037 303d 1c1f b1bd 5824 a9bd
000000a0: c7d4 f93c dadd 323d ac91 c2bc cdd5 a03c
000000b0: a10e 093d 7b04 bbbd 40af 65bd 1518 76bd
000000c0: f6de 9cbd cfcc d83c 145e 493d 817d 28bb
000000d0: ef2b 4e3d c8a0 283d 9a3e 50bd 13a9 90bd
000000e0: 7342 f23d d4b7 cc3c 0422 79bc e1dd 96bd
000000f0: 7024 f03c 6569 963c d353 2fbd 6b9b 8dbc

weight f4 [6, 64]
-0.2076028 -0.06734414 0.046770364 0.10634026 0.02541433 0.19715388 -0.36232585 0.07125455
0.08243941 -0.022613158 0.08821324 0.0802773 -0.07987073 -0.06653232 -0.011507521 0.025192544
-0.05985015 0.04721412 -0.13275972 -0.014383178 -0.09461653 -0.06856726 0.06382725 0.018268893
0.07674041 -0.068982236 0.08162018 0.11477621 0.02607984 -0.52591026 -0.048081797 0.19804844
-0.015305274 0.025159348 0.27920803 -0.0140201235 -0.0053173066 0.10612656 0.21488158 -0.056181878
-0.04314856 -0.4448128 0.11147892 -0.06563935 0.011846297 -0.051010914 -0.0669344 -0.09177964
0.095753714 0.051616874 0.042099148 -0.08238498 0.13746943 -0.05136358 0.09334734 -0.04937521
-0.21884213 0.029758051 0.17219013 0.278005 0.00709508 -0.022172857 0.09748898 -0.07512565
-0.19996028 0.017346395 0.061433733 -0.046358842 0.0032062263 0.2532752 -0.045535192 0.058926284
0.040125433 0.43042052 -0.06385764 0.029410018 -0.040395625 0.00079446356 0.0039711585 0.015560455
0.028840682 0.018383661 -0.017970849 0.11700536 0.04812094 -0.0998587 -0.055532653 0.029816002
0.18877484 -0.042019337 0.020930257 0.110627815 -0.06916767 -0.1399012 0.0877588 0.06284475
-0.30018967 -0.06605485 -0.19304727 -0.058584847 -0.0601057 -0.092686504 -0.17947912 0.100274585
0.003901081 -0.12450729 -0.03670257 0.012164418 -0.0154685145 0.021413036 0.022505738 -0.057656333
0.12214143 -0.05792244 0.062433384 0.053063292 -0.28390402 0.0696653 0.16397662 -0.07833416
-0.092351 -0.022264682 0.05146801 -0.13658077 0.047655158 -0.0077610738 0.05345944 -0.114685364
0.16228542 0.061859068 -0.05550054 -0.016250692 0.11209446 0.11333613 -0.0144848935 0.017079424
0.11970224 -0.047282804 -0.111738205 -0.062764674 0.004005049 0.04403156 0.043265022 0.03314215
-0.11478658 0.038774062 0.15099058 0.07538794 0.019258346 0.08782309 0.09899468 -0.3627496
0.058319658 -0.09794556 0.052228224 0.12466246 -3.9649352e-05 0.23338686 0.06788325 0.20417029
-0.1432756 -0.00790158 -0.019503642 0.119883545 0.11399214 -0.041948564 0.109335914 0.04889174
0.069513224 -0.017583512 -0.06393651 -0.0877469 -0.041138977 -0.110283785 0.11213332 0.048370805
-0.03627736 -0.02279888 0.2680476 0.10001453 0.06782179 -0.05012026 -0.03407215 -0.019979343
0.20409009 -0.09542577 -0.00025818465 -0.33565563 0.015349968 -0.4396224 0.120371744 -0.08458127
-0.010020315 0.0049600657 -0.026919128 -0.07726809 0.007533218 -0.34899667 0.120502 0.11583103
0.068490416 -0.12624305 -0.09579683 0.027912427 0.11965671 0.07755013 -0.010273168 -0.017080048
-0.17034239 0.0046796524 0.19791995 0.09603472 0.085696004 0.020439621 0.09878279 -0.05450572
0.17995434 -0.04303682 -0.06964837 -0.053120334 0.13537951 0.09256358 -0.05748607 -0.6366905
-0.14762048 0.019825898 -0.18261734 -0.013763058 -0.087018065 -0.012749194 -0.06537858 -0.033041663
-0.012901806 0.037259154 -0.05194724 0.027303645 0.033097826 -0.026045812 0.015352622 0.10438545
-0.06721175 -0.018325489 -0.63868344 0.007897706 0.3064457 0.31434643 0.12607975 0.059657853
-0.019905685 -0.056925375 0.13416025 -0.023010382 0.022337567 -0.008131097 0.07593471 0.06994922
00000000: d495 54be b9eb 89bd 4892 3f3d ecc8 d93d
00000010: b731 d03c b5e2 493e c682 b9be e8ed 913d
00000020: fed5 a83d 3b3f b9bc 25a9 b43d 6d68 a43d
00000030: 4493 a3bd 1942 88bd 0b8a 3cbc 9860 ce3c
00000040: 6e25 75bd 9863 413d 2af2 07be 6ca7 6bbc
00000050: 50c6 c1bd fe6c 8cbd dcb7 823d a5a8 953c
00000060: 132a 9d3d 8f46 8dbd 7b28 a73d ca0f eb3d
00000070: 63a5 d53c 0ea2 06bf 6bf1 44bd 36cd 4a3e
00000080: f9c2 7abc fa1a ce3c 5bf4 8e3e a9b4 65bc
00000090: cd3c aebb e258 d93d eb09 5c3e f81e 66bd
000000a0: 8bbc 30bd 81be e3be 0f4f e43d ec6d 86bd
000000b0: f916 423c d2f0 50bd e714 89bd f7f6 bbbd
000000c0: 861a c43d 376c 533d 2870 2c3d 75b9 a8bd
000000d0: c9c4 0c3e 9e62 52bd e42c bf3d a93d 4abd
000000e0: 2718 60be 28c7 f33c 9c52 303e ac56 8e3e
000000f0: d87d e83b daa3 b5bc 4da8 c73d 7adb 99bd
00000100: 63c2 4cbe 071a 8e3c f0a1 7b3d c5e2 3dbd
00000110: 8d1f 523b 49ad 813e 1c83 3abd b05c 713d
00000120: 915a 243d 1460 dc3e cbc7 82bd 47ed f03c
00000130: e275 25bd 8c43 503a 7e20 823b 47f1 7e3c
00000140: 4b43 ec3c 5599 963c 9a37 93bc 82a0 ef3d
00000150: 761a 453d b882 ccbd 3576 63bd b040 f43c
00000160: 314e 413e 781c 2cbd ee75 ab3c d690 e23d
00000170: c8a7 8dbd 4342 0fbe e3ba b33d c0b4 803d
00000180: 76b2 99be c447 87bd 2fae 45be aaf6 6fbd
00000190: 6531 76bd 6cd2 bdbd 60c9 37be c35c cd3d
000001a0: 47a9 7f3b aefd febd 6f55 16bd 444d 473c
000001b0: a76f 7dbc 646a af3c f45d b83c 0c29 6cbd
000001c0: 4925 fa3d 1540 6dbd 26ba 7f3d e558 593d
000001d0: de5b 91be aeac 8e3d 7de9 273e a96d a0bd
000001e0: 8522 bdbd 6c64 b6bc 1fd0 523d d4db 0bbe
000001f0: 0e32 433d 9b50 febb 49f8 5a3d 29e0 eabd
00000200: 262e 263e ef5f 7d3d 8954 63bd 2c20 85bc
00000210: c891 e53d c61c e83d 0c52 6dbc 26ea 8b3c
00000220: 7326 f53d 9dab 41bd 00d7 e4bd c48a 80bd
00000230: c93c 833b 705a 343d aa36 313d 10c0 073d
00000240: 3a15 ebbd 8dd1 1e3d 469d 1a3e fe64 9a3d
00000250: aec3 9d3c 98dc b33d b9bd ca3d 51ba b9be
00000260: 98e0 6e3d af97 c8bd 43ed 553d 084f ff3d
00000270: 2b4d 26b8 f7fc 6e3e 6006 8b3d 0412 513e
00000280: d7b6 12be a175 01bc 1ac6 9fbc 8185 f53d
00000290: b674 e93d 42d2 2bbd 82eb df3d b542 483d
000002a0: f35c 8e3d 4c0b 90bc 25f1 82bd a6b4 b3bd
000002b0: 5881 28bd 77dc e1bd 27a6 e53d 7720 463d
000002c0: 9297 14bd b7c4 babc 893d 893e 6bd4 cc3d
000002d0: 27e6 8a3d e74a 4dbd 3d8f 0bbd b8ab a3bc
000002e0: fefc 503e 966e c3bd f55c 87b9 0edb abbe
000002f0: 6f7e 7b3c 3016 e1be 7685 f63d f238 adbd
00000300: 3f2c 24bc 0c88 a23b 8185 dcbc bb3e 9ebd
00000310: 36d9 f63b b1af b2be c1c9 f63d d238 ed3d
00000320: b444 8c3d dc45 01be 2131 c4bd 9aa8 e43c
00000330: 940e f53d 9ad2 9e3d ca50 28bc 75eb 8bbc
00000340: 3c6e 2ebe c557 993b 87ab 4a3e daad c43d
00000350: 6381 af3d fe70 a73c a24e ca3d 6441 5fbd
00000360: f345 383e 6047 30bd cea3 8ebd b594 59bd
00000370: eda0 0a3e f991 bd3d 8376 6bbd 26fe 22bf
00000380: d329 17be ec69 a23c 0a00 3bbe 737e 61bc
00000390: 8736 b2bd ffe1 50bc 34e5 85bd b256 07bd
000003a0: 1962 53bc 0e9d 183d a1c6 54bd e5ab df3c
000003b0: 9691 073d 075e d5bc 9089 7b3c 0ac8 d53d
000003c0: 50a6 89bd 561f 96bc c280 23bf 6165 013c
000003d0: 73e6 9c3e 04f2 a03e 0d1b 013e cb5b 743d
000003e0: 3f11 a3bc 952a 69bd 4e61 093e 4580 bcbc
000003f0: 46fd b63c 4b38 05bc a883 9b3d 8941 8f3d

bias f4 [6]
0.11583139 -0.052600823 0.10580557 0.13976517 0.02266169 -0.09949776
00000000: 0239 ed3d f673 57bd 97b0 d83d 9a1e 0f3e
00000010: 02a5 b93c 7bc5 cbbd
