part_4/Reinforcement_Learning/models_lab1/model_winner_ver4.pt (torch, 9947 bytes, 4 tensors)

weight f8 [42, 14]
00000000: 18ba 1c9e 03d1 ddbf 98dd de00 bc11 ca3f
00000010: 2b61 721a 03c0 e3bf 380c 2b93 a866 bf3f
00000020: 1eb6 c292 b51d e0bf 138d dda5 a52b ee3f
00000030: 7dd1 6812 f9e0 c33f 33fb 7913 b0da aabf
00000040: 01a7 18be ef32 a33f 0fd1 6aaf bc07 b5bf
00000050: b1ac e3de 9241 aabf f646 a608 c4c4 b73f
00000060: 6288 adcf 6d30 c73f dcaf 0d38 e139 bbbf
00000070: 6794 05ab 8952 b0bf 722b 577a 2cc1 cdbf
00000080: 34e9 b255 73d2 d53f fd48 aee1 dd21 d73f
00000090: 5067 806f e9eb c13f b5c6 c3e2 2595 d8bf
000000a0: e410 19bc ee5b c93f 74fa 06b4 6820 a93f
000000b0: e329 8c11 c6ab acbf 116d 0f5f dca4 bfbf
000000c0: a617 e236 62d0 c93f 307f 935b b167 cebf
000000d0: ac28 c4a3 5d61 c23f aa4d 5af7 cfa0 bdbf
000000e0: 1747 afaf a672 e63f 3142 5a1e 1705 e73f
000000f0: df6d 01df 25c2 eebf bd36 f280 de54 c7bf
00000100: b9d4 e467 fdc4 dbbf 65a7 a120 ce16 a83f
00000110: eb38 763f 6e03 ac3f aa93 caa5 b86e a43f
00000120: feda 1861 501b b5bf 9a6f 4b67 52d8 c03f
00000130: 527c f9be 68fc bf3f 406a 2f11 7685 cc3f
00000140: e5bd d24a 7854 b33f 8f77 6019 efd9 a9bf
00000150: 87c8 b739 2f0c 523f 3b18 1c25 3420 e13f
00000160: 7ee1 d097 a608 e9bf 954e a304 b471 e0bf
00000170: 2e6a 4141 e020 d43f 969a 06f6 2ff6 e33f
00000180: 252f 27d8 0f5d d33f 388d c4a8 5836 c2bf
00000190: 63f7 a81f 889e 963f de46 ef01 2486 acbf
000001a0: cbe9 3835 e441 a4bf 99f6 1a36 de42 c2bf
000001b0: f60d 06f4 9ada 93bf e405 752b ef74 c0bf
000001c0: b243 fdf6 bc8c c13f 23de b2be 7a14 c5bf
000001d0: 1408 0108 4019 e33f 3075 58ae 2db7 7d3f
000001e0: 0785 b193 b068 ccbf 4ebb f287 1ce8 d53f
000001f0: 3a72 f7aa 11e4 bf3f bc24 e0ee 4523 8c3f
00000200: 6667 62ad ae99 cbbf 22f8 f9f0 59b9 ccbf
00000210: edc0 d564 aa2e b13f 430f d9ca 5eb3 bcbf
00000220: 8fb9 b7d8 7b78 b3bf 2722 467c 7b6d a2bf
00000230: 0f40 62f5 ef56 d7bf fb9b 4b4c b72e e23f
00000240: 66b7 ed8f 883a b4bf 8de0 d558 dc3b c9bf
00000250: 6d1e a217 34c7 d93f 1da4 f6de 0006 c2bf
00000260: 263f eb77 7e78 c13f 08b5 8c97 de5f a4bf
00000270: 5a96 887d 0354 8ebf 170e d457 4fa6 cb3f
00000280: 3a43 d7bf 4d04 d13f 3343 9cdd 6e5a 993f
00000290: 5f4a 1375 fb78 d23f 70c7 8de1 cabd babf
000002a0: 61e1 dbb9 2d61 c53f 00d4 7709 50ae e0bf
000002b0: 6af7 8d50 f7a7 f33f 728c e9ec 5aa9 bfbf
000002c0: cd69 6665 8f33 d5bf 75cf 2315 4d26 b2bf
000002d0: 6ef6 ca89 1d9f c53f e889 cfcf a78f 813f
000002e0: 9279 082c 6528 993f 5cb8 4900 ad36 753f
000002f0: b7c1 e090 ee51 a7bf 3628 ac85 15e3 c73f
00000300: 59af 5b87 709d a73f aee1 a354 3489 b5bf
00000310: 0ff6 e176 5f57 e0bf aa41 536b 75fb c6bf
00000320: 6494 0e7f 29c9 e3bf a991 bbbe 5ea0 ea3f
00000330: c581 3da1 eaae d1bf b021 1d34 4f05 c43f
00000340: 1ec9 2432 1e21 bc3f cac2 4445 8ddf a03f
00000350: 5ebe 2b75 795f bb3f 578b fba1 10a8 8e3f
00000360: 83b9 ad3b 4999 973f 816e 3cb4 ad10 c1bf
00000370: 5b22 0ad7 45b0 bc3f 1a66 bc38 169c abbf
00000380: 1560 0258 aff2 af3f 8a62 d657 f737 ce3f
00000390: 36bb cb13 6a0e cebf 678f 5aca 89e6 b8bf
000003a0: 9525 b4cb 9531 c3bf 1086 22c7 208e d33f
000003b0: 2dc4 1e93 cf51 c4bf 6dfb 7263 02a7 c7bf
000003c0: 3d04 2c10 d8ed c6bf 068e 92c8 99dd c13f
000003d0: f402 73e0 a6f2 c53f cb21 7797 9024 bcbf
000003e0: 8abd 496b 1df3 a3bf 2f89 e005 47c4 d13f
000003f0: 7fd4 56f9 4044 ddbf c2c3 6d3e 4cfe e0bf
00000400: 992e 29ff 7545 e4bf 5501 a091 8eba e73f
00000410: 491e 90c4 20f8 dc3f 6b39 0e33 ad08 d63f
00000420: 3ccf 4be1 c269 ce3f 7091 8c5f 450e b1bf
00000430: 9cf1 379f fb81 a63f 1df6 bc97 1262 c1bf
00000440: 0cda af4c 15b1 a7bf b7d3 4bf6 210f bd3f
00000450: 5047 0e11 fb27 cbbf b362 4aed aa33 b63f
00000460: 8f08 a2c8 abc4 c1bf 4b7d 1f70 7197 993f
00000470: e234 1d45 ff50 b5bf a76a 81d8 189f bebf
00000480: 3de2 6bf3 5c74 ce3f d5a2 42fc 0126 d23f
00000490: ae78 7053 e34a a93f 5f3b 24b7 cff5 c6bf
000004a0: 8274 ea7e 0ec3 d1bf 3fbc 41e0 c9b7 c83f
000004b0: 2542 8ce1 2883 cfbf 5628 8e5d c81f b1bf
000004c0: cd05 88e7 538b b9bf 4d1a accf 103c b2bf
000004d0: 20b2 baff f844 f8bf 0745 672e d011 ebbf
000004e0: 313f 5b34 6328 ef3f a25d 771d 50a5 bcbf
000004f0: cd45 0a84 2ee5 ea3f 2879 5e96 8765 c63f
00000500: bb7b 8a61 080b a63f 23c2 c8e1 c94c ab3f
00000510: 328b 3ed6 e9c5 913f 7c57 74c5 07bd c63f
00000520: 6151 8f09 251b b23f 81e0 1774 fdf2 be3f
00000530: db48 9922 cd99 c53f 4458 c732 8cf9 a5bf
00000540: 616a a377 61a0 d3bf 3a56 0505 d5f7 d0bf
00000550: db23 2684 5e69 bcbf a643 d832 053c cb3f
00000560: 5f46 2c1c 3e7c c23f c8f1 ec78 30f3 a5bf
00000570: fbda 10f5 437d c23f 4790 9642 41ad d2bf
00000580: d881 878d 235d d3bf f42b 5436 005a c8bf
00000590: 30b2 92d3 a531 cbbf 61ae f757 6f84 ad3f
000005a0: 36fc 0949 5fec b3bf 8aa4 aafa 36ee cebf
000005b0: 039e 58fb 4b13 c73f e5ea 2d26 575f f3bf
000005c0: 186b 871b d6c4 de3f 072e 15c2 51ea d93f
000005d0: 8e12 14ca 9dea db3f 519e 4a00 53dc a83f
000005e0: 9cf6 0f92 cb3b ab3f 2aa9 a6fd df48 a93f
000005f0: a60f 1800 be1f 9a3f 0eb0 f8ea 569e c53f
00000600: 1c2a ab9e 26cc 3dbf e58f 6c04 9e21 b4bf
00000610: f021 f859 34e9 aa3f c4c0 a8ca 4606 c63f
00000620: e3f9 33c4 d702 d0bf 1e24 91e3 134d 993f
00000630: 8981 7392 6f75 e73f 7f9f 265c 9d23 e7bf
00000640: 128a 11cd 48b9 f3bf 7126 41c6 faec f13f
00000650: f5f7 7677 8319 983f 12be efdf 2b02 ad3f
00000660: ec8d 7711 bdb1 b13f 6308 12cd 919f bb3f
00000670: a137 3ac8 41ce b2bf a851 164b 431f 963f
00000680: 7bbd 7201 cd74 c03f 3250 115e dd31 a93f
00000690: 0f9f 9cf2 1ad5 e13f 61ac 700c 1be8 e63f
000006a0: cbb9 469b 72bc f03f 0eac 0a16 3e74 efbf
000006b0: dcd5 75a0 feaf b23f c473 5a1e 4efa a1bf
000006c0: 9315 ed7f 17aa cd3f a4c5 8b7e 9ae0 c0bf
000006d0: ec2e 9d5d 5d6c 973f 0618 6778 8b56 a1bf
000006e0: 0b0c e9b5 15e9 bd3f d1eb 14ef c201 ae3f
000006f0: 6902 ce12 3978 9e3f a222 a796 73c9 be3f
00000700: 34f0 7ef1 2ecd d93f 82d9 d7f7 f56b de3f
00000710: ffcf da55 0da5 be3f e34d c77c 096a e03f
00000720: e4d3 625c 4d33 a43f 93fe 66e9 b11f f0bf
00000730: 9ccb 44eb 38e7 ab3f b5cd 42aa d5ea c23f
00000740: e056 0108 c07e acbf e877 e315 9437 c6bf
00000750: cdf3 2aad 859a 9ebf 62c7 113a 9325 97bf
00000760: 29bf b90f a4ab cb3f 3784 bb9a 42f9 cd3f
00000770: dca4 b252 fe8b d03f d8cc 3ea6 7106 ecbf
00000780: bdd7 09fc 3e0c e3bf 6025 4a68 5f80 c23f
00000790: b9bf d320 74f7 c93f a77e f374 5218 c33f
000007a0: 0dd6 e230 6a3c ae3f f8b3 5545 31ed 953f
000007b0: 52c8 be1e 5814 cb3f 38e7 dd42 b692 9abf
000007c0: 3bdf cbca 0fe5 8b3f 86ee 346a 4b29 c53f
000007d0: 5300 6bc4 8e1f b73f 4565 6016 32f6 c03f
000007e0: 4b53 e5fc f10b cd3f 6702 014b 5d2b df3f
000007f0: f784 44d8 2819 de3f 0fbe fd29 3c59 e2bf
-0.46588221016546205 0.2036662105799507 -0.6171889797724693 0.12266019432995356 -0.5036266199510384 0.9428280105170493 0.15530312918566472 -0.0524497054839145
0.0374979896117349 -0.08214930803916708 -0.05128153773133571 0.09284615718049935 0.18116543427010173 -0.10635192507260122 -0.063759426358574 -0.23245769475610306
0.34096988076238977 0.36144206084385627 0.14001195854580795 -0.3841032709598083 0.19811805901020485 0.04907538602445963 -0.05599802936747602 -0.12360932656104164
0.20167186431734513 -0.2375394532345978 0.14359636780165397 -0.11573505200276793 0.7014954978314759 0.7193713753532106 -0.9611996989801205 -0.18227750107000942
-0.43389830728422 0.04704898975690134 0.054713673826982966 0.039907236326406206 -0.08244802828344786 0.13160162013707294 0.12494520819153479 0.22282291258928133
0.0755076582597592 -0.05049082932258308 0.0011015378175867356 0.5351811146545126 -0.7823060002474873 -0.5138797846397717 0.3145065915356636 0.6238021664801916
0.3025550471181638 -0.14228351822485208 0.022089125568747103 -0.05571091197601928 -0.03956521176992885 -0.1426656498132857 -0.019388600486776007 -0.1285685503190016
0.13710748729729755 -0.16468748389682827 0.5968322902992917 0.007254770700027266 -0.2219448777350765 0.34229195858181505 0.12457380699147161 0.013739153244403439
-0.2156275126079052 -0.22440647379329542 0.06711831056395896 -0.11211197330800098 -0.07605718651732317 -0.035991534156952824 -0.3646812340093683 0.5682026376861126
-0.0790181495082983 -0.19713930452030973 0.40278341587006744 -0.14080820929419327 0.1364896855870878 -0.03979392623873862 -0.014808680790405027 0.21601287640088238
0.26588767752132336 0.024759037281060613 0.2886341708482742 -0.10445850378689925 0.16702815604345303 -0.521278398983327 1.2285073420202601 -0.12367790493003541
-0.3312719812617189 -0.07089692846403557 0.16891831615605518 0.008574782399539196 0.024568157970969624 0.005179096017498077 -0.04554696577577338 0.18661755587555867
0.04612304355927561 -0.0841248232499143 -0.5106656381537408 -0.17954890957345288 -0.6183059197980012 0.8320764279601934 -0.2763010573017051 0.1564120296918765
0.10988033985339427 0.032955565171851456 0.10692557440392522 0.01496899599391603 0.023045677440160183 -0.13332148838604854 0.11206470966329489 -0.05392522280289942
0.06239841412860884 0.23608295239388993 -0.2348148914965919 -0.09726773443486324 -0.14995071836919452 0.30554980704082 -0.15874666865923484 -0.18478422027507282
-0.17913342275281421 0.13957521718576532 0.17146764716564855 -0.10993293474087477 -0.038964194628415674 0.27760482381758583 -0.4572908816292695 -0.5310422152816658
-0.6334791167841615 0.7415230602492026 0.4526445312080552 0.34427957521338354 0.2376025772169842 -0.0666240080141216 0.04396044081292702 -0.13580543908203505
-0.046272912608333966 0.11351215613451769 -0.2121576150207667 0.08672588628031512 -0.13881442352800774 0.02499177214474217 -0.08326716840129536 -0.11961512838153486
0.23792611966907087 0.2835698092917885 0.04939947503611229 -0.17937656824548306 -0.27753031152844454 0.19310878229177494 -0.24619017613487518 -0.06689121517243399
-0.09978222277279443 -0.07122902937053617 -1.5168390263962763 -0.8459244638744686 0.973680116900118 -0.11189747542754572 0.8404762820156805 0.17497343866575332
0.04305292311368399 0.053320225535916664 0.017356542302546525 0.17764374867754984 0.07072669490236684 0.12089523395832381 0.16875614346878973 -0.04291952247483313
-0.3066638630240615 -0.26512647142712675 -0.11098280645650453 0.2127691744103945 0.14441658378250374 -0.04287101246015684 0.14444779840570007 -0.29182464125392865
-0.3025597459909739 -0.19024660733006693 -0.21245262938227105 0.05765102337667539 -0.07782550366572213 -0.2416447376211049 0.18027639172326823 -1.210776471269747
0.4807639378392863 0.40492671922103834 0.43619484647960227 0.04855594042356571 0.053190576152684715 0.049384116853007434 0.025511711841332073 0.1688946387597529
-0.00045467322221939984 -0.07863795860299623 0.05256045912034668 0.1720665444895585 -0.2501735130353195 0.024708090557656097 0.7330854282736691 -0.7230974960157112
-1.2327354441155234 1.1203563446346403 0.02353482643751899 0.05665719135856419 0.06911832500878007 0.10790358788111258 -0.07345973146786246 0.021603633363683677
0.12856447764123033 0.04920856259619234 0.5572638262283095 0.7158332102748198 1.0460077348212617 -0.9829397612096515 0.0729979650257841 -0.0351128017475513
0.23175328966514694 -0.13185435465815687 0.022874316061730335 -0.03386340946921966 0.11683784190340434 0.05860718887785022 0.029755489132642064 0.12026140621231687
0.403148399196428 0.47533940509256223 0.11970599504530809 0.5129439770775516 0.039453904655068844 -1.0077380292204097 0.05449846145565759 0.1477915841438581
-0.05565452668876758 -0.17357111996437813 -0.029886330313036603 -0.022604275149610394 0.21617556350565195 0.23416931681916406 0.25854452205619594 -0.8757866141299031
-0.5952448771120015 0.14454262344615199 0.20286418536079312 0.14917975149636684 0.059054678409136675 0.021412629944666833 0.21155835629685044 -0.025950286704279096
0.013620494247774331 0.16532271085622002 0.09032528205261885 0.1325132951031184 0.22692704056194155 0.48702175449947166 0.4702856170643623 -0.5733929462566624

bias f8 [42]
00000000: 19df 523f 9d4c c1bf 5301 f5bf 3f91 c2bf
00000010: 8560 76f3 3ffb cc3f 4615 9aa8 d1d9 bcbf
00000020: ea88 3462 48f5 d2bf bd70 7dc3 fa7c b83f
00000030: 6c3c 23ff 8650 c13f b688 0072 4edc c1bf
00000040: c02e b3b9 cfe2 d23f d0e9 e99b 122c c6bf
00000050: 9be7 61c6 6af8 c93f ac89 dca7 c03f c63f
00000060: c081 9654 ce4d 76bf 37b3 bcd9 d4b1 c8bf
00000070: 3ee2 b65d 3006 aa3f 1f16 1053 5758 a8bf
00000080: 72a3 c203 a30f cebf 778f 0427 9704 c73f
00000090: 81df 5475 2b4c d03f 6eb1 edb7 c7cf c73f
000000a0: 0779 e107 0d97 be3f a2c7 d882 55f7 a73f
000000b0: 0837 3494 6b95 93bf a2fa 0d57 8c3f c03f
000000c0: edc5 1b7f 25f3 d53f 5a11 ca63 c52c cb3f
000000d0: 2f2c 62c8 ff3f adbf 411a 49ff d1a4 c03f
000000e0: 3467 d268 01e3 c23f 32ed ac54 aee0 c4bf
000000f0: 26e4 6a67 1ea0 c4bf 51e1 ae94 3db0 a33f
00000100: bc80 a72c 3b8b b33f ac03 d13a f04a cbbf
00000110: 5841 3321 27dc 913f 3d2f 6c15 440b c1bf
00000120: d817 70cb 6179 bbbf d243 84f4 6944 c23f
00000130: b847 8b7b 3330 913f 7ff6 d6f4 0fb1 c2bf
00000140: 601c ec42 8b1a d53f 9b2d cf62 b689 cdbf
-0.1351505812833629 -0.1450576484003344 0.22641753566563608 -0.11269865385300645 -0.2962208708796782 0.09565703652100672 0.13526999910252202 -0.1395357185984431
0.2950934709049129 -0.17321999180769732 0.2028935879387149 0.17382057377205962 -0.005445295313080967 -0.19292698508925252 0.050828467788452944 -0.047548989190584694
-0.23485219653710093 0.1798275890843077 0.254649033147409 0.18602844696887239 0.11949235384370037 0.04680888387919359 -0.01912468044343199 0.12693933726037182
0.34296548283518186 0.2123038041355681 -0.057128899775385704 0.13002991643061715 0.1475526582551595 -0.16310671934648152 -0.16113643693623309 0.03845398368815956
0.07634324875062054 -0.21322443839929173 0.017441378976230965 -0.133156309566738 -0.10732089249367449 0.14271282614984543 0.01678543511918182 -0.14602851347983756
0.3297451165712513 -0.23076515030548425

weight f8 [6, 42]
00000000: 5c79 6d80 ea2a bebf d7a0 ab6f 759a c0bf
00000010: 8c0b 0b8b 9812 d33f 6222 0ab7 32b5 90bf
00000020: c384 a23a 3e24 b53f a492 19bf 1322 b8bf
00000030: 6b19 fa3c 9979 a4bf 84fb 1061 91f2 c9bf
00000040: b3a7 2d52 e4e5 ba3f 3b7b 6485 0525 c1bf
00000050: 6ef7 7f55 a506 b6bf 8f31 5000 40f0 e5bf
00000060: 743e d553 8cbd b0bf c07b 26c7 0d62 b43f
00000070: 3fe9 25cf e06d b4bf 4d94 e2a6 98df b83f
00000080: ad42 9a4e 600e b33f 4043 a351 c6eb ce3f
00000090: 46a1 0295 fa60 b63f 403b ec0f 98f9 b33f
000000a0: cd19 974c 4530 ad3f 3233 7f41 230f c33f
000000b0: c916 f3d7 1916 dd3f c3da 446b f083 bbbf
000000c0: ee1d 0906 d805 b83f c675 274f c68a b23f
000000d0: 1c36 065a c183 ca3f 5af6 b0ab 93a6 dbbf
000000e0: 1e74 119b b824 9a3f 9105 5d98 e251 cdbf
000000f0: 8b9e 8c32 63e2 af3f 26c1 5e2b cde6 b93f
00000100: b518 d183 c04a 773f 8f22 8935 9052 a0bf
00000110: 8c37 651a d4b0 b5bf db6a 56bf 0e81 b1bf
00000120: 616a 33a7 f10b 74bf eb1f 04dd 1ca9 d23f
00000130: c3c5 6fcc a156 b53f 5325 3fcb 2a83 bf3f
00000140: 4e1b ea66 09c4 b83f 4790 ad7b 3426 933f
00000150: 9255 20e2 3848 b73f beda 861d ff41 c4bf
00000160: 6aea 8db4 8cc7 d23f 3c99 ecb0 bf2f ca3f
00000170: 0663 75f8 b196 a7bf b33f 5a08 a648 c53f
00000180: 4f74 7318 527c c3bf 29f7 7e9a dae1 a6bf
00000190: 5940 481d 446d be3f 30de 4158 f4fa c7bf
000001a0: 89ec 70f5 dcaf 7e3f 0680 273c 1b8f d1bf
000001b0: ce4d a667 0522 aebf 2471 048d a640 ddbf
000001c0: 63f7 4b89 9406 9d3f 6fca 7454 2dd1 c43f
000001d0: dbac df5a 50be ba3f 3880 8b02 6421 d6bf
000001e0: 3bf5 9fea 2828 c33f 06cd 4b19 7ee7 b3bf
000001f0: 7853 7226 38c3 a93f 9fa4 bd30 1cd3 a83f
00000200: 4d57 08fc 426f d3bf 3ad3 375d d409 b23f
00000210: d869 803c 9f7b c4bf e4cf 7202 73a3 8dbf
00000220: c139 08b9 2845 afbf 306c fc5b b68f d63f
00000230: 704e ec48 3056 883f dcb7 c145 d51c dd3f
00000240: b3e3 fd3a 7738 d2bf 1953 dfef 65c3 c43f
00000250: c643 83a2 ab01 b4bf d498 c5a7 258d 9a3f
00000260: e8cf 6976 b979 a23f 8a99 18fd e57f 963f
00000270: 2ddb 5199 59de 833f e669 35b5 64e4 973f
00000280: 974e b4d3 05e1 ae3f 2cf2 5a51 f896 83bf
00000290: ca50 9dac 4e13 c63f faf3 d5da f182 c13f
000002a0: ff8c 3539 0c18 c3bf 45a0 9aae d69a b53f
000002b0: b2f0 5f7a 1259 d4bf 2952 9a80 9ac8 cebf
000002c0: f527 7091 f68a c83f 272d 95d8 0373 96bf
000002d0: 32c2 e896 d570 d03f f96e 4024 480f c1bf
000002e0: 494a 08ee ba12 c3bf 1726 7abd c90e c5bf
000002f0: 0734 c1e1 3844 c1bf b6f5 8bac ce79 d83f
00000300: 3c85 1d2a f1f1 953f b700 0648 fd68 b63f
00000310: cc9d e131 b3ba cd3f 80fc a8ac 7305 d03f
00000320: b335 5aac 0ef5 973f e37e ba99 8cf3 c3bf
00000330: 2836 461a 4cce c43f 0309 f6e3 fba6 b4bf
00000340: 29a3 eeaf 74e4 c83f 1e34 f7b1 1fb5 b63f
00000350: 6a73 0b0c b64f c23f fff3 6d82 950c b63f
00000360: f9ba 3839 98d3 d43f 5ff2 f57f ae71 b3bf
00000370: 73e6 e16a 24bd acbf d235 740e 28e3 ac3f
00000380: 90fd c0b2 4028 c63f 807d d111 7dd3 c83f
00000390: d563 21c3 a18f d8bf 7c1a aec9 6df4 b7bf
000003a0: 2a12 78be 3de4 b4bf 737a 7e46 051c b4bf
000003b0: 9f49 4035 5715 87bf 72c4 aa03 33fc b03f
000003c0: b863 375d fb03 cbbf 7c1d 6963 429f c0bf
000003d0: 7f47 79a5 e92d bdbf dd78 9c7b 7a07 83bf
000003e0: 3310 66f0 2e1f b7bf cf8a 187c e6e2 bfbf
000003f0: 3f1d c1f0 7b1d 9e3f df80 af6b 7146 bd3f
00000400: c513 3254 4d2e b6bf 1e11 163d 68ed bcbf
00000410: 0ee2 91ed 728f 973f e12f 24d0 5df6 763f
00000420: 3a1d 9160 38fd b8bf cfb5 2c4a 99c7 d63f
00000430: 590a 18be 6438 94bf 9d36 a21b e6e2 cd3f
00000440: 79d7 e3bb e31b c33f 1b0a cde7 6f64 af3f
00000450: b1d5 8c24 72ca 783f f118 73de 9557 bb3f
00000460: f94e 29a5 332c d3bf 4417 da24 d074 ddbf
00000470: d5f3 6db6 16f9 bd3f 9b4c 49a7 ea10 c33f
00000480: 1406 6152 90db d2bf 6cb0 9651 c624 b33f
00000490: 369c ac1e b5db b6bf 10f0 231a c017 a0bf
000004a0: 4565 3e30 184c b43f 8955 ed21 e5dd b5bf
000004b0: 9b6e 30ae bce5 d43f 90a6 d54d 706e c6bf
000004c0: e442 792f 6c9d a43f 986d c309 4e27 c53f
000004d0: ef08 01fd d56b b03f c7ca f03d 0467 ae3f
000004e0: d86c f7de ae1c c0bf 180c 609b b878 c5bf
000004f0: 1898 a088 202a cabf ef31 7f5c ecc3 8ebf
00000500: e7bf 1ec5 7c51 b33f cad2 efbb 8f49 a1bf
00000510: 0b0a 7f46 7e30 b43f c7ca a464 3580 c33f
00000520: b850 0004 6cfb 993f cdc6 e0db fafa c3bf
00000530: 12aa fc2d 42c3 cf3f f0b4 e5dc 5d05 c73f
00000540: 27d8 cd68 e286 bebf 2693 f666 95cc 9abf
00000550: 5a45 ef10 46a2 c9bf 723f 4bc5 35aa c23f
00000560: cb17 fcdd 0da0 b4bf a5e8 af71 c283 c33f
00000570: f64c ad7d 98c8 c2bf 127f 28e3 ccc9 bfbf
00000580: cac7 f4ba c729 bbbf 4593 6c94 ad28 b93f
00000590: 955c 6ec0 9ca5 a23f 2431 889e e043 dd3f
000005a0: 6b2d 18be aed0 86bf 4cd8 d836 952e c13f
000005b0: 36c7 0c6c 77ad dfbf 1ebe f1e6 cab6 b2bf
000005c0: 0dcd 52b9 0a1d 99bf 8783 6198 ccd3 c63f
000005d0: 8ddf 0869 2f09 b23f 9413 bf89 cf14 b73f
000005e0: 931b 21c9 a9ef c93f 3dce 64d8 cb44 81bf
000005f0: be58 8656 8745 803f 127c df6a 7ef8 b33f
00000600: b00e 67eb 19bd e1bf e375 77dd 03b5 c43f
00000610: 5f0e 9b93 6705 b8bf 0ccc 7e9b 2b1e b7bf
00000620: b3aa 0ac4 80a0 b1bf 5bdf c9fc 5659 acbf
00000630: 7626 a2fa 0bb6 893f edbf 338e ba3d b93f
00000640: b953 5b90 d557 babf c2dd 2d71 1794 bfbf
00000650: 0581 7d17 c494 b23f 077d c64e 23db a63f
00000660: 3686 edb5 9e99 cb3f 3c71 5157 bfb4 bcbf
00000670: d6f2 61ae 57a6 a53f 7cf0 e6db 95a3 b73f
00000680: c753 f1f3 99bb b2bf da9a 6f10 879b 94bf
00000690: f57a e421 3987 d33f b741 5037 3b25 c5bf
000006a0: 73cb 7f81 7707 92bf 2b57 41ad 21dc cb3f
000006b0: 386c dd4e 2c8f c23f 4a7a a884 e24d b2bf
000006c0: 7d45 a18e e4ab b9bf fc79 6c51 6e0f b43f
000006d0: 0363 a131 3e69 ad3f 5aaa dcf1 2b81 ba3f
000006e0: 5ad1 b8f3 4011 c03f 7663 4168 7f30 b53f
000006f0: bdce d7e8 73d2 aa3f 71b3 f6ef c457 98bf
00000700: e3ac a920 f080 e13f 45b9 c62a 2825 babf
00000710: 044c c986 3e88 d1bf 03c7 5153 d232 b73f
00000720: 4ad7 b616 3da9 b4bf 666b 6672 5e93 92bf
00000730: 4c85 0df3 83e4 bf3f b110 de70 ef34 b23f
00000740: 70c7 b429 3c87 d6bf a331 97eb 34fc b5bf
00000750: f567 327f 73b7 c43f fb5c c579 d9a2 bbbf
00000760: 417c 4f70 bd00 cabf 7355 591f 2ade bbbf
00000770: 13d1 533f 270e c03f ef04 95ac 8186 cbbf
00000780: 77cd 383b c674 d03f 9852 1c9d 6d48 a43f
00000790: 32d3 2e86 edff c63f 31a3 46e0 6c5f c2bf
000007a0: 6901 0a0f 305e bc3f 84a2 7578 9fc0 a13f
000007b0: c0c9 22a9 7f44 a6bf a1c8 4d47 a343 92bf
000007c0: 4f76 782d ecaf 943f b380 df7f d605 b1bf
000007d0: 2947 571a da90 b9bf 1b74 15aa 34f9 a93f
-0.1178423465293909 -0.12971370651872036 0.29801000193054317 -0.01631621591744404 0.08258427554621321 -0.09426997581028701 -0.039990223592257866 -0.2027150844532707
0.10507037168795712 -0.1339423085527985 -0.08603890740775252 -0.6855773931616101 -0.06539227530196873 0.07962118255680561 -0.07980160767866538 0.09716180872290288
0.0744381133938627 0.24157027231424344 0.0874172796053517 0.07802725208987926 0.05700890121402189 0.14889946649636837 0.45447393502068373 -0.1074819814574353
0.09383916995385963 0.07243003303980008 0.20714585204807257 -0.4320420433685733 0.025530704941378095 -0.2290614360772847 0.06227407447869123 0.10117800053445034
0.005686523448338023 -0.03187990811836016 -0.08472943920534542 -0.06837551280333846 -0.004894203145534876 0.29157182296375933 0.08335314980629165 0.1230952020843195
0.0967412830596974 0.018700428055481912 0.09094577332174072 -0.15826405469643662 0.2934295428491739 0.20458217753293606 -0.046071588115131276 0.16627955825651738
-0.15223146623512426 -0.04469187866150854 0.11885476794145812 -0.18734602269590672 0.007491934890874971 -0.2743595206684407 -0.058853310492078856 -0.4570709588167736
0.028345414047172734 0.16263357757414407 0.10446645945164638 -0.34578800438430646 0.14966308075228504 -0.07775104634838578 0.05031753033941916 0.04848564238529573
-0.30366587269360396 0.07046248699027738 -0.16002264455967352 -0.014471910965177366 -0.061074516856126866 0.35252150519380887 0.011883141732631247 0.454884832498349
-0.28469639550126685 0.16221307957189238 -0.07815048902126795 0.025929058423025023 0.03608493395304874 0.021972268650779316 0.009701442710349529 0.02333218914041337
0.06031053742677022 -0.00956529615665954 0.17246421268885676 0.13680861649837067 -0.14917137902657626 0.0843938995627705 -0.3179365344110564 -0.24049693374094375
0.19174081899137688 -0.021923122495803995 0.2568868612025056 -0.13327886362173283 -0.14900910017657257 -0.16451379539312036 -0.13489447615793912 0.3824345288301986
0.021430748172297273 0.08753951080689402 0.2322601312218765 0.2503327547200982 0.02339575697856384 -0.15587003237032268 0.1625456932346634 -0.08067297282653745
0.19447191801489197 0.08870123000015481 0.14305759037133764 0.08612951692880698 0.32541471088454405 -0.07595339416543244 -0.056130540892763835 0.05642056633415006
0.17310341575828803 0.19395411844287125 -0.3837665944643594 -0.09357343839483606 -0.08160768413660749 -0.07855256053015029 -0.011271172821612661 0.06634825553443749
-0.21105901767330493 -0.12986020902665618 -0.11398182191740423 -0.00929160775882248 -0.09031957024677766 -0.12455597428974417 0.029409348077277683 0.1143561256317329
-0.08664401345784174 -0.1129975461136081 0.02300815176974607 0.005606047112689056 -0.09761383397664228 0.3559325432168778 -0.019746374227916117 0.23348690366076577
0.14928862261120537 0.061313149496090534 0.006052442426882563 0.10680519753359242 -0.2995728600410384 -0.4602547035104758 0.11708204225392589 0.1489537541225204
-0.29465110821556206 0.07477988712224864 -0.08928997038729922 -0.03143120116325815 0.07928610971284396 -0.08541709974573143 0.32652203570044386 -0.17524532127872705
0.0402635391188875 0.1652619884178932 0.06414544512611874 0.0593797040568425 -0.12587533843075138 -0.1677466162364858 -0.2044106166005697 -0.015022131512432117
0.07546214878561806 -0.033764354411606926 0.07886494847392826 0.15235011495823 0.025373161071983147 -0.1560967992423258 0.24814631696183703 0.17985127721787064
-0.11924567278569552 -0.026171049508451415 -0.2002647001923304 0.1458193982457448 -0.08056723279523152 0.1524584822762495 -0.14674669395990464 -0.12417297883848402
-0.10610626520499902 0.09827694772373004 0.03641977166187719 0.457267908874899 -0.011140217949125305 0.13423409631804117 -0.49496255447148785 -0.07310169351853132
-0.024524848519559096 0.17833859863733556 0.0704526549751547 0.09016129601429973 0.2026264411999504 -0.008431999722780076 0.007945115402247512 0.07801046475604803
-0.5543336484629062 0.16177414239693552 -0.09383246759085172 -0.09030411287567136 -0.0688553312890388 -0.05536910854146867 0.012554257951950403 0.09859815570575821
-0.1029027440484488 -0.12335344803965767 0.07258248876087599 0.04464063965428449 0.21562560923762114 -0.11213298684873946 0.042284717595043084 0.09233986490920815
-0.0731750698626704 -0.020124540689631633 0.30512836751761024 -0.16519870949606538 -0.017606608656886857 0.21765538177231156 0.14499429560496124 -0.07150092829440627
-0.1002791259973232 0.07836045730480373 0.05744356494751026 0.10353350310166701 0.12552654171453065 0.08277126593874393 0.05238687722512967 -0.023772313257427628
0.5469895017571641 -0.10212946934072871 -0.2739406887314433 0.09061922582784736 -0.08070737652346086 -0.018140292866159945 0.12458061870485898 0.07112022882035053
-0.352004090050392 -0.08587961913798962 0.16184848509584496 -0.10795363638804993 -0.20314758285437232 -0.10885871186595412 0.12543192474516526 -0.21504231383190794
0.25712734015834066 0.03961508314947543 0.17968529750728518 -0.14353714896176364 0.11081219069638383 0.03467272134259239 -0.043491353413077416 -0.017836142756501364
0.020202341342260784 -0.06649532911206073 -0.09986651557053662 0.05072941375940606

bias f8 [6]
00000000: 9d1c a767 228c b53f 125b 935a 8b46 a8bf
00000010: 2f0d f0d5 0a5e c0bf a9d0 9944 9991 acbf
00000020: 1d8a ef27 ffc2 b53f faba 0fab 839f c6bf
0.08416953116021593 -0.04741321068438799 -0.12786994405915084 -0.05579832994854545 0.08500666356079774 -0.17674299099549967
