part_4/Reinforcement_Learning/models_lab1/model_non_zero_top_tryed.pt (torch, 10117 bytes, 4 tensors)

weight f8 [42, 14]
0.3861141620634781 0.702873619679651 -1.3992125042410979 0.13552159635524397 0.6817111106541062 -0.4351141908798141 0.17758812538723062 -0.0700966489299392
0.11019804718087937 0.030257456245803338 0.21135789475496072 0.0208003021463192 0.027880736583614615 0.026362988945638113 0.6884186919644028 -0.3683770034195841
0.5700408135101275 0.11603253370260122 -0.28544992629614613 0.08556897140636137 0.09696445777733878 0.024402218036264287 -0.08906199557513707 0.1189139713269872
0.12534319508982025 -0.03600920556666155 -0.008433082664307704 0.1430964843214098 -0.05458249030986692 -0.13696585733707956 0.2924462176691687 -0.26962253861749275
0.12221538330214657 0.18487613319414353 -0.19853089292633844 -0.14550762008662338 0.037334059618417584 0.22398509338682754 -0.1901376637263983 0.11001249462253537
0.061605383754465184 -0.08158548836722934 0.2591176603721181 -0.026113132802742366 0.07842767351333156 -0.15230623740621413 0.08591554695319843 0.10234850117697881
-0.04082184743798628 -0.02617293534717284 -0.02516089023035311 -0.23822508829954586 0.24738129628773697 0.17651625538334226 0.27684731607962376 -0.2485096826108961
-0.254926501576548 0.07483905998864646 -0.18787883185889215 -0.05557777011153708 0.11186635668964304 -0.12853510696684678 -0.09973480220141967 -0.15397277458779127
-0.03361294761851104 0.09232093063501735 0.2746266937475974 -0.04652249047551855 0.19830127399250655 0.16182240952840712 -0.4801472418210842 0.16950557033107816
-0.12945987012235932 0.1812553608300876 0.2515775845277926 -0.0889904991474842 0.156586577236181 0.11549109354094907 0.2062844398819857 0.29240501998440266
-0.2593638697843966 -0.16833280086695157 0.07167294082715832 0.1591393237372998 0.10904458029146023 0.1893577783408173 -0.09794004636459645 0.1447891746072388
-0.19782882572734004 0.013633285577696585 -0.09654022520667967 -0.1189984470193223 -0.05604931322068996 -0.10456791427341895 -0.13584130917599296 -0.2606761968378659
-0.018490156132451623 0.12588727054676455 -0.30370183669128553 0.1291904649403648 -0.4092047635309143 -0.06781152608368585 0.691029113592821 0.10160194254930713
0.055026232192313805 0.019617645260532463 -0.17121724024702628 -0.23054646543429716 -0.09955332409130206 -0.023645119156804534 0.11023612428453028 0.19837427985780112
-0.07462280161060113 0.24510576439324996 0.013411034698974918 -0.040088883016189326 0.02874101141800201 -0.019837611777375565 -0.1848200406869911 0.06913387565376414
-0.027385543128540323 -0.29974173824700473 -0.031202182771077995 -0.23586811038849992 0.015877869721431133 0.040247598907082655 0.1279919727191533 -0.1540073554982571
0.06980132826614432 0.25040510705021723 1.1464126248978017 -0.8137486101264838 -0.0015340712844788382 0.1294209518720849 0.09658575437698141 0.032112398389998166
-0.03387090600872222 -0.03936210660183323 0.04637640337768809 0.2603385223290652 0.2591646280478955 0.3052304308468577 0.5075774867057207 0.28090242470688653
-0.009598016815055524 -0.4874409135333845 0.12921924902889817 -0.04084353408467001 0.1267786653729016 -0.042048845260063826 0.13051341231303645 0.23707192476280323
-0.0638145055050636 -0.03432312830208978 -0.030149469460730334 0.23079843869694483 0.06402406334767828 -0.11936233258612426 -0.33739333477856087 0.11894831158630517
-0.166665622849344 0.16388534890159223 -0.03323283347851485 0.041984039170948215 -0.12868510515750173 -0.16303948606896038 -0.08354999220630112 0.017658767647182955
-0.15455695862965732 -0.18886217713989642 0.15438616064538552 0.062947161604809 0.570513621513227 0.12274754234564361 0.1893937236290227 0.15781637493207104
-0.011815857720652795 0.06673991086816455 0.1560718772028364 -0.21924094758153784 -0.14346765581883414 -0.21743092384155058 0.07812602538362799 0.04203392958794432
-0.20698514754696176 -0.12733858991780295 0.11583145959419251 -0.22716522589533664 -0.2509784164120087 0.08732426749857056 -0.25527171310003594 -0.2537491181098841
-0.11995427631821824 -0.19621510954376425 -0.14741738482073735 -0.008271767038364413 -0.21212483572243201 -0.04839948235576582 -0.6378078580080188 0.381146263561301
0.29531958918247636 -0.1266731303074471 0.20480076985030352 0.02073011627792842 -0.10309200024214475 0.018072863387025035 0.07890805794985427 0.006899738563179719
-0.05033645279955146 -0.028912134458663658 -0.5944815411332831 -0.017588364408332176 0.6508997393767758 -0.4190570683578285 0.42933032942965593 -0.0437583240297914
0.25075755445638764 -0.1440326744419583 0.04844276506173203 -0.08930418515699716 -0.06777552181728105 -0.1495296789036338 0.25847809609424927 0.24150558182961446
-0.34145899490393966 0.3919741402886551 0.5040705570842912 -0.10960857512842224 0.4084994976530385 -0.2847770082076376 0.13845523043972816 0.00018810022791646778
-0.24301005963946246 0.27714518155432516 0.2222725747386971 -0.010598180499032845 -0.05397839646544896 0.05025060350586329 0.058682594074413306 0.0583496347617931
0.02588688596892992 -0.02701620196440501 -0.189201630201733 -0.0047895856618650956 -0.23787513793113083 -0.1106261448048426 0.04101657994606092 -0.11185705172653863
-0.045630548590014496 0.021913095318432885 0.10999435745814001 0.26137230439054604 -0.07481828101648128 -1.0465854856132017 1.0027947263731019 -0.8099690412609322
00000000: fd71 a52c 18b6 d83f 08d9 37d1 f07d e63f
00000010: 9bea 9da6 2c63 f6bf 9cad 1f8c c558 c13f
00000020: ff88 b2d1 93d0 e53f e7ac f630 e9d8 dbbf
00000030: e619 592b 35bb c63f ab99 b69e daf1 b1bf
00000040: cb95 b970 f035 bc3f c0bc 2484 cffb 9e3f
00000050: edaa dc86 c60d cb3f 3887 dca5 ac4c 953f
00000060: 6f93 428f c48c 9c3f 14a3 623d e6fe 9a3f
00000070: 9126 fea2 8607 e63f 2c47 9223 7d93 d7bf
00000080: d128 6d3b c63d e23f 1652 86e1 4eb4 bd3f
00000090: 8d9a 85c4 cf44 d2bf 5b20 be1d d9e7 b53f
000000a0: d22d 07a7 a9d2 b83f 5c97 a921 e5fc 983f
000000b0: 41cc 4f56 c4cc b6bf 560b e361 2571 be3f
000000c0: 2fed d7ed 3e0b c03f 910a 8770 cc6f a2bf
000000d0: 6238 fb31 5d45 81bf caa0 2a50 fc50 c23f
000000e0: cc56 a175 3cf2 abbf c036 f7e2 1888 c1bf
000000f0: 2c97 2e57 70b7 d23f ae1a 68e4 7e41 d1bf
00000100: 9acf 59e2 8149 bf3f d89c f068 05aa c73f
00000110: 6da1 2ed6 7569 c9bf a6a0 cb62 fe9f c2bf
00000120: aa10 2d2a 731d a33f b2a7 7125 8bab cc3f
00000130: 40ab b853 6e56 c8bf 501f 8e62 c729 bc3f
00000140: 3a46 f7a8 bd8a af3f 608d 5d5c c9e2 b4bf
00000150: 6750 473d 6295 d03f b318 89ad 66bd 9abf
00000160: ef53 d704 d613 b43f e278 5152 c57e c3bf
00000170: cdc6 61b0 8ffe b53f a988 59e9 8233 ba3f
00000180: 48ba 6ae7 99e6 a4bf ecfb 6cf5 13cd 9abf
00000190: 0ee0 b5c2 c6c3 99bf 52a8 aae1 287e cebf
000001a0: 5455 99b8 30aa cf3f 3cbb 0aac 1598 c63f
000001b0: ee07 23ce ddb7 d13f 3fcd c64f 2acf cfbf
000001c0: f7ea c93e b750 d0bf a657 1d13 a728 b33f
000001d0: 76e9 38df 690c c8bf 2ffe 0682 b074 acbf
000001e0: 3633 8107 46a3 bc3f 70bd 67a0 d673 c0bf
000001f0: 7c66 ba51 3888 b9bf d11a aa3f 61b5 c3bf
00000200: cac1 7c5d b735 a1bf 994d d031 58a2 b73f
00000210: 5c4a 10d7 7b93 d13f 99dc 3dbe cbd1 a7bf
00000220: 19c7 46a7 ef61 c93f 519b 57c2 98b6 c43f
00000230: d9b6 387f bbba debf 58e9 87c8 5bb2 c53f
00000240: d2f3 281a 2492 c0bf 3ab5 7e2b 6033 c73f
00000250: e106 7dde d819 d03f c53f 7ed3 14c8 b6bf
00000260: b169 1c6a 070b c43f d5d6 bc05 d390 bd3f
00000270: 52c0 7b4d 8767 ca3f 293b 818b c3b6 d23f
00000280: 293b 9fea 6a99 d0bf 58a8 48e1 ed8b c5bf
00000290: 9d5c dc68 2859 b23f 01c9 7a67 ad5e c43f
000002a0: 076a 287a 58ea bb3f 8ec7 9b2c e03c c83f
000002b0: 5bcb 1a50 9912 b9bf d35f e0a0 7388 c23f
000002c0: bb3d 5a78 7452 c9bf f3be 8b9d c4eb 8b3f
000002d0: a5db 0236 dcb6 b8bf fa07 39a6 ae76 bebf
000002e0: f103 7ede 7eb2 acbf 79e8 037c f6c4 babf
000002f0: d2a8 2d7e 3f63 c1bf 2cea 1037 ebae d0bf
00000300: db18 8c5f 15ef 92bf 4d93 fdf6 121d c03f
00000310: c3bf 14d4 d96f d3bf 00dc ef2a 5089 c03f
00000320: 66e4 2e2d 6930 dabf 843f d29e 185c b1bf
00000330: 92e1 6e16 e91c e63f a297 75bc 9502 ba3f
00000340: 5b4d 60f7 652c ac3f 2529 46e3 a516 943f
00000350: 42a9 af4f 72ea c5bf 6dd5 9fec 8b82 cdbf
00000360: a323 2e9f 537c b9bf f838 f415 6d36 98bf
00000370: 24cd a344 6f38 bc3f ddab 2d12 5464 c93f
00000380: db13 74dc 7a1a b3bf c9a6 102d a05f cf3f
00000390: 1e3e 809b 3e77 8b3f 35b4 f9b2 8786 a4bf
000003a0: 418b 60a0 486e 9d3f 4a1f 4297 4f50 94bf
000003b0: a8b0 32df 2ea8 c7bf a688 faf6 c1b2 b13f
000003c0: 362a 7bb0 f40a 9cbf cd17 c1f8 f72e d3bf
000003d0: 3e2b 430a 77f3 9fbf bada 241e ed30 cebf
000003e0: a21a bccc 4942 903f d4cd 1852 559b a43f
000003f0: 4c59 7d7c 0a62 c03f d1ae 9a55 83b6 c3bf
00000400: d4d5 1ef6 7fde b13f 4e0d 6224 a306 d03f
00000410: 6c85 bac3 b457 f23f 1714 7586 3a0a eabf
00000420: b2ca c77f 5c22 59bf 0499 daa1 dd90 c03f
00000430: fc01 4f10 d8b9 b83f 1528 c349 0971 a03f
00000440: cfcb 2f03 8757 a1bf bcf2 1c21 4527 a4bf
00000450: 7d65 a0df a5be a73f 0eb5 d2e7 62a9 d03f
00000460: cdb9 6f3c 2796 d03f b1cc 8e37 e588 d33f
00000470: 41c8 3224 133e e03f 6cec de29 4efa d13f
00000480: e8f1 9d02 20a8 83bf 92ed 965f 3b32 dfbf
00000490: c9e0 4ba0 418a c03f c01e 4b96 71e9 a4bf
000004a0: c4b6 cd86 483a c03f e3fc 731e 6d87 a5bf
000004b0: 1774 c9da a9b4 c03f 37f8 d371 5f58 ce3f
000004c0: ce97 27be 2556 b0bf 2897 1b13 cd92 a1bf
000004d0: d266 4da5 80df 9ebf 28eb 15a1 cd8a cd3f
000004e0: 4f3d 3c8a e163 b03f e7e8 d4a2 878e bebf
000004f0: 7fc9 b036 da97 d5bf 1a77 2d84 6573 be3f
00000500: 0ab1 c093 4c55 c5bf b4b6 e9f2 31fa c43f
00000510: 2724 e3d9 e403 a1bf d6eb 6296 ee7e a53f
00000520: 0f20 11e7 c078 c0bf f9b8 4f56 7ade c4bf
00000530: 196c 1b44 8863 b5bf d516 21d6 2315 923f
00000540: 4f80 57bd 85c8 c3bf 1134 22c5 a22c c8bf
00000550: bea5 76fb ecc2 c33f 83fb 7720 4e1d b03f
00000560: 734c 4ac8 a541 e23f 4cf6 0908 626c bf3f
00000570: cbf3 86b4 0d3e c83f 6da2 8db4 5333 c43f
00000580: 5d09 e093 e932 88bf e047 84e6 dd15 b13f
00000590: 5fac 34cc 29fa c33f c243 e75d 1610 ccbf
000005a0: 6049 e3ec 255d c2bf 6fee 84c9 c6d4 cbbf
000005b0: cf38 fd33 1100 b43f f71f cea1 7885 a53f
000005c0: 6168 bc43 7d7e cabf ae9c 9b83 a14c c0bf
000005d0: a114 ce6a 21a7 bd3f 6524 0108 c013 cdbf
000005e0: de73 9fc6 0710 d0bf 3eb3 0d19 e25a b63f
000005f0: 78f2 d62a 5f56 d0bf 48ee eaf0 6c3d d0bf
00000600: 1356 cdcd 52b5 bebf ee5a 3ca3 931d c9bf
00000610: 6e5d 55a7 92de c2bf c37c 47c7 c9f0 80bf
00000620: a471 0c18 e826 cbbf fb01 b923 d1c7 a8bf
00000630: 0fd7 6806 ec68 e4bf b041 3f4c b364 d83f
00000640: 820a 5a22 84e6 d23f 48e9 f93b d336 c0bf
00000650: 4df1 5960 e936 ca3f 5fec d28d 463a 953f
00000660: a3ec 84c1 3c64 babf f5f6 c454 b181 923f
00000670: 5316 4988 5133 b43f 064a ad77 e642 7c3f
00000680: 9035 2415 b3c5 a9bf d57e d47f 249b 9dbf
00000690: b8c7 2727 fe05 e3bf 5217 b227 af02 92bf
000006a0: 4124 b3b0 2bd4 e43f e449 f0bc d4d1 dabf
000006b0: ab33 05eb 257a db3f bf7d 45b5 7d67 a6bf
000006c0: 315e e769 690c d03f db4d 24a5 a96f c2bf
000006d0: 9bfd 5577 7dcd a83f e32d a59a a3dc b6bf
000006e0: beaf ac91 bc59 b1bf 1914 56dc c923 c3bf
000006f0: e141 5db6 e78a d03f 143c e1a7 a7e9 ce3f
00000700: 9b65 02d4 76da d5bf 27b8 5ab4 1a16 d93f
00000710: 88b6 b193 5821 e03f d7a8 89bd 4e0f bcbf
00000720: ec8a b613 db24 da3f c6e3 3958 c939 d2bf
00000730: 7f71 59a7 e6b8 c13f 1c1d 90a7 98a7 283f
00000740: 6910 6021 f41a cfbf 8d44 c124 bfbc d13f
00000750: 2874 a67f 6d73 cc3f caa4 1fb5 7fb4 85bf
00000760: 9bed 046f 0ea3 abbf 8eea 5275 72ba a93f
00000770: bbc0 c91c a50b ae3f fe25 12da 00e0 ad3f
00000780: d4ff 8682 1782 9a3f 1ed5 989f 22aa 9bbf
00000790: 797d 084f c237 c8bf b732 779c 3e9e 73bf
000007a0: 910c f948 b172 cebf bbf4 04ba fe51 bcbf
000007b0: 8498 ec0a 2000 a53f 1b12 feea a9a2 bcbf
000007c0: 9309 c923 e35c a7bf 20b9 fcee 6270 963f
000007d0: 88f9 0618 9728 bc3f dc00 dce6 52ba d03f
000007e0: 62d5 1b76 4a27 b3bf e9d4 126c d0be f0bf
000007f0: d8fa a57b 720b f03f 289f df31 44eb e9bf

bias f8 [42]
-0.10348343570840526 0.10858208866218853 -0.25718835998636946 0.1911707700938809 -0.1498074696269627 0.08769563238680346 0.07939918234502044 0.19858854092077083
-0.28062308607539743 -0.1796401942638443 0.115586112127182 0.17743304392112266 -0.14193988967740853 0.2011144706061992 -0.2457144319330421 0.2119047838941986
-0.09178716557017144 -0.2219402250131032 0.056346235631265444 0.10666964418783756 -0.15260414569092595 -0.12067446289590252 0.1716245023768696 0.23925518281599018
0.09933358566719225 0.14962618009752104 0.19523804379917256 0.005422804085374877 0.14738555453538865 -0.0467042212009097 0.08609972348310294 0.12727042801758345
-0.08317718115485338 -0.037791696822824586 -0.21427992627233983 -0.04565216465331826 0.18595182645997801 0.08709750717824116 -0.27741154659387607 -0.2733056344459355
0.03548831307594754 0.41777793547926556
00000000: 0a9a 0bf4 e37d babf e747 bc27 09cc bb3f
00000010: ca69 c32a c675 d0bf a68e c0a6 4878 c83f
00000020: d145 5f23 e42c c3bf c175 1a91 3873 b63f
00000030: c241 803b 8153 b43f 90ba 4e6c 596b c93f
00000040: 3a92 4c88 baf5 d1bf a684 b42b 73fe c6bf
00000050: d441 752b 0d97 bd3f 677b 6f40 20b6 c63f
00000060: d3c6 1418 162b c2bf eac3 0075 1ebe c93f
00000070: 8c60 a70c 9273 cfbf 1284 582a b21f cb3f
00000080: 2201 511a 5d7f b7bf 7d90 0c8c 8968 ccbf
00000090: 27f7 93ee 69d9 ac3f 8a41 43a9 b34e bb3f
000000a0: 78ff 7c5b 8888 c3bf 15ab 9987 85e4 bebf
000000b0: a651 73ac caf7 c53f 4aed cbf0 e99f ce3f
000000c0: e4c2 d505 ed6d b93f 1477 125f f326 c33f
000000d0: 11b7 866a 8ffd c83f 8055 30e3 3836 763f
000000e0: d2ef 50a4 87dd c23f c53e 499d 9de9 a7bf
000000f0: 52f8 8da8 a10a b63f 43ae 0abb 654a c03f
00000100: 5f64 d588 194b b5bf 7229 d4eb 6e59 a3bf
00000110: f8b5 c34d 866d cbbf 95ef 5a74 b85f a7bf
00000120: 2177 a3fa 44cd c73f a0c7 e4b0 054c b63f
00000130: 95d2 095c 1cc1 d1bf 3080 70ea d67d d1bf
00000140: 9b51 1a30 862b a23f 0eed 77aa dfbc da3f

weight f8 [6, 42]
0.1417449115430791 0.15772442694224184 0.06171951095816838 0.05888546506279548 -0.2034376000617246 -0.14643034224000132 0.015798326032487188 -0.13615818536567936
0.14531412478443603 -0.002549079471173487 0.08599285166756461 0.039594437661802415 -0.044193297537112805 0.00643504195062625 0.08787271126415594 -0.10655599766705476
-0.092451652199047 0.11901696226392734 0.07208189022635182 0.2624672998565175 -0.5758586505693069 0.2722158719515861 0.09271628771257358 0.13669920925737186
0.13410842014749255 -0.07951647973828126 -0.019829586453278123 -0.24242307567754162 -0.023721347695372368 0.08694077022665192 -0.11845591886441471 -0.04614550299988076
-0.1118665942352734 0.1434644328712441 -0.06862145837142242 0.08711323849758074 0.07087734476925454 0.21337691699910205 0.08873486562877077 0.042237575350787655
-0.025892256966841446 -0.13086237475061263 0.2882695422100539 -0.15155573597199565 -0.06832479617287024 -0.023569697779562953 -0.003756573437866224 0.04801163309788582
-0.0533802577993296 0.0408873572319254 0.053747498262691616 -0.1721790950792143 0.12043304778208588 0.12399995400371666 -0.04883597474402215 0.022454361700111346
-0.0028649964096401468 0.05510951805448291 0.16822190173976018 0.131654071941283 -0.1619011282878745 -0.1138328382096072 0.3445730101615825 0.05355841906104649
-0.017557620300881028 0.06452717154072603 -0.041054358027100196 -0.015378256128398373 -0.02726689008579393 0.21143107286301455 0.1531257141800355 -0.037938465821874226
-0.07555889442342831 0.22853898098113354 -0.03212624462448496 -0.05514883183488286 0.1438409372676926 -0.15756977392621524 0.5292484953843271 0.06806688695777775
-0.059137652454353706 -0.06730801597941262 -0.11939109110234546 -0.24946614697298022 -0.5399235308977537 0.10414286369043735 0.183424415369847 -0.014044774579512809
0.044798995941418306 -0.07304109514430665 0.1416695974052185 -0.15011489525386867 0.1545445780984789 -0.031909632044351786 0.20553656314019586 0.10149209796339236
0.059723955861155566 -0.1168253628869751 -0.13349690917230486 0.20494101604162115 0.22083471895414197 0.08213380246205956 0.36188673370487073 -0.06568557989327861
0.11245366292346255 0.04235095060935243 -0.20835254016392923 -0.22390649997630502 0.03715159088232036 0.03992998300207066 -0.1396258399999715 0.10114838864845814
0.08523165246119867 0.04549094070608438 0.06564771974298896 0.05365024639054427 0.10812118308774905 0.20332150878506822 0.1395898806437957 0.14392517472165633
0.01048119450028401 0.05494041794531234 0.1700512163454505 -0.0035088573489351353 -0.0925448682868767 -0.38675755404595724 0.07080966423702965 -0.020026351487807986
-0.01605231084927921 -0.07489506292281413 -0.003471023316044657 0.21234817648886511 -0.08155273509941532 -0.13184917374466185 -0.12058662150284843 0.12323689639045064
0.19820194040587918 0.08680595597608136 -0.020213702552933196 0.12198392140550043 0.26818631828100115 -0.06793030608983229 -0.06751099876142855 0.07396328330789251
-0.13308990404006357 -0.1996110940262365 -0.14559667381653066 -0.142594756864859 -0.15143615246633096 -0.07288357279922451 0.33117631481158283 0.10812966990289861
-0.0564497812926294 0.04242196032812326 0.06773719685460465 0.08674679925593502 -0.0017941935808522954 0.11945481667295695 0.1860645246318247 0.09686793138062734
0.17676890088075287 0.13792777400355632 -0.4447524816666196 0.10247031205023724 -0.018534488674195812 -0.08173816579757588 0.08467336282325261 0.07625158702907521
0.13661210993351167 -0.073214449219678 0.0718543744937179 -0.09325812133366579 0.023741562915586482 0.12587660897745034 0.06733601574315372 0.10138126390011082
0.08812401318952456 0.27295767485737615 -0.05189941748078939 -0.1365921357025685 0.11101670314696263 0.15389107507961505 0.10515734623564686 0.1021620854083164
0.1571896718079059 -0.18777898999342954 0.33973338202434605 -0.05125375864082672 0.18567745617558348 0.16192644364519676 -0.05593889597015049 -0.04584200324881419
-0.22588045547478097 0.0829824656490556 0.2003360035154169 -0.16139940725783142 0.10946742190033047 -0.04074530430909121 -0.001331458815341613 0.09806774416355138
-0.011113522466784686 -0.1874122966841388 0.027847924046789534 0.14531222550837639 -0.29251305014920376 -0.2828185389916122 -0.06038199301608193 0.07330437855908283
-0.06444126319382318 0.09426141340168967 -0.20464640898237363 -0.046772787124220165 0.010153335130610463 0.13628526519345294 0.02220367099540944 -0.1370552535607487
0.1472964797532619 -0.051701203352887255 0.11009856219406036 -0.3836419830743803 -0.31297817427647334 0.04941085687299301 0.091188094732148 0.11090001305471295
0.09780378491646069 0.017832296222937277 -0.18922831127329148 0.1518982924464004 0.05890220965911809 0.09917309654286094 0.30931923941885564 0.06675070753059845
0.12977899281817004 0.02513630376565375 0.13829812151802384 -0.04878490462353278 0.19845361858462676 -0.00260347442771097 0.09588661761170425 -0.040144672680968864
0.08497247081332127 -0.12104514502295671 0.16329830691251357 0.13572133675465034 0.07814550508827103 0.014045419042253983 -0.11926100107955893 -0.16638939244584147
-0.09796361278318112 -0.05725959459556713 -0.025089348119960324 0.43190049304635464
00000000: 18d9 b97f b224 c23f 8ba6 bf63 5030 c43f
00000010: 0c4f 2e22 b399 af3f 0315 4f55 3c26 ae3f
00000020: d75a 8547 3e0a cabf e10c 88bd 3abe c2bf
00000030: ba76 90b6 6f2d 903f e438 9da4 a16d c1bf
00000040: 3f4a cc3a a799 c23f 65c5 d59e cee1 64bf
00000050: a51a 9aa5 a003 b63f b6ce b8dd b845 a43f
00000060: d6a3 3fff 80a0 a6bf e409 9f6b a15b 7a3f
00000070: 7e24 1775 d37e b63f f432 2cfd 4047 bbbf
00000080: 6cf4 a756 e9aa b7bf f9c3 9748 e577 be3f
00000090: 71f2 2771 f573 b23f 82cd 49a5 43cc d03f
000000a0: 2e0b ea1e 6f6d e2bf e7fc de1e fc6b d13f
000000b0: 2133 882f 41bc b73f eb21 9314 5c7f c13f
000000c0: 2b6b 53f7 762a c13f 110e f827 315b b4bf
000000d0: 9979 3d05 354e 94bf d056 ea26 b807 cfbf
000000e0: 3e51 46b2 684a 98bf 5801 d014 c041 b63f
000000f0: 7d50 8a89 2053 bebf e3e1 7b24 62a0 a7bf
00000100: fc61 c103 4aa3 bcbf 741c a9e3 0a5d c23f
00000110: 6053 8207 2d91 b1bf 5c50 659e 0d4d b63f
00000120: 0faf cf85 0425 b23f eac0 1d50 ef4f cb3f
00000130: 71f9 e301 54b7 b63f 1183 96d9 29a0 a53f
00000140: 11a0 91f3 7f83 9abf ea56 ea29 19c0 c0bf
00000150: 9967 0e18 0273 d23f e7ad c2a8 2d66 c3bf
00000160: f87e 11dd bb7d b1bf bb2e 8fa4 a722 98bf
00000170: 76e8 f001 1bc6 6ebf f247 f713 fb94 a83f
00000180: 3a16 003b a854 abbf f310 430c 30ef a43f
00000190: 4b66 8fc6 ca84 ab3f d6c5 35ef f609 c6bf
000001a0: f2e7 9441 b3d4 be3f 90c6 2603 76be bf3f
000001b0: a3a7 c964 0701 a9bf f33d 9eb4 46fe 963f
000001c0: 59f2 3d3c 5578 67bf 1b12 7c93 5037 ac3f
000001d0: a1ba 3897 4b88 c53f d5bf af66 0ada c03f
000001e0: 3449 9719 2db9 c4bf 0f35 521d 2624 bdbf
000001f0: 049c 6ef4 7b0d d63f 3bd7 9554 026c ab3f
00000200: 1d94 f3f3 9ffa 91bf 5d86 784b da84 b03f
00000210: ec59 2baa 1305 a5bf 7bbb 2099 a27e 8fbf
00000220: 747b ba04 daeb 9bbf 0405 a763 2c10 cb3f
00000230: 083a 4a97 9f99 c33f 2244 eeab ab6c a3bf
00000240: 6675 78e4 d357 b3bf cf6a 96ec c340 cd3f
00000250: 7ccb 02e4 d972 a0bf 136f 49ba 773c acbf
00000260: 5a03 b23c 6169 c23f 62f4 ec10 3f2b c4bf
00000270: a640 648a 9aef e03f 5997 6cdd d46c b13f
00000280: 28e0 8156 4a47 aebf a1e5 631f 193b b1bf
00000290: 7fe4 b71f 6a90 bebf 59a2 5ab7 81ee cfbf
000002a0: 8c7e 71b6 0d47 e1bf e086 a951 1ba9 ba3f
000002b0: b094 a684 737a c73f 4056 fdbb 81c3 8cbf
000002c0: fb8e ecdc e4ef a63f 86a8 e83a d2b2 b2bf
000002d0: f2b0 d8b7 3a22 c23f a000 e102 f736 c3bf
000002e0: c181 5ae2 1dc8 c33f 0ba3 1d94 7556 a0bf
000002f0: 74e1 68a8 054f ca3f 7b21 8ed9 62fb b93f
00000300: 053e 6c6a 2394 ae3f 4161 f158 44e8 bdbf
00000310: 898d 813d 6d16 c1bf bffe c0d8 813b ca3f
00000320: b05c dde3 4f44 cc3f d67d 788b b806 b53f
00000330: 7798 87f9 2629 d73f 88de 7529 c5d0 b0bf
00000340: 9559 9264 c3c9 bc3f 3cb3 a417 06af a53f
00000350: 0074 05c9 4bab cabf 7a49 61db f7a8 ccbf
00000360: e3f9 aa87 8805 a33f 7559 3fe6 b371 a43f
00000370: e1fa 3c70 42df c1bf 23c9 495d dce4 b93f
00000380: 9fa6 e7d7 bdd1 b53f de9d 31ad 964a a73f
00000390: 7d65 5af9 49ce b03f cfe6 568b 0b78 ab3f
000003a0: bde0 5d71 d4ad bb3f 4212 676f 7006 ca3f
000003b0: d3db 1bca 14de c13f a813 40df 236c c23f
000003c0: 615a d01c 2a77 853f ff7c 9b84 2621 ac3f
000003d0: 34a3 6cfe 3cc4 c53f 0191 eb71 9bbe 6cbf
000003e0: 596b b43e 05b1 b7bf 06ef 86c1 a2c0 d8bf
000003f0: 4b87 2308 9520 b23f a818 cbb2 c981 94bf
00000400: 4ed4 7d58 0470 90bf 39a6 e2a5 522c b3bf
00000410: 0bba 0874 436f 6cbf ca44 b19c 392e cb3f
00000420: 3abe 26da a3e0 b4bf f774 9e08 6fe0 c0bf
00000430: f49a b0cb c3de bebf 9f53 a807 748c bf3f
00000440: d603 0662 ae5e c93f bbe9 0346 ea38 b63f
00000450: ff6b 959d e6b2 94bf ba0f 1399 563a bf3f
00000460: 5819 90f2 f629 d13f 4727 106b e163 b1bf
00000470: 3af6 cc9b 6648 b1bf b284 e9fa 41ef b23f
00000480: 2bd2 a308 1709 c1bf be77 6138 db8c c9bf
00000490: 7964 396c e9a2 c2bf ec66 a884 8b40 c2bf
000004a0: ee31 2385 4262 c3bf 1f9b 9671 7fa8 b2bf
000004b0: cad5 5424 fe31 d53f 4fd1 f5d3 62ae bb3f
000004c0: f850 0959 fce6 acbf bca5 7bc8 54b8 a53f
000004d0: f796 3695 3957 b13f 4340 d6c9 0935 b63f
000004e0: bc33 28b0 6465 5dbf 3dc4 f542 9794 be3f
000004f0: 12a7 1e5c f6d0 c73f 819b 4f35 56cc b83f
00000500: 16c9 1d04 5da0 c63f d215 4707 9ea7 c13f
00000510: 8eab e41c d376 dcbf 2e12 118f 7e3b ba3f
00000520: bca4 d07a b4fa 92bf 6984 efdc caec b4bf
00000530: f40f 2b4c 27ad b53f 81d7 8e58 3985 b33f
00000540: 6374 3370 817c c13f 5f40 fea0 2ebe b2bf
00000550: 006a 865c 0c65 b23f 1ce9 36a5 c3df b7bf
00000560: 1e0d 1d51 b54f 983f 18dc 7187 b91c c03f
00000570: 8fb4 75e1 ee3c b13f 90cc e05c 1ff4 b93f
00000580: f82a a49a 4b8f b63f b118 ad77 2378 d13f
00000590: 9ddb 8579 8f92 aabf 9edd dde1 d97b c1bf
000005a0: 1e71 5335 976b bc3f 3b7e 4ee7 b3b2 c33f
000005b0: 1729 0483 97eb ba3f e849 b85f 4b27 ba3f
000005c0: fd8a d789 ca1e c43f 8be7 7256 2409 c8bf
000005d0: cddb 4915 31be d53f 92a0 51c2 ee3d aabf
000005e0: 1b76 f064 47c4 c73f 8e27 e875 01ba c43f
000005f0: d643 88e1 05a4 acbf 953b 7961 9a78 a7bf
00000600: 2cee 8898 a6e9 ccbf bda8 1ac0 563e b53f
00000610: efaf a733 9ca4 c93f e411 e25b bca8 c4bf
00000620: 1313 0a95 0e06 bc3f 143c f28a 91dc a4bf
00000630: 9ade 5704 8bd0 55bf 3296 f9b9 f71a b93f
00000640: 933c 4ebc afc2 86bf 4335 904a 20fd c7bf
00000650: ce78 2b8c 2a84 9c3f eb3b 224c 9799 c23f
00000660: 85d1 02a8 88b8 d2bf 73f9 eaed b219 d2bf
00000670: 4ff1 8a7a 63ea aebf f39a 9064 13c4 b23f
00000680: a22e eefd 387f b0bf 1ec2 d517 8421 b83f
00000690: 805c e980 da31 cabf af24 154e 9af2 a7bf
000006a0: 8680 a692 45cb 843f 5f5e 77aa cb71 c13f
000006b0: c30f 1b23 8fbc 963f 66ea e4cb 068b c1bf
000006c0: 8197 ad6d 9cda c23f a905 2183 9478 aabf
000006d0: dac9 f55b 6b2f bc3f c554 ab1a 978d d8bf
000006e0: 7e45 b89b d507 d4bf 8776 ac3c 614c a93f
000006f0: 74bc a85c 1a58 b73f c62a 3279 f163 bc3f
00000700: c826 a439 ab09 b93f 2843 5c24 a142 923f
00000710: 3eb3 3220 a238 c8bf 7c11 303b 6771 c33f
00000720: e2cc 4b30 6e28 ae3f 6c6d 4b76 6863 b93f
00000730: 0ef7 54ec e2cb d33f 022b d409 9316 b13f
00000740: 6751 ee18 999c c03f 7595 76ca 54bd 993f
00000750: 9e52 82ba c0b3 c13f ed08 cbc3 55fa a8bf
00000760: 9d02 cc9c ed66 c93f 7b57 bcb0 e153 65bf
00000770: 082e c47e 068c b83f 3df9 8bb0 d78d a4bf
00000780: 801a 347f c1c0 b53f b892 368b d0fc bebf
00000790: a838 d77b f5e6 c43f 2785 5d17 515f c13f
000007a0: 8afb ae04 5801 b43f c18e 8f3b d8c3 8c3f
000007b0: 5f2e 5393 e387 bebf b764 7a63 3f4c c5bf
000007c0: a10d 1ab1 2414 b9bf b921 572c 2151 adbf
000007d0: 7edd 9ca6 05b1 99bf e1a9 30f7 41a4 db3f

bias f8 [6]
-0.005950015867145245 -0.1297980344649109 -0.1338093941015149 -0.08525044143558216 0.042594694609958024 0.14734265727952287
00000000: dd0b f638 0b5f 78bf dc51 8ed4 389d c0bf
00000010: 7323 c88d aa20 c1bf a275 ef11 f9d2 b5bf
00000020: e16e aac8 f8ce a53f ef1f 29cb 1fdc c23f
