part_4/Reinforcement_Learning/models_lab1/model_winner_ver1.pt (torch, 9947 bytes, 4 tensors)

weight f8 [42, 14]
0	0xbfdcb94c18b49bef	-0.44880964672705564
1	0x3fcb2fa0dcc4efeb	0.21239100246191298
2	0xbfe3caddd47c6c80	-0.618513979923037
3	0x3fbf1096a2c56d52	0.12134686921983942
4	0xbfdf4e0df00ebf1f	-0.4891390652000939
5	0x3fee793d7c0a0018	0.9522998259199111
6	0x3fc372c132249c84	0.1519395346487934
7	0xbfa9dc9e74f0fa0a	-0.05051131417757311
8	0x3fa3fbb38e0b993c	0.03902970417930127
9	0xbfb3b25265d32e4b	-0.07693972574195944
10	0xbfa5ea394ec6d32a	-0.04280261122349878
11	0x3fb6b87d7237f62b	0.08875259436168707
12	0x3fc871e201473532	0.190975428222751
13	0xbfba8ee0a4426292	-0.10374263773190709
14	0xbfb047d1d8900829	-0.06359588181661081
15	0xbfcd9778c404bdcb	-0.23118505068985792
16	0x3fd517b9359a072e	0.329572965951331
17	0x3fd6214384713100	0.3457802575474176
18	0x3fc068182bba4330	0.128176709510194
19	0xbfd91333a2cc3f16	-0.39179697893358545
20	0x3fc9cfad88fbda29	0.20165032566701882
21	0x3fa692ec3937b8df	0.04408968161065884
22	0xbfb2bfa2df9c3704	-0.07323663672670128
23	0xbfc211478e97477d	-0.14115232908676126
24	0x3fc930c0d900accc	0.1968003329833209
25	0xbfcf840b1d2a3141	-0.24621714519560992
26	0x3fc1eef781aba8f6	0.14010518867082283
27	0xbfc05be67439803e	-0.12780457186727462
28	0x3fe5e8292e1f19e7	0.6845899487314541
29	0x3fe6cd82fe565c4c	0.7125868766332899
30	0xbfeef14585a6415f	-0.9669520960178878
31	0xbfc7d5903af7ada0	-0.18620493773719904
32	0xbfdc3f3682d06640	-0.44135821127710884
33	0x3fa38ac7fb68528c	0.03816819137515379
34	0x3faaa1f6df717324	0.05201693990304637
35	0x3fa360294b5ff9d4	0.037843027545011815
36	0xbfb716769ec00cfd	-0.09018651366936932
37	0x3fc1c3be022794b5	0.13878607850270944
38	0x3fbe691bce0d66cf	0.11879133015227271
39	0x3fc9b0f86f66500d	0.2007132095283172
40	0x3fb2a60343787d25	0.07284565350754642
41	0xbfad1e74340b2246	-0.05687296996399431
42	0xbf771bd11a384792	-0.0056417625487642665
43	0x3fe143bfc81f8003	0.5395201595929396
44	0xbfe8e88cc10802ad	-0.778387429250946
45	0xbfdfd6e93561c2ff	-0.4974921246821821
46	0x3fd4f458dd66e146	0.3274137651565251
47	0x3fe4542eaf53f857	0.6352761673331412
48	0x3fd2d1751427fe07	0.2940342614019475
49	0xbfc21b93e06ba3ec	-0.14146660287886392
50	0x3f9ed445d1210986	0.030106631173347796
51	0xbfa9f6059fbd31a0	-0.05070512366237101
52	0xbfa55139770bc75b	-0.04163531854818699
53	0xbfc27ffc88b9692c	-0.1445308368300372
54	0xbf900a332c9d59e4	-0.015663909528791722
55	0xbfc0a0ab0c5d8924	-0.1299032030465891
56	0x3fc14b8f27129b68	0.135118383482417
57	0xbfc4710ae3372e07	-0.1596997842265042
58	0x3fe30273a7caf468	0.5940492894366232
59	0xbf777ed560df23a4	-0.005736192235368618
60	0xbfcb73cc64c847b5	-0.21447138710987948
61	0x3fd6261a08e29bbd	0.3460755430955336
62	0x3fc0157e4b47dd56	0.12565592456642588
63	0x3f939f6c0a0f51e9	0.019162834276203276
64	0xbfcb878c2015cbea	-0.21507407728822098
65	0xbfccfd43885d91c2	-0.22647899778816166
66	0x3fb3a7f614b64c56	0.07678163533846435
67	0xbfbc8e722572d3d6	-0.1115485516955482
68	0xbfb1c3544fc690ae	-0.06938673923156344
69	0xbfa1565f9cdbedd1	-0.03386210241111665
70	0xbfd79320819332d3	-0.3683549180393985
71	0x3fe2252c284d3b8a	0.5670376574652078
72	0xbfb435aa6bc9a879	-0.07894387370621016
73	0xbfc7029aeb4015bd	-0.17976700293381312
74	0x3fd9c276fbd439d8	0.40249418823887373
75	0xbfc1e4eb6065a5a0	-0.13979856688392278
76	0x3fc1d69762717760	0.13936130816267234
77	0xbfa185ad56e2cabb	-0.03422300038928002
78	0xbf8901e919839126	-0.012210675326465092
79	0x3fcb81e1dbbf3670	0.21490119199590962
80	0x3fd11ed8fcd1d4ab	0.2675077885572345
81	0x3fa2cc20de41552e	0.03671362603260274
82	0x3fd21b04b5d3598a	0.28289907223133837
83	0xbfba555a0d82cd0a	-0.10286486463410341
84	0x3fc4b2ee298de8ac	0.1617105200674066
85	0xbfe0979101ccb52c	-0.5185017619275292
86	0x3ff38cb559f31fdd	1.2218526376400327
87	0xbfc109458b3db891	-0.13309544848329272
88	0xbfd5a26afd29193e	-0.338038203456012
89	0xbfb3a6f69b416917	-0.07676640787523002
90	0x3fc62a387a2d5df3	0.17316347089466397
91	0x3f8e189d4d8852d8	0.014695385864834362
92	0x3f94f0c6548e0acf	0.02044973269540656
93	0x3f56ea8f4f0ddf41	0.0013986968517353956
94	0xbfa416e0eb8b7792	-0.039237049820925254
95	0x3fc8f02be72b6ff7	0.19482945239622015
96	0x3fa71e9c3e3a5f70	0.04515541324252481
97	0xbfb6f5ebde2db44c	-0.08968996214180541
98	0xbfdffad19fd290ed	-0.49968376739185666
99	0xbfc8909bbac479ba	-0.19191309566026665
100	0xbfe484f869e12c83	-0.6412317340813306
101	0x3fea3aa3d048558a	0.8196581905382783
102	0xbfd2596241ba8fb9	-0.2867055551416758
103	0x3fc2be573504392d	0.14643373573967136
104	0x3fbc8e16b88fd2d7	0.11154310232070529
105	0x3f984dc3716e24fb	0.023734144018395558
106	0x3fb98c5e66b3691d	0.09979810721725753
107	0xbf5c1b51d9a23a53	-0.0017154979055110833
108	0x3f8a27928c5de39c	0.012770790966657057
109	0xbfc281c3874a9f8d	-0.14458507638960008
110	0x3fbaf17fc9306a2d	0.1052474847969413
111	0xbfb0a32636f24bb9	-0.06498946038691046
112	0x3fb242108e90ee7d	0.07132056694620732
113	0x3fcedb7a60b7d738	0.24107293818058806
114	0xbfcc890bc97de3a3	-0.22293231333221994
115	0xbfb8b2b9e761a814	-0.09647714518510525
116	0xbfc261c625989084	-0.14360882602443692
117	0x3fd430e9ab87557b	0.3154853987774328
118	0xbfc2fa3e5b7b56b4	-0.14826182810673105
119	0xbfc5931697ac6646	-0.16855127721719237
120	0xbfc58a8cd001ccda	-0.16829071194260942
121	0x3fc348eccc0a7189	0.1506629940312332
122	0x3fc6efdd156e926e	0.17919505640488204
123	0xbfba073c2219551f	-0.10167289574140569
124	0xbf9f904bf507cb96	-0.0308238857559889
125	0x3fd28cee88eab6d2	0.2898517930105814
126	0xbfdc72d025baed46	-0.4445076340159243
127	0xbfe1492060682d30	-0.5401765711734807
128	0xbfe48ca1ced6617b	-0.6421669997971969
129	0x3fe780f3aad8b80e	0.7344911896559567
130	0x3fdce5f561d6dfb1	0.45153555445312593
131	0x3fd5c6210d4332c2	0.3402178411022697
132	0x3fcd8ea2ef80e22f	0.23091541952614267
133	0xbfb4b9d39c0288b8	-0.08096048888049523
134	0x3fa248ad599e371a	0.035710732640934675
135	0xbfc3ccc6dcd0f8b9	-0.15468679220243134
136	0xbfae3bc643339dac	-0.05904979296047527
137	0x3fbc4f7e1ffebf87	0.11058796197062125
138	0xbfcc42eb202c971b	-0.22079218932156483
139	0x3fb29bada289395f	0.07268796175160251
140	0xbfbeaf266b0399ea	-0.11986007797859313
141	0x3fa428f77f8d7377	0.039375051803950116
142	0xbfb359e5ebfe8699	-0.07559048663690716
143	0xbfbebf2c9a4f8732	-0.12010458724355713
144	0x3fcfeb951d0fb8a7	0.24937690657629227
145	0x3fd316921bac4781	0.29825260832250683
146	0x3fa910af9fb96a97	0.04895542931327162
147	0xbfc78dd3e8673187	-0.1840157398968467
148	0xbfd0badcc80a71ec	-0.261405177452416
149	0x3fc925ae7e53efb8	0.19646245163300846
150	0xbfcea44e50590493	-0.2393892185519105
151	0xbfad44234a19b96e	-0.05716047553584046
152	0xbfb4c4fcc0ca4a00	-0.08113078791419781
153	0xbfb05751819e112d	-0.06383237280357852
154	0xbff8718694023373	-1.527716234358391
155	0xbfeae35b03e31b00	-0.8402533603592417
156	0x3feee2bab7343c0c	0.9651769235805445
157	0xbfbeaeaf56e8d8dc	-0.11985298034491926
158	0x3feac3f34cc1dae2	0.8364197253384555
159	0x3fc5755a1f2f2891	0.16764379999796522
160	0x3fa2a00a0fc13648	0.036377252982316366
161	0x3fa8303dd942ac20	0.047243054171609566
162	0x3f7227d9b394b7dd	0.004432535549581088
163	0x3fc4a0c94aab3af2	0.161156808337601
164	0x3fb206805162491d	0.07041170107757862
165	0x3fc0035b5fcb2f20	0.1251024453871361
166	0x3fc5441b9a059e5a	0.16614098568537622
167	0xbfaaa5190b4c15a0	-0.052040846470883695
168	0xbfd395a8d353f729	-0.3060094894170669
169	0xbfd0907340318347	-0.258816540421368
170	0xbfba896ca4ad71f8	-0.10365942974517128
171	0x3fcbb8c9c8772035	0.21657678879114575
172	0x3fc207e6bd4a9baa	0.14086612932916626
173	0xbfa8f72d5fb3ca27	-0.04876081269494064
174	0x3fc2647ac35a1784	0.14369139231365236
175	0xbfd2bf95e398b8e8	-0.292943451177861
176	0xbfd37846a09cc954	-0.3042160576325348
177	0xbfc695e98581edc6	-0.17644995707438066
178	0xbfca33d78f5b9b4b	-0.20470709323782396
179	0x3fb14e517bfa42b8	0.06760129238888168
180	0xbfb56854a2ccd325	-0.08362320875751246
181	0xbfcedbfe4d80489d	-0.2410886648581866
182	0x3fc8240160b10553	0.1885987970472721
183	0xbff3528ec9c72241	-1.207655704684058
184	0x3fdee38ee6fdca48	0.4826390510344578
185	0x3fd93d8871108b08	0.39438067475764216
186	0x3fdbeaa32e0cfa0c	0.4361961316789411
187	0x3fa7a301e79d944d	0.04616552307451425
188	0x3faa6d0e0154b122	0.05161327139134843
189	0x3fa4544c2b93c97b	0.039705639190191065
190	0x3f936489283e4430	0.018938201028110224
191	0x3fc4a93234ddc2c6	0.16141345578537009
192	0xbf84de119b0c4330	-0.010189187568842323
193	0xbfb349cdbdfd24ee	-0.07534490478896647
194	0x3fabd1ac5a17f317	0.0543340549447519
195	0x3fc5a815b9a33a8a	0.16919204296432994
196	0xbfced49207624b77	-0.2408621345572006
197	0x3fa29d5c6ffcfb17	0.036356819792209
198	0x3fe7afc8c28c7e22	0.7402080344945186
199	0xbfe6ff92b57cc4b9	-0.7186978859591796
200	0xbff38512bb8b4294	-1.2199885679184819
201	0x3ff21575245c88d0	1.1302386684770234
202	0x3f8898727f0590d9	0.012009520055194777
203	0x3faf14cdc189cd93	0.06070559489753715
204	0x3fb26bdde19a4d7c	0.07195841558341515
205	0x3fbd590daeb098bb	0.11464009776009025
206	0xbfb0ba3f8cae660a	-0.06534192261315055
207	0x3f97839e7b722926	0.02296302441076494
208	0x3fc249ad3c359861	0.14287343444738368
209	0x3fab13cd594cb969	0.05288545336803702
210	0x3fe199fab72d1d9f	0.5500463082943731
211	0x3fe7125d83ab75d4	0.7209918567347651
212	0x3ff0bc52077c5639	1.045976666680316
213	0xbfef4ee75186a96c	-0.9783817856125956
214	0x3fb21cf35985faba	0.07075425086621126
215	0xbfa3a599bb1fb6ff	-0.03837280663706898
216	0x3fcdc5cb60d0b1b9	0.23259870745949998
217	0xbfbe84d4dd7cad20	-0.11921434790990704
218	0x3f9b47002207e882	0.02663803298671797
219	0xbf9b9ca6a732bebe	-0.026964763598413148
220	0x3fc02a5803004fcd	0.12629223009628135
221	0x3fb116e7496a7a37	0.06675572912579573
222	0x3fa08dfe2650a0b9	0.03233331887924024
223	0x3fc0553493b2626b	0.1276002618003703
224	0x3fda963994a67f44	0.41541900173796287
225	0x3fdf259133bba110	0.4866679196552619
226	0x3fc089a0e6725138	0.1292000889994911
227	0x3fe085b3f58f7d4b	0.5163211628059029
228	0x3faa31be6cd71a23	0.05116076544395678
229	0xbfefb26352036666	-0.9905258752653026
230	0x3fb1ad7a90a79ef3	0.0690533259545381
231	0x3fc38ee0ea4cf2b8	0.15279780807931842
232	0xbfa58c4c08ea7f94	-0.042086006248836544
233	0xbfc4d9255e3faa36	-0.16287676908480514
234	0xbf9a18944a06c09a	-0.025484387415133904
235	0xbf9b863c62e4b4a7	-0.0268792567596178
236	0x3fcba034599d55bd	0.21582655311310175
237	0x3fd01f71e967c803	0.2519192485189025
238	0x3fd0e286708c4049	0.26382599822045855
239	0xbfec64f83481b6bd	-0.8873253846665744
240	0xbfe2e0f26f2802cb	-0.5899593516370144
241	0x3fc28a45d4410ccf	0.14484475006074723
242	0x3fc966417ac3c778	0.1984330987393681
243	0x3fc274f0528d0178	0.1441936877327057
244	0x3faa9265f117a9b0	0.05189817970297683
245	0x3f82e9992d6acc05	0.00923461599209042
246	0x3fcb327903b72da0	0.21247780496046875
247	0xbf9e5d5d5f8b5667	-0.02965303321510362
248	0xbf07403ab93a26a9	-4.434756479294633e-05
249	0x3fc4bec7964312c7	0.1620721324635694
250	0x3fb6ca0c3b543116	0.08902050445994222
251	0x3fc0bc5cc641c4fc	0.13074836426270753
252	0x3fcb736a501751e8	0.2144596949643891
253	0x3fdf7a98e8b03b3e	0.4918577453944869
254	0x3fdea0a6069cb55a	0.47855520864216816
255	0xbfe2176c0d9bfcb9	-0.5653591409499291

bias f8 [42]
0	0xbfc0961a0d888536	-0.12958074246220413
1	0xbfc3b76921ec04b4	-0.15403474956841523
2	0x3fcc049def6b89a6	0.21889089765961706
3	0xbfbc406423f098ec	-0.11035753133237208
4	0xbfd2bfd147a1a8c4	-0.2929576110387979
5	0x3fb97607e3d8d18a	0.09945725739163983
6	0x3fc14b70f232d891	0.13511478258232448
7	0xbfc32804a35ede4c	-0.14965875603751255
8	0x3fd3993341049efc	0.30622559880656275
9	0xbfc79465c5212e01	-0.18421623349637176
10	0x3fcb38d38c639fbb	0.21267170290889034
11	0x3fc520c8eb2c4add	0.16506301386888014
12	0xbf7045c89695cd60	-0.00397280077719428
13	0xbfc9432f79a4041a	-0.19736283721434306
14	0x3facd344c97a16b0	0.05629935225901528
15	0xbfa52dd0efd3733b	-0.04136517455638119
16	0xbfcc792771db31fb	-0.22244732913385676
17	0x3fc6272ccdeccebf	0.17307052664692965
18	0x3fd0ca4b3fd125b1	0.262347042390128
19	0x3fc62ad7bd979511	0.1731824565642133
20	0x3fbfbcc4c9ad28fb	0.12397413181057353
21	0x3fa580a86b1bc88a	0.041997206759234976
22	0xbf92f426d0ca737b	-0.018509489530163386
23	0x3fc1387f49e15240	0.13453665835790396
24	0x3fd5f27f81fe1eb6	0.34292590803714107
25	0x3fcb4264e93146b3	0.21296368967391785
26	0xbfb1178df4562514	-0.06676566329237615
27	0x3fc00e023532b568	0.12542750928461577
28	0x3fc2683e8cd1bf3a	0.1438062846750599
29	0xbfc4d7e12aae80dc	-0.16283812126221775
30	0xbfc4a9728ba04d81	-0.16142112558064173
31	0x3fa259043ba4a60b	0.035835392265948306
32	0x3fb61e7db2c896b3	0.08640275587876083
33	0xbfcb5fb6aedb210f	-0.2138584474362308
34	0x3f7ea7925e9d438d	0.007484027630042867
35	0xbfbeb4881e2c8919	-0.1199421952883636
36	0xbfbb651ed408a7ba	-0.10701172520262406
37	0x3fc2232b957d1b0b	0.14169831084492332
38	0x3f9578ac399f554d	0.02096814252566519
39	0xbfc394b5361bbfc5	-0.15297570364009352
40	0x3fd48e6991e350c7	0.3211921620070481
41	0xbfce0b9feea220e7	-0.23472975875871002

weight f8 [6, 42]
0	0xbfbff114ae93fbca	-0.12477235090408026
1	0xbfc0782844bae662	-0.12866690975151857
2	0x3fd2209b6e732aa2	0.28324018274421736
3	0xbf981e6a4a1e211b	-0.02355352475527282
4	0x3fb4ae5aa3c2f448	0.08078543184360953
5	0xbfb895228e35ab47	-0.09602561923899798
6	0xbfa139c0ad131454	-0.03364374268270667
7	0xbfc8e18038438106	-0.19438174006700865
8	0x3fba399c0c102799	0.10244155210980778
9	0xbfc1d02fabb07afa	-0.13916583903570495
10	0xbfb4bb05057f076d	-0.0809786928575968
11	0xbfe5824c69179133	-0.6721555759982379
12	0xbfab8370c14e468a	-0.05373718604745388
13	0x3fb607f717933bfe	0.08605903935971068
14	0xbfb5d915620bd218	-0.0853436817522567
15	0x3fb9a6f70a7debe5	0.10020393377446586
16	0x3fb2aec9c3353173	0.07297955528082926
17	0x3fce96eac881c916	0.23898062506084078
18	0x3fb7dd994aa007a0	0.093225079268477
19	0x3fb456bdbb67b1c1	0.07944856477087738
20	0x3fafc3758159d930	0.06203810886374794
21	0x3fc1f11841f6b8fe	0.14017012806784374
22	0x3fdd67e8162be9c5	0.45946695485295336
23	0xbfbc0b8a8e888563	-0.10955110530678307
24	0x3fba2f42a17d129b	0.10228363459197924
25	0x3fb2f9c8c8d3be6a	0.07412390616422618
26	0x3fca6d6fa05ebf8b	0.2064647229249171
27	0xbfdb01fadf1ee218	-0.4219958475983119
28	0x3fa27fd69c433299	0.036131578993807874
29	0xbfcce2a7f59b15d2	-0.22566699497671877
30	0x3fa930d4807c78f6	0.04920066898761093
31	0x3fbae65510c1c11b	0.10507709178068973
32	0x3f66612897d69520	0.002731875689920074
33	0xbfa256be49538e61	-0.0358180489072566
34	0xbfb67c9c7a424c9b	-0.0878389166339723
35	0xbfb0ec4e9216e352	-0.06610575739513294
36	0xbf82589c92b246b1	-0.008958075739687517
37	0x3fd24aac1317e35e	0.285807627340139
38	0x3fb5e34914fbcd47	0.08549935114188144
39	0x3fbef66a0e1bd39a	0.12094748348665832
40	0x3fb9ddcbb4e9340e	0.10104058424731496
41	0x3f8b78755677b7af	0.013413349820407065
42	0x3fb70ef31709f502	0.09007186233971612
43	0xbfc3f7db06e849f9	-0.1560014518477855
44	0x3fd2abdd37e67254	0.2917397542858329
45	0x3fc9af95acc8f7d9	0.20067091881531843
46	0xbfa5fab43a39e0fe	-0.042928344829251217
47	0x3fc5300be9c416c3	0.16552876390794866
48	0xbfc39d0dc773229b	-0.153230402362415
49	0xbfa22619764900f6	-0.03544692582045343
50	0x3fbce8a021593abd	0.11292458357022901
51	0xbfc6c8154466761d	-0.17798105087142427
52	0xbf83d1a967bad639	-0.009677241781314115
53	0xbfd14cace29a629c	-0.2703048909111574
54	0xbfb208b108155f28	-0.07044512221670785
55	0xbfdc61d81a783b92	-0.4434719332211269
56	0x3f98fce8b580383b	0.02440227134507487
57	0x3fc3efe581dbca15	0.15575856056928275
58	0x3fba366852f5b5ab	0.10239269280801604
59	0xbfd5959eef76184a	-0.33725713143247005
60	0x3fc2bc17f627f41f	0.14636516112651152
61	0xbfb5002394784a8e	-0.08203337073090664
62	0x3fa73e661aa02cd9	0.045397940397458654
63	0x3fa999bc9d980052	0.05000104354621783
64	0xbfd3c0951819ab0f	-0.3086292968134083
65	0x3fad87041f13a563	0.05767071608881726
66	0xbfc4be47eb1c98a1	-0.16205691318572682
67	0xbf89882c17505494	-0.012466759168129372
68	0xbfb06920b43918ed	-0.06410412216164092
69	0x3fd721b9b7e6ef3b	0.36143343886554974
70	0x3f8fcd13ad204803	0.015527871819390532
71	0x3fdd1da15c765479	0.45493349103464414
72	0xbfd2073954ae1ddd	-0.28169091481728775
73	0x3fc3a6366910295c	0.15350990419421862
74	0xbfb418523c2b9efe	-0.07849611252788333
75	0x3f9df830a960e539	0.029267082536738463
76	0x3fa8dcb85d0ce15b	0.048558961256676546
77	0x3f9548bb95f5992d	0.020785265949052324
78	0x3f8e427a1dbfc10a	0.014775232346409446
79	0x3f93d8d5e77cda4f	0.019381849531067193
80	0x3fadec286823df44	0.058442366325776735
81	0xbf90c6c04571a920	-0.01638317512371501
82	0x3fc7021e9669046a	0.17975218147515487
83	0x3fc26307df3e02ac	0.14364717865466525
84	0xbfc252a83ffc2b3a	-0.1431474983622481
85	0x3fb59f1c2a5e2b18	0.08445907625552385
86	0xbfd323450cbb5504	-0.2990276932080891
87	0xbfce784d5b69cf78	-0.2380463310579406
88	0x3fc873509041808f	0.1910191254019122
89	0xbf8c2b7705f7f604	-0.013754777784011026
90	0x3fd0453ea111c233	0.2542263577406942
91	0xbfc1e4e70dba7dda	-0.13979805155120922
92	0xbfc314ef38042259	-0.14907636866725474
93	0xbfc5b5e73ad2fdb3	-0.1696137463786563
94	0xbfc1fb5553ea6216	-0.14048258397521413
95	0x3fd84ff474d6d90c	0.3798800602920813
96	0x3f9c643b29e9af05	0.02772610133472055
97	0x3fb37a8edf82132a	0.07608883816471904
98	0x3fcedb49152cd39e	0.2410670617479384
99	0x3fd028ae04314d6d	0.2524828949874152
100	0x3f9981112da0dade	0.024906414422924843
101	0xbfc5211a6b26b381	-0.1650727294158081
102	0x3fc4e5bbde26f9b6	0.16326092097547268
103	0xbfb1ae6ee503b8dc	-0.06906788912940293
104	0x3fc8700354cac700	0.19091836586226663
105	0x3fb74f7c952ff75d	0.09105662004728061
106	0x3fc12e971e7c1511	0.13423432339201516
107	0x3fb869cda8ea0b34	0.09536443113215115
108	0x3fd4a1dd11ba7032	0.32237936717297366
109	0xbfb25655a48cb6d2	-0.07162986056638523
110	0xbfb0ec1821afe67c	-0.06610251257361627
111	0x3fae6b2083402e78	0.05941106416875369
112	0x3fc5b2130a1ec56b	0.16949689859533676
113	0x3fc91dc53cd91659	0.19622102233022323
114	0xbfd81b1ae5d5b667	-0.3766543621521578
115	0xbfb80f0c3127498a	-0.0939796085361079
116	0xbfb305b298f6b46d	-0.07430568918671705
117	0xbfb49ea9e99c841f	-0.08054601624873257
118	0xbf7255ad629d5ee5	-0.004476239477149345
119	0x3fb0a84cb9668454	0.06506804968241059
120	0xbfcb9c329c62cc02	-0.21570427547484888
121	0xbfc0b1ed6e9db9bb	-0.13042991543939117
122	0xbfbe94c9ad7098a8	-0.11945782169695696
123	0xbf73482c56676051	-0.004707501595895351
124	0xbfb65e7b16c82760	-0.08737916284749536
125	0xbfbf78d97b4c68e1	-0.12293776760307963
126	0x3f98c43f3fca762b	0.024186123150334787
127	0x3fbd6fe692223081	0.11498871867860495
128	0xbfb3f6d8920112fd	-0.07798532070689741
129	0xbfb8783990c270fb	-0.09558448585670824
130	0x3fa10d7b8a663ab4	0.033305988926362856
131	0xbf83ee07425220fb	-0.00973134680886333
132	0xbfb8a96b54be9a49	-0.09633513277967966
133	0x3fd5f6a453fef6fd	0.3431788273118029
134	0xbf9c2eec1d0f7ed2	-0.02752274443980591
135	0x3fcca198fee6f042	0.2236815685881784
136	0x3fc0f3944a7c8137	0.1324334491446366
137	0x3fa1ed38f9b2e093	0.03501298950271905
138	0x3f83fb9a15d9ab17	0.009757236282174326
139	0x3fb80579105ba76c	0.09383350991597944
140	0xbfd31f76bb324eee	-0.29879539757642604
141	0xbfdcb32b6e606051	-0.4484356477637493
142	0x3fbd12eb9a4c017b	0.1135699512196932
143	0x3fc29181f97fba73	0.14506554300847405
144	0xbfd3e1315325cf5a	-0.31061967010395153
145	0x3fb3ee5e10e277a1	0.077855948564745
146	0xbfb3f9851f32ceed	-0.07802612315827746
147	0xbf9ebf7ca7950ccf	-0.03002733967629184
148	0x3fb5e9ba17f4636e	0.08559763989286548
149	0xbfb4d6d9c39a8895	-0.0814033606098142
150	0x3fd4a6eb6cc85b19	0.32268796561531726
151	0xbfc6a2112b2dd2e0	-0.1768208943209606
152	0x3fa14cc21414463a	0.033788742972444344
153	0x3fc28a4f365f978a	0.14484586863471477
154	0x3faa8d5bd2ad71fc	0.05185973116633488
155	0x3fa5b5b17d42bc25	0.04240183500348164
156	0xbfc0685986416b79	-0.12818450026938047
157	0xbfc5cf55e6d25de8	-0.17038987894623792
158	0xbfc980a92d131142	-0.19923891735937543
159	0xbf8df91101f504dd	-0.014635212776399726
160	0x3fb2742ebb185c9d	0.07208530490639693
161	0xbfa7aeb679761121	-0.046254827811056616
162	0x3fb2ef17768a0eb3	0.07396074909234578
163	0x3fc4b7fde084b0ce	0.16186498129662258
164	0x3f9e31580c9eb03c	0.029485107202774183
165	0xbfc2e964aa3c13bb	-0.14774759590377848
166	0x3fcdc8bc1c1b8d93	0.23268844006007025
167	0x3fc56d3fbd91a1fc	0.16739651447575443
168	0xbfbda70cb7680410	-0.11583022573178448
169	0xbf9e45c8149d6c65	-0.029563070543514054
170	0xbfca50a1434cd450	-0.2055856302846757
171	0x3fc139840645aa6e	0.13456774050003467
172	0xbfb5e2bc2a17cced	-0.08549095180187623
173	0x3fc363d5a0d34baa	0.15148420670319968
174	0xbfc249526de1e8fc	-0.14286260953287655
175	0xbfbd7bc32a065661	-0.11516971374506958
176	0xbfbd0ffb674cba3f	-0.1135251166531157
177	0x3fbc2eeed1933a21	0.1100911389978383
178	0x3fa29973ec68eddd	0.03632700215208804
179	0x3fddb8594afac3da	0.4643767578336885
180	0xbf90c78351227af4	-0.016386081530636212
181	0x3fc25d2db398e8f5	0.14346858281516686
182	0xbfdf71c8feceaec5	-0.4913198936799115
183	0xbfb408e0d79a8cfa	-0.0782604719520811
184	0xbf941d9d1c50e515	-0.019644217351218424
185	0x3fc7d2c52f36fdb6	0.18611969762240016
186	0x3fb0ba00e5eab769	0.06533818829731576
187	0x3fb9795cae43b73b	0.09950808767800094
188	0x3fc95ffc8c34afd2	0.19824177595125875
189	0xbf74e4dd6bd0fb91	-0.005101075102230805
190	0x3f80f674189be4e7	0.008282572747236162
191	0x3fb37a581d1c413e	0.07608557425215154
192	0xbfe14c51be74c321	-0.5405663223119498
193	0x3fc3a7774160cda2	0.1535481518963993
194	0xbfb5b9078bd0e617	-0.08485457576252774
195	0xbfb442c4f73b181d	-0.07914382015141581
196	0xbfb05992f39ea30b	-0.06386679122682552
197	0xbfa6b4d5631d7d0f	-0.04434840044882026
198	0x3f7e2b55c54f2ae2	0.00736554626650829
199	0x3fb6c315384f7007	0.08891422867549191
200	0xbfbe280f8ebf020b	-0.11779877886784378
201	0xbfbeae20bf3882c3	-0.11984448116755701
202	0x3fb18aa114c40956	0.06852156407334084
203	0x3fada23167dbf434	0.05787805931866111
204	0x3fcc273a3f86749b	0.21994712926690316
205	0xbfbd310dcf9e7403	-0.11402975386450014
206	0x3fa73a9a676a24ea	0.045368981479507145
207	0x3fb68851a44e33b7	0.08801756154407668
208	0xbfb332876c37807f	-0.07498976127635791
209	0xbf8b170346414067	-0.013227487164982855
210	0x3fd3b134021f863a	0.30769062239969325
211	0xbfc5a30b05d71dd8	-0.16903817925616127
212	0xbf920e21603da442	-0.01763202810198928
213	0x3fcce5fbedde755f	0.22576855768867696
214	0x3fc21b1df1262fca	0.14145254397260337
215	0xbfae9473938d8bf9	-0.05972634483511991
216	0xbfbbf7fe55f786f5	-0.10925283049393981
217	0x3fb426e7e3e1f53a	0.07871865571538175
218	0x3fb3e86143b1aefd	0.07776458647429858
219	0x3fbad17249cc6459	0.1047583990260973
220	0x3fc30bd0283c5bb3	0.14879800762784398
221	0x3fb8e533c30fc314	0.09724734794850703
222	0x3fa61cea2295c85a	0.043189350816547914
223	0xbf8f97b01343563e	-0.015426040256367842
224	0x3fe17938a9224476	0.5460475257297179
225	0xbfb8fc646345d0e5	-0.09760119842195854
226	0xbfd16f3df99e4f6b	-0.2724146783523255
227	0x3fb8573ccd9403b7	0.09508113879202439
228	0xbfb1ac423f332757	-0.06903471034015972
229	0xbf9b020034cb6d5b	-0.0263748199675836
230	0x3fc03d48c29b1582	0.12687024595485857
231	0x3fb2c9aad49dda61	0.07338969889483728
232	0xbfd65ad2ebd007cd	-0.3492934515817268
233	0xbfb4788e88e52f27	-0.07996455042046745
234	0x3fc46841affe52be	0.1594316586821573
235	0xbfbb10c3de1ff757	-0.10572456524820716
236	0xbfc6de8b453d2789	-0.17866650467686565
237	0xbfbd87b56788cdc5	-0.11535199907012046
238	0x3fbf68098b591ca0	0.12268123294880917
239	0xbfcb6666e920e66a	-0.21406256087520897
240	0x3fd14ce6412644bf	0.27031856882338084
241	0x3fada8f1b940ac83	0.057929567207190245
242	0x3fc7fdc2c4184578	0.18743166518155951
243	0xbfc2181c35bf8283	-0.14136078476350997
244	0x3fb9be41b5ac6e6f	0.10055933652295733
245	0x3fa50a8a83dc8662	0.04109604701649229
246	0xbfa36ad88f28aa46	-0.037924544787831624
247	0xbf92de814d3126c6	-0.018426914535928395
248	0x3f971d62cc5b63a2	0.022573035929642445
249	0xbfb093496233f540	-0.06474741599591471
250	0xbfb8c640dbd25d7a	-0.09677510611287757
251	0x3fad6fc18a001879	0.05749325570654746

bias f8 [6]
0	0x3fb59b84e039cb55	0.08440428232442561
1	0xbfa66683ae86b327	-0.04375087266394067
2	0xbfc069351a61c480	-0.12821067608050285
3	0xbfb1420f09858636	-0.06741422636471203
4	0x3fb6cf1d11b7ef66	0.08909780199604497
5	0xbfc5f313daae100c	-0.17148063829165527
