part_4/Reinforcement_Learning/models_lab1/model2_winner_top_ver2.pt (torch, 30415 bytes, 6 tensors)

weight f8 [28, 14]
000000 47 dc d1 c8 3c 9d b8 bf 84 1f a5 e1 e7 c5 e3 bf
       -0.09614925291849473 -0.6179084212426322
000010 f7 b6 a5 b1 13 1c e2 bf 65 65 b0 03 46 23 c6 3f
       -0.5659273595499305 0.17295146160249
000020 c9 13 8c 45 eb 01 a3 bf 49 20 70 33 f7 ee e5 3f
       -0.03712401603664934 0.6854206089638036
000030 fc 49 81 ad 45 e1 c6 3f 66 59 fa 71 6c a6 bd bf
       0.17874976131368203 -0.11582067282356476
000040 fb 0c ea 01 5b 8b bf 3f 7a 56 52 ac 22 14 a2 bf
       0.12322014614806058 -0.03530987123046443
000050 a2 67 92 af a8 77 c2 bf 9f d6 28 b0 40 6e c4 3f
       -0.14427670071455362 0.15961464501895237
000060 2d e5 28 a2 6c cf bf bf 60 f1 c7 b9 2d 1a bb 3f
       -0.1242587943933315 0.10586820398015595
000070 fe 7d 76 34 4a 37 c9 bf 76 90 37 3e b5 83 e1 bf
       -0.19699981271422468 -0.5473276343514175
000080 7d 2a 01 f9 16 4a ee 3f 44 88 52 07 77 24 d1 3f
       0.9465441573496062 0.2678506442554218
000090 6c 61 01 b8 3c 03 d4 3f df dd 1a 70 b2 5a 95 3f
       0.31269758195187225 0.020853794185965554
0000a0 2e 1c 9e 41 51 0f c6 3f de b5 f0 84 63 bd b8 bf
       0.17234245017991284 -0.09663984294521508
0000b0 cf cc 30 c4 84 8e c8 3f 4c 28 30 9a 42 2e be bf
       0.19184932307834976 -0.11789337410314821
0000c0 4a 8d 15 95 3d 38 c0 3f 1e 3f 56 63 0b 38 94 3f
       0.1267163255643971 0.019745042741816758
0000d0 0c cf e8 4a 4e 09 c2 bf 98 64 4a 38 b9 36 b6 3f
       -0.14090899141012192 0.08677251457483448
0000e0 c9 43 86 f6 80 9c d2 bf ba b7 e6 1d 16 3b 94 3f
       -0.2908022315469308 0.019756646704699433
0000f0 b9 b5 0b cd 8d 50 dd 3f d6 c5 8a 3b de b8 e1 bf
       0.4580416204833813 -0.5538169062548899
000100 3d 41 2f 64 ed c3 d4 bf 2c cc ad 8e ff ad ee 3f
       -0.3244584539761666 0.9587400232979966
000110 0a 72 d9 c7 fe 92 b2 3f 35 64 b2 4c 23 1e a3 bf
       0.07255546931396153 -0.03733930884590856
000120 5c 8e 59 2b ac 61 a8 bf 9f 67 28 99 ad 28 b5 3f
       -0.04762018231556617 0.08265194882588255
000130 91 eb 44 7c a3 4a 60 3f 50 c0 e1 38 a3 7e bd 3f
       0.0019887154650439294 0.11521358622280897
000140 02 a2 bd 87 b9 b2 96 bf d8 68 b7 1c c1 75 b3 3f
       -0.02216615572925385 0.07601553870282218
000150 63 4e 10 08 d5 0d e4 3f 4e 6e 37 9b 3a 7d e6 bf
       0.6266884953970017 -0.7027867347309866
000160 d0 0a b4 a5 2c 01 d8 3f fa d5 fe 9e 07 bc e1 bf
       0.3750716798969451 -0.5542028527622158
000170 8c a3 08 38 27 2c e0 3f 51 ac 3c 27 5c 61 8b bf
       0.5053897947701542 -0.013369293162744851
000180 53 39 b3 72 03 5e 78 3f 0b 5d e5 e3 b4 8d ab 3f
       0.005949033230719119 0.05381551057751651
000190 a0 62 67 3f 41 99 b2 3f bf 4c 01 fd f7 13 95 3f
       0.07265098379083179 0.020583987061695504
0001a0 c7 04 ca f6 9c ad a7 3f 43 c8 dd 55 d8 d2 a0 bf
       0.04624643814623535 -0.0328586201493555
0001b0 ea ea 45 c2 56 bb c4 3f 57 2e ac 40 e9 38 81 3f
       0.16196712957374554 0.008409330640936448
0001c0 fe f4 be 5b 9f 6c 9d bf aa be 00 22 4c c1 ac bf
       -0.02873467442963306 -0.056162242079492344
0001d0 7a c3 37 17 ab d1 c2 bf ea e0 4e ec 3d 3a bd bf
       -0.14702356942828115 -0.11416995066872784
0001e0 24 bd 0f 56 7a 06 b3 bf ac a6 e0 5d f5 eb ce bf
       -0.07431759453878733 -0.24157588085045256
0001f0 11 15 8f ae c1 67 ce bf f4 94 fb c3 5e 3b a8 bf
       -0.23754139922508746 -0.04732795851104213
000200 88 43 a0 49 89 dc b6 3f 25 df 24 6b 4f 37 89 bf
       0.08930261657248029 -0.012312527138973526
000210 40 d8 b6 fc 6b 5c d0 3f 20 e9 d9 39 63 ba b9 3f
       0.2556409805214379 0.10050029909499303
000220 81 8c 6c c2 9f eb c4 3f 42 2d 19 11 02 d4 c2 bf
       0.1634406756721525 -0.1470949729431173
000230 d3 0d 72 48 a4 e6 ce 3f c8 e2 d1 66 e5 df c2 3f
       0.24141362702731203 0.1474577667284136
000240 0d a7 c6 d5 af 6c e4 3f bc bc c2 63 5c 43 e2 bf
       0.6382674384414898 -0.5707227657748244
000250 ac 1c af bd a6 3a b7 3f 88 7d 72 e0 b3 c7 c4 3f
       0.0907386983009128 0.1623444410260897
000260 f8 cd 9d ca 7b 64 b2 bf dc 36 6f 02 c9 65 c8 3f
       -0.07184575745286981 0.1906062375914449
000270 91 81 b1 d9 a7 be 9f bf cb 4e 1e bd 8c 69 c1 3f
       -0.03100073114581076 0.13603362306877495
000280 96 99 f6 78 46 0b d1 3f b8 8f 1f 5c ea ff b4 3f
       0.26631318867512144 0.08202996014693908
000290 80 60 21 13 17 da a1 bf 16 ff 6e 67 82 d4 bb 3f
       -0.03486702068829661 0.10871138596757776
0002a0 81 cd 00 68 be 2f dd 3f 43 3c 61 1a c2 c8 e4 3f
       0.45603904873424744 0.6495066180449459
0002b0 7a 71 a3 6b b7 2b d4 3f a2 7f ca a6 da 15 c9 bf
       0.3151682425648442 -0.1959794344338635
0002c0 e9 b4 69 31 36 a1 d2 3f 0f b0 4d ae 16 b0 dc bf
       0.2910895807788863 -0.44824759504149453
0002d0 3f 46 1b 31 10 6c c3 3f a3 26 d7 50 22 e8 b6 bf
       0.15173532865314773 -0.08947958444255248
0002e0 55 43 65 0c 8b 33 64 bf d0 72 77 fd 74 cf cb bf
       -0.002465983942933662 -0.2172685849790441
0002f0 c8 37 da 05 9a 1c c7 3f c2 f1 cd 94 3a 21 cf 3f
       0.1805603531433333 0.2432015635094001
000300 40 99 71 5a df be c9 3f b6 19 a9 70 c3 7c bc bf
       0.2011374656314704 -0.11127873898030924
000310 6e da 52 e9 49 3b dd bf e9 bf 84 51 0f 48 e0 bf
       -0.45674369607460263 -0.508796366897511
000320 5e 9d 36 46 79 46 d2 3f 13 c7 cd 0d 35 d9 d8 3f
       0.2855513749768387 0.3882572779467505
000330 97 77 c6 24 4f 0d d8 bf 96 e8 1d 4b 3d b6 e3 3f
       -0.375812326348631 0.6159960238576498
000340 9f 78 69 c2 41 df ac 3f ae b5 3e 2b 5b 09 cb 3f
       0.05639081476395912 0.21122302638597773
000350 fe 01 b0 12 a3 b5 c8 3f 95 f7 35 3f 09 6c b8 bf
       0.19304312145688124 -0.09539850037796634
000360 23 25 80 60 89 11 b4 3f 94 ff 20 e9 ff de c9 bf
       0.07839258771868578 -0.20211790927168904
000370 48 64 8e 78 03 14 bd 3f 8c 2c a7 2c 34 8a c6 bf
       0.11358663266436608 -0.17609264545749104
000380 03 b5 e6 25 77 36 7d bf 3c 40 3d fa 3e 8c 82 3f
       -0.007132020399166497 0.009056560527511796
000390 02 89 0b cc 93 31 d3 3f 8d 12 56 e2 5f 69 d0 bf
       0.2999009602191479 -0.2564315519632963
0003a0 eb c1 70 05 d1 d5 8c 3f 64 d1 ea d6 0c 3c ce 3f
       0.014079697588472015 0.23620758527762142
0003b0 7b 30 a5 d7 67 a9 b1 bf af 9f ab cc 92 87 c6 bf
       -0.06899117483880161 -0.17601237291023383
0003c0 7f 20 38 f7 2e 01 a6 bf 11 50 a0 ff 1f 22 a7 bf
       -0.04297777908146915 -0.04518222804486539
0003d0 f4 04 c7 58 9c 59 c5 bf 64 33 46 b9 ae ff 73 3f
       -0.1667972024425023 0.004882509722290294
0003e0 e9 e8 31 10 ce fb c1 bf 0e 74 43 81 f5 9a bd 3f
       -0.14049697676438846 0.11564573675009646
0003f0 01 f9 da 61 40 2a d9 bf 3c 8b 8d 38 74 41 d0 3f
       -0.3932038264864702 0.2539949943804236
000400 50 c2 f2 70 4a 6f d0 3f da 42 07 bf f4 8a ea bf
       0.2567926505098841 -0.8294624072096568
000410 1e a4 a1 5a 04 56 e6 bf a7 74 37 8b e0 3f e2 3f
       -0.6980001230377899 0.5702975005221064
000420 35 28 01 78 37 31 c4 3f 72 33 c3 7f 64 3e ad bf
       0.15775197372050945 -0.05711664256668926
000430 20 c8 84 f6 fd af bb 3f 2a 5a 82 ba 2a 68 cd bf
       0.1081541754581683 -0.22974142176526985
000440 84 9b a9 74 87 2f bd bf 18 d2 58 9a bd 17 c3 3f
       -0.11400648687559395 0.14916200672600222
000450 7e 08 6f e2 ec 62 c2 3f b0 38 c3 f6 ce 4b bd bf
       0.14364396149000308 -0.11443799519040243
000460 0d 8f 83 ca 2a bc 87 3f b1 06 d3 b2 85 65 a8 3f
       0.011589369111284076 0.047649553374424676
000470 e9 16 55 79 da 98 c4 bf 4b 0b 05 90 31 68 af bf
       -0.16091471599991472 -0.06134180911114714
000480 8e 10 60 b8 16 1d d0 3f 44 7d 2e 5c a0 0e c7 3f
       0.2517754364528252 0.18013386250548014
000490 36 fd da d4 0f c6 c2 bf 06 93 ad a3 d6 c1 a7 3f
       -0.14666936772662503 0.04640074489615213
0004a0 f7 72 62 a9 29 e7 c2 bf f3 ba c4 d2 74 6a c3 3f
       -0.14767952700358197 0.1516862897055585
0004b0 fc bd f4 ea f6 b6 c8 3f 06 2f 74 b7 8f b4 c2 bf
       0.19308363411390406 -0.14613529641825823
0004c0 74 5c b4 2b 78 64 c8 bf cd 5f 43 e7 40 0d b0 bf
       -0.19056608327875646 -0.0627022328002333
0004d0 3f 42 a1 a3 84 ea 94 bf d3 22 73 d0 11 ee 83 bf
       -0.020425865637948567 -0.009731425451165709
0004e0 6a 83 f4 27 e9 2b d0 bf 57 24 d2 2d 4d 01 aa 3f
       -0.2526801004587954 0.05079117950760608
0004f0 df 01 0d 43 68 d4 c2 3f 3e 4e 92 55 9c 61 cb 3f
       0.1471071555515797 0.21391634157463274
000500 00 b2 a8 06 84 1e d0 bf 2b f8 04 1d 5b 3e c7 bf
       -0.2518625321415868 -0.18159045140231575
000510 3b 23 a0 ad 6f ae c8 3f 0e 1a f9 ce e9 cf b5 3f
       0.19282337167558147 0.0852037554078395
000520 91 d4 b5 db 76 f3 b9 3f 07 1b 80 7f 73 6b b6 3f
       0.10137122024555568 0.08757707464983976
000530 fc 18 69 b9 7f 7b ca bf c0 7f e5 9b 77 2f bd 3f
       -0.2068938880276575 0.11400554233614368
000540 b4 0d 7d 99 df ce de bf 92 be e1 f2 ca e8 d5 3f
       -0.48137655247793565 0.34233354300429497
000550 82 32 b0 c9 e1 2b e5 3f bd ca c4 35 3a d4 cb bf
       0.6616066874717748 -0.21741416573930464
000560 80 56 0f 3a db ec e1 3f f0 0d 18 7a 4e cb d6 bf
       0.560163129232663 -0.3561588470767836
000570 0a 69 0e dd 00 4f 8b bf 6d 49 32 67 12 18 bb 3f
       -0.013334280725576981 0.10583605784839785
000580 61 13 39 c7 af a6 ab bf 30 94 80 f5 bf f5 b4 3f
       -0.05400609309120941 0.08187484496791408
000590 22 4d 95 49 f6 04 92 bf 65 40 49 5c 48 c3 a6 bf
       -0.01759705375782262 -0.044458638444326216
0005a0 3d ae 4e 72 ad 28 c1 3f 30 e7 0d 2b 9b b3 be 3f
       0.13405387956059825 0.11992807198649014
0005b0 03 a7 bf a0 0e 2e e8 bf e8 74 54 08 37 72 e5 3f
       -0.7556222095128934 0.6701922571843655
0005c0 b1 42 30 32 57 3f d1 3f 30 5e 2f cc da a8 a3 bf
       0.2694910040018313 -0.038397633957796606
0005d0 0b ba b3 6d 55 8d dd 3f aa be e6 cb 67 9d d0 3f
       0.4617513247784763 0.25960726654282473
0005e0 11 68 51 fa bb 78 93 bf 1d 87 f5 89 ae 92 bb 3f
       -0.019015252259443175 0.10770693653242032
0005f0 60 65 94 8f 8d 71 3d bf 09 59 2e 6e 80 b5 b7 bf
       -0.0004492731673778252 -0.09261324586836762
000600 e5 38 65 97 fb 04 a7 bf 78 3b 0e 4b 66 ef ac 3f
       -0.044959890585788455 0.05651397386747353
000610 cb 0c 7e 9a fc ad b5 3f 23 02 36 cd 5b 25 1d 3f
       0.0846860768488568 0.000111182907224013
000620 86 9b bd 20 b7 b9 c1 3f 22 15 d0 4d 1f ca ef 3f
       0.13848008249916804 0.9934231300145806
000630 17 e2 ee 17 2d 13 6d bf 91 a3 53 18 bf 1e dd bf
       -0.0035491829616740678 -0.45500161529212685
000640 5e d4 c1 b9 34 d9 d1 bf fd 66 2e d2 59 28 96 bf
       -0.2788821996721874 -0.021638301328130705
000650 d8 33 a0 47 ce 03 b9 3f 58 aa 24 45 3a 46 88 bf
       0.09771432160069027 -0.011852698550304172
000660 0d 0b b6 f9 41 5a b8 3f e6 d7 b5 ff 89 c0 a2 bf
       0.09512722345793297 -0.03662520643676696
000670 e2 99 2b 35 4e f6 91 3f 45 00 76 83 b5 e8 a8 3f
       0.017541143412836642 0.04865042905567
000680 f7 6a c9 a0 2c 2d ad 3f 40 c7 c8 e4 6f 91 b0 bf
       0.056985277774137026 -0.06471919379762614
000690 03 d4 e6 e9 88 e3 d0 3f 71 1c 85 df 19 b4 c7 3f
       0.2638876232334157 0.18518374837933352
0006a0 c2 94 a7 9d 06 7d c6 bf fb fc fd cb 3f 83 b5 3f
       -0.17569048593501263 0.08403395395542994
0006b0 91 60 c0 42 6e 97 b9 bf 3e b7 00 25 68 02 8d 3f
       -0.09996689920115133 0.014164746884570808
0006c0 a6 3d 8c 08 9e cc b9 bf dd 1d e9 c1 69 83 cb bf
       -0.10077846249281794 -0.214947910006443
0006d0 e7 ef 2b fe 6a 6b a1 bf 77 65 32 54 06 4d cb bf
       -0.03402265885048888 -0.21328810797858086
0006e0 9a 3f 33 a3 dc 09 c3 bf df 5f 25 ab 9f b3 cf bf
       -0.14873846024283638 -0.24766918045747752
0006f0 68 5b 53 dd 9b 88 cf 3f 6e b4 80 14 2f a4 ce 3f
       0.24635647112765047 0.2393854951964473
000700 5f 91 d6 a8 58 f6 de bf e8 f8 e1 b9 a3 e2 e6 3f
       -0.4837857865152468 0.7151659613153045
000710 95 7f 82 f9 3a cf ea 3f 89 d6 d8 f7 67 b5 bb 3f
       0.8377966759908185 0.10823678780510639
000720 9e f7 39 cd c2 e5 b3 bf b3 6f de 70 8a 69 e6 bf
       -0.07772462377940179 -0.700383396575026
000730 79 9e 9a 93 6a aa c2 3f 2c 8d 51 da 17 74 ad bf
       0.145825693199402 -0.05752634563466538
000740 e0 99 4d b0 32 6c cb 3f 99 e1 e0 ae c8 61 c1 3f
       0.21423944099951964 0.13579662837015574
000750 b5 1c cc 72 31 4c b7 bf a9 7c 2f 8e f8 75 c0 3f
       -0.09100636532467628 0.12860018675471466
000760 92 5d b8 6b cd e6 b8 bf c1 27 e4 4c 13 19 b6 bf
       -0.09727176551711228 -0.08632012011744818
000770 b3 23 0b 44 fe bf bd bf 56 7e 55 2f 34 cc b2 bf
       -0.11621083413332549 -0.07342840343107446
000780 41 cd 99 d1 a3 99 d1 bf 4b 58 57 ca bb f4 cd bf
       -0.27500243634058924 -0.23403117542210547
000790 36 fa 3f 06 bd cb cd 3f e7 29 9d 27 fa c1 ab 3f
       0.232780101825442 0.05421430333679549
0007a0 76 d6 8f a3 e1 4c b4 bf 42 1d bf ed ff 33 cd bf
       -0.07929811709603904 -0.2281494055625704
0007b0 63 93 a5 29 73 07 d2 bf df d6 06 28 9f 99 bb 3f
       -0.28170470301693323 0.10781283118452788
0007c0 09 51 29 33 ea d3 bf 3f ce 87 ce 4f df d3 d1 bf
       0.12432731389100495 -0.2785566596377266
0007d0 37 54 e7 e3 53 f5 ca bf 41 26 82 62 bd 65 c9 3f
       -0.21061180713755487 0.1984173518178967
0007e0 8b 10 07 51 00 fb e9 3f 10 9b 37 95 c0 a7 e1 bf
       0.811889799363159 -0.551727572860587
0007f0 28 b3 e5 86 1b e8 e0 bf 87 7f 2f 86 69 1b b1 bf
       -0.5283334383690077 -0.06682452703489448

bias f8 [28]
000000 93 aa 91 13 eb 24 8b 3f ac 05 7e 71 04 30 8a bf
       0.013254009756754647 -0.01278689833975729
000010 f0 a5 3f 4c c5 ff d1 3f 56 6f 4d 75 8b 32 a5 bf
       0.28123600431589946 -0.04140125090518036
000020 6b dd 74 00 04 fd d0 bf 20 e2 c3 ca db 52 a5 3f
       -0.2654428486307185 0.041647785665137826
000030 c9 83 aa 60 6e b1 b8 3f 24 f8 2f 15 b3 74 cb 3f
       0.09645738468181188 0.21449888739147227
000040 96 5a 7f 09 39 f9 bc 3f 34 99 fb 3c e9 f0 70 bf
       0.11317783815261814 -0.004136000715993671
000050 56 b3 56 ae 59 b0 cc 3f af ac d4 54 93 92 aa bf
       0.22413178455954136 -0.05189953241855371
000060 f4 d4 c6 4d 10 1e c6 3f 89 f5 25 42 f5 d3 92 bf
       0.17279247090997496 -0.018386680757875893
000070 4d 32 2b 5e 2a 9f 7d 3f 75 cd 51 f3 b6 4c b0 bf
       0.007231870173836597 -0.06367057266634453
000080 d0 fe e4 10 29 27 b2 bf 43 be 3f 00 68 52 83 3f
       -0.07091004049743366 0.009434521205519469
000090 37 dd 6b f3 0b 72 d2 3f e1 bc dd 2c d1 9a c8 bf
       0.28821085712066313 -0.19222464266520148
0000a0 dd 61 bf 13 7d 4d 95 bf 4b f6 bc bc 16 38 ac bf
       -0.020803407984063205 -0.05511542371685304
0000b0 d5 a9 7d 3a 75 de 9a bf f8 a1 3e ca f7 ea bf bf
       -0.026239234633445314 -0.12467907607663864
0000c0 00 dc cf 2a 1c 61 c2 3f dc ae 17 4d 27 0f a0 bf
       0.1435885628741005 -0.03136561218329145
0000d0 72 5b 1c b8 04 5f ad 3f 4c 50 5a 21 55 56 97 3f
       0.05736555812307288 0.022790270004932986

weight f8 [84, 28]
000000 f9 cf 82 9d ba 11 b3 bf de e3 72 6d d9 1a bb 3f
       -0.07448927255137495 0.10587843820657336
000010 b3 f6 fa b9 f4 3c 9d bf 87 4a 81 ec ae 9d d9 3f
       -0.0285528410447486 0.40024922462649964
000020 d4 c7 e1 39 37 f2 b5 bf d3 a9 0a a6 dc 41 ad 3f
       -0.08572716868528057 0.05714311148524911
000030 af 49 ca 28 d5 ed c3 3f fb db 96 8e 97 aa c6 bf
       0.15569557658871022 -0.17708105528228643
000040 2f 4f 04 fe a3 cb b6 3f 03 7a 56 cf 00 51 a5 bf
       0.08904480887968867 -0.04163363009432788
000050 3d 18 09 56 71 95 8e 3f 1e 1a bb 3b bd 51 be bf
       0.01493347686585988 -0.11843474109910132
000060 5e 32 70 8e c8 92 b1 bf a6 d4 db 37 97 df cf bf
       -0.06864598729607382 -0.2490109465358376
000070 32 64 ea 95 24 82 c2 3f 20 f6 2c fa a0 af a0 bf
       0.1445966465005611 -0.03258994153882733
000080 76 83 e4 aa dc 8d be 3f 80 90 91 e3 ad 27 c1 bf
       0.11935214206870434 -0.1340234147238597
000090 0a 46 46 f0 bc 50 ba 3f 95 16 bd fa 54 16 c0 bf
       0.10279446474148571 -0.12568151705834354
0000a0 92 5f 3d 50 a7 9f ba bf 05 3b c4 7a 9e f8 d6 3f
       -0.1039986201188852 0.3589245032207347
0000b0 7f 5d 66 75 8e d9 a7 3f 7c 80 cf 6a fe b7 c3 bf
       0.04658169921020327 -0.1540525456939611
0000c0 e5 a8 f5 ad 7a 27 cd bf bd f6 9d aa c3 54 a0 3f
       -0.22776731008645537 0.03189670045592894
0000d0 e0 0e db 4d be d5 a7 bf c9 1d 31 49 b5 6d c4 3f
       -0.046552607540005786 0.15959802697964978
0000e0 f1 43 ae fe ee 48 bd 3f e7 70 c4 4e 6a a6 71 3f
       0.11439412801543349 0.004309096588510842
0000f0 bb 4c ed 78 c3 21 d0 bf b4 0a 5a d0 50 07 d5 bf
       -0.25206076440117514 -0.32857151362274384
000100 24 ae f0 05 83 00 c2 bf 2e 9a 03 c6 22 60 cc bf
       -0.1406406191830324 -0.2216838328233321
000110 48 67 51 f3 e9 91 66 bf 31 ee f3 94 03 62 bb 3f
       -0.002755124029630549 0.10696432482284803
000120 49 c2 12 81 69 a1 c0 bf 06 df fb 74 2d d4 d0 bf
       -0.12992590715795618 -0.26295029091078026
000130 76 0f 14 07 00 66 c3 3f 23 c3 b1 80 4a 0c b9 bf
       0.15155029626486866 -0.0978437961764596
000140 76 5b 43 40 a9 9a cb bf ed 8f 55 57 c0 f4 b3 3f
       -0.21565738332602863 0.07795335895713125
000150 51 d6 33 b3 4c f7 c7 bf 7a b5 a0 69 c9 3b c5 3f
       -0.18723448515054256 0.16588704736333765
000160 6f b2 7b e0 50 a4 bd bf 25 b8 fe 3e 1e 7c b4 bf
       -0.11578851204439798 -0.08001889265025904
000170 c6 fe 17 e2 a3 fa d1 3f 18 20 b0 39 f5 5e c5 bf
       0.2809228618570895 -0.1669603854827535
000180 7a c8 6a 0b 44 fc cd 3f 8d cb 37 51 b9 23 8c 3f
       0.23426104123570096 0.013740012923312306
000190 fb 5c fb c0 a7 1a c3 3f ab 53 0d 64 3a 76 92 bf
       0.14925095484679915 -0.018029129368489254
0001a0 c4 f1 65 ff 8a d2 a9 3f 8c 8d e9 19 a4 dd b8 3f
       0.05043444030431801 0.0971319735777369
0001b0 cc 09 f9 81 63 81 b1 3f ea 87 1d a5 9e 44 ce 3f
       0.06838056491054728 0.23646910726807785
0001c0 5e da 6a 86 6d 4b c4 bf e9 24 e9 b5 a9 48 ac bf
       -0.158551874764913 -0.05524187417592847
0001d0 48 f6 f8 12 5d a9 94 3f 61 84 85 df 3a e0 84 3f
       0.020177320750226962 0.010193309732757951
0001e0 74 c8 c5 c0 66 0d c6 bf b7 48 16 f0 ed d9 b6 3f
       -0.17228397762989156 0.08926283942699596
0001f0 d9 cb 71 2a e9 6b c0 bf 20 48 45 76 89 38 b1 bf
       -0.12829317638860863 -0.06726893556086155
000200 25 61 f0 be 33 fd ae 3f 3a 89 5d 74 c8 13 cb bf
       0.0605255289630711 -0.21154123002913555
000210 4c c2 41 d9 31 41 b6 bf cf 6f 0a a5 90 05 ba bf
       -0.0869322925007136 -0.10164741544070853
000220 da 2c 94 5d 97 a3 b8 3f 31 55 0c a6 45 80 be bf
       0.096246204706563 -0.11914477638159295
000230 f5 ee 8d 95 bf d3 c2 bf 26 70 6c 59 5b 0a ca 3f
       -0.1470870476003864 0.2034410654677014
000240 e8 61 c0 06 68 f4 b6 3f 66 c7 02 ea 4a 2e c5 bf
       0.08966684498626132 -0.16547523905097278
000250 9b 58 15 70 34 2c c2 bf 1d 27 e6 ab 57 8d 72 3f
       -0.14197402451344918 0.004529325930329423
000260 36 31 d5 d7 1c 69 c1 3f 85 b4 e0 05 bb 14 bf bf
       0.1360202840682036 -0.12141007321834436
000270 17 b6 78 3f eb a6 c8 bf 1e 13 03 89 ea 93 c2 3f
       -0.1925939617080281 0.14513904275931905
000280 70 f8 f5 18 a2 1e 72 bf 93 c1 18 57 b6 03 c2 bf
       -0.004423745339748306 -0.1407382893826364
000290 8e 1b b8 d7 34 bf c4 bf a2 71 92 96 c5 78 b0 3f
       -0.16208515675699825 0.06434283186030723
0002a0 14 62 7d fb 5f ea b1 3f f5 a4 0e 28 ab 06 a4 3f
       0.0699825276364055 0.039113377227588154
0002b0 c8 dd 30 8e f8 e9 ba bf c8 8c 8e a1 10 a8 b5 3f
       -0.10513261290986187 0.08459571785219844
0002c0 41 7e 6d 83 7d 1a bf bf a1 f2 20 26 b5 87 c2 3f
       -0.12149795969661971 0.14476646768334425
0002d0 5e f5 bd 9c 4a 30 b1 3f 64 96 d4 eb f3 eb aa 3f
       0.06714311911306 0.052581427133458175
0002e0 59 cf 7a 65 a2 92 c9 bf 3c 17 31 55 92 b8 c9 3f
       -0.19978742556633725 0.2009451786017794
0002f0 1f b7 22 47 e6 02 b4 3f 12 97 0c 9d f9 c2 c5 3f
       0.07816924320897244 0.17001266640107154
000300 f0 78 db 92 a3 7a 9e bf 81 9e 4e d8 c8 a9 a7 bf
       -0.02976470550390159 -0.04621722832172016
000310 9d ff 29 23 1c de c9 3f 9e e2 5a 73 cf fb a5 3f
       0.20209075657839728 0.04293678553716983
000320 83 47 42 fc 0a 1f ca 3f f4 a6 34 2e 5c b4 c2 bf
       0.20407235448197633 -0.1461291528333316
000330 ed 0d 63 54 ff c9 aa 3f 13 5a ad 93 08 e9 c9 bf
       0.05232236771692187 -0.20242411814497582
000340 54 76 69 c6 4b f8 cf bf 36 90 50 17 90 12 d4 3f
       -0.24976489246448585 0.3136329868013975
000350 ac 87 fa 8a 50 12 ce bf 87 95 c5 b8 81 0d 88 bf
       -0.23493391786638307 -0.01174451203469108
000360 37 bb 64 52 e7 ab 7c bf 02 95 99 4c bb 13 c7 3f
       -0.006999877549147374 0.18028966179114297
000370 3d 95 0a 42 3c 85 c3 bf 1f f4 42 d4 31 89 c4 3f
       -0.1525035212008933 0.16043684830029378
000380 ae 9e 87 01 9c ca b6 3f d1 66 91 c4 cb fd c1 3f
       0.08902907407138613 0.14055773828550014
000390 13 d8 56 e8 31 01 c5 3f b0 e0 dc 58 15 ae d2 bf
       0.16409896702470003 -0.29187520673759604
0003a0 5e d6 5e 83 dc d6 c5 3f 3a 55 1d 73 35 a0 75 bf
       0.17061954893658798 -0.005279740131148453
0003b0 51 a4 e7 d3 42 af bf bf 12 00 6e a0 de 7d a8 bf
       -0.12376802133043553 -0.047835309108450144
0003c0 37 42 33 64 16 13 ae 3f 6c f5 9c 03 f7 5b c6 bf
       0.0587393758120282 -0.17468154598638408
0003d0 35 60 ed 09 e0 0d 9c 3f c6 67 8d 3d d7 4f ba 3f
       0.027396679502402505 0.1027807736658409
0003e0 78 65 f6 1a 24 00 47 bf 64 24 c1 11 96 fe b1 3f
       -0.000701921109725819 0.07029092725237401
0003f0 75 20 57 43 8f e7 c9 bf a7 2c 02 50 c2 35 97 3f
       -0.2023791388330697 0.02266601193745701
000400 9a 2d cd 22 c3 02 b1 3f 01 d1 0a 39 af 7e 9e 3f
       0.06644839858670651 0.029780137878973715
000410 40 29 4c 20 54 57 be bf 4e 80 1d 35 da 4d 93 bf
       -0.11852002895844738 -0.018851670734307206
000420 25 77 17 13 a9 4b cf 3f c3 da f8 0a e9 b7 9c 3f
       0.24449647361955687 0.02804531220882712
000430 3f 65 85 07 8d ca c6 3f 13 1b cb 21 cb 68 ca 3f
       0.17805636279335066 0.2063230433470485
000440 a7 bf fa b4 39 bd cb 3f ed 7a 5c 83 42 9b c8 bf
       0.21671220147027023 -0.19223815359233445
000450 12 90 78 a5 85 d4 c4 bf 37 66 87 1a e3 8d ab bf
       -0.16273565845142507 -0.05381688784445909
000460 38 4f 8f ef e0 e6 ce 3f ce f9 d3 95 21 8b cb bf
       0.2414208574033354 -0.21518344703504372
000470 8c e0 57 5e a5 f0 c8 bf 21 58 5a 6e 9d 35 cd 3f
       -0.19484393221478447 0.22819869888616132
000480 cf ce 51 00 74 3c 88 bf b2 14 b1 1f 26 59 b3 3f
       -0.011834055194618468 0.075579054581868
000490 6a f6 c0 61 36 02 92 3f db 10 9b 43 d2 44 81 bf
       0.01758656474725343 -0.00843204754654219
0004a0 bb d6 ff c9 7b a8 ab bf da d3 ed 15 66 14 a9 bf
       -0.054019802482725386 -0.04898375528038175
0004b0 cf af e1 da 1a 7f b4 3f fd f6 97 8d 3a 94 c1 bf
       0.08006446689404288 -0.1373360816359578
0004c0 b7 dc c0 38 be 52 c3 bf 31 b4 4d bf e8 cb a6 3f
       -0.15096261759911098 0.044524453499299795
0004d0 c2 41 ec 48 e3 fa be 3f 3f ee 5c e3 cf 1e c0 bf
       0.12101574449866973 -0.1259403095408391
0004e0 3d 74 4c 65 28 cf d1 bf 6a 50 0b dd 9c 0f af bf
       -0.27826890842863233 -0.06066599081319242
0004f0 de 71 cf d4 42 b8 d6 3f 6f af 7d 5f 26 01 b8 3f
       0.3549964025712863 0.09376754599878522
000500 aa 03 b3 df df 25 c1 3f 6a 6f 76 58 dc ab b0 bf
       0.13396833823028703 -0.06512238654835092
000510 10 f4 ed 43 cc 8b ae 3f 20 59 c4 51 c4 3a 9b bf
       0.059660323421646066 -0.026591365328465177
000520 60 71 3b 93 db 42 b0 bf f3 10 df 4e 72 b3 a0 bf
       -0.0635201677754984 -0.03261906826767982
000530 f8 3a 18 51 2c 11 a5 3f 2c 94 fd 73 e8 0b c5 3f
       0.04114664544987606 0.16442590392685597
000540 91 63 1b 5f df 5c bc 3f 31 c3 7f 59 6e 53 ba bf
       0.11079212257335615 -0.10283555684123936
000550 9c 51 20 f7 c0 07 ab bf e1 96 e7 3f a5 fb 98 bf
       -0.05279353157689856 -0.024397451425008824
000560 41 bd 5c 2b 83 4e b2 bf 7a 82 c1 0d 56 52 b7 3f
       -0.07151050385140413 0.09110009990537007
000570 77 5d 86 97 9a 5f 99 3f 5a bd 99 ea a0 37 c4 bf
       0.02477876233896611 -0.15794764952759516
000580 80 f1 0e d5 a5 1b 94 bf d1 d8 93 f8 0f 01 c4 3f
       -0.01963671791939836 0.15628242147039953
000590 83 53 d4 86 5f 29 b9 3f 66 75 a6 a8 af 6a a6 bf
       0.09828755418523198 -0.043782700860201015
0005a0 f4 84 75 3e a0 84 b4 3f 61 08 f3 2e 00 59 d4 3f
       0.0801487114417972 0.31793217263123635
0005b0 69 bc da fa 20 fa a0 bf d1 77 1e cf 73 bf b5 3f
       -0.03315833151042897 0.08495258146874042
0005c0 9f 2d 5e 6c 8f c8 d3 3f 99 a2 71 21 dc 6b b0 3f
       0.3091162260322679 0.06414581123829989
0005d0 c9 64 14 ba 30 de c6 bf b8 7a b3 5f e0 f1 cf 3f
       -0.1786557110397438 0.24956898377327774
0005e0 49 03 ed b3 2d 80 c0 3f 9c f7 49 c0 15 f4 bd bf
       0.12891169820252404 -0.11700569099954666
0005f0 6d 3c af 9e 0b 76 b5 bf 25 c2 dc 08 14 d3 bf bf
       -0.08383247970708547 -0.12431454864850673
000600 ca 96 10 28 62 e3 c3 3f 8c 7e 16 65 d3 d0 bc bf
       0.15537669140137772 -0.11256142824140108
000610 ae 56 0b b4 d1 80 ca 3f cd 5a bc c8 ae 55 c0 3f
       0.2070562485811726 0.12761483003187948
000620 b3 90 9d a1 f6 ee b3 bf 88 b5 9f 42 0e f7 bd bf
       -0.07786504216852812 -0.11705102087554142
000630 ff 54 c2 e1 e4 85 91 3f d9 55 26 d2 82 1f c2 3f
       0.017112327841990013 0.14158663998811852
000640 17 60 8a eb b8 95 c9 3f 61 e2 44 a0 8f 38 b7 3f
       0.19988166333200816 0.09070680296725576
000650 81 63 c2 35 18 ee c6 3f 24 20 2f 12 07 ae c5 bf
       0.1791410696503384 -0.1693734015264009
000660 c3 20 eb 9b 01 cc 98 bf 3f 9d d8 8a 83 72 ba bf
       -0.024215722218998047 -0.1033098424892289
000670 fb 02 10 67 d9 77 b4 3f 97 e3 33 0e ef 2e ae 3f
       0.07995375410247256 0.05895182655689906
000680 3e 40 13 6c 5e e8 c4 3f 25 c1 fd ae d3 ee 66 3f
       0.16334133412465407 0.002799428410007592
000690 e3 ee 3b 60 0a 6e af bf c2 ac 93 22 8e dd c0 bf
       -0.061386417624786714 -0.13176132858584394
0006a0 7f 8a 15 ee e4 3f bc 3f d0 fd b4 23 2f 91 b5 bf
       0.1103499490032309 -0.08424658414605024
0006b0 ec b9 4b 20 04 00 c3 bf d8 51 fb 58 3d 9b a3 bf
       -0.14843799187606466 -0.03829375945284469
0006c0 40 38 b8 0f c6 68 bc 3f 05 5d 1a 5d f0 9e ca 3f
       0.11097371944217205 0.20797543092769658
0006d0 60 57 5f ea dc 34 c8 bf e2 f5 0e c2 2c 93 a2 3f
       -0.18911324924436723 0.03627910488965448
0006e0 90 83 c4 02 f8 9d 9d bf 04 d0 86 bf 7e a8 b6 3f
       -0.028922915619776612 0.08850853134100595
0006f0 4f c9 42 49 88 1b 61 3f b1 75 fb 09 50 89 a3 3f
       0.002088323768554868 0.03815698739866081
000700 f4 68 22 e4 f9 1e bc 3f a4 d0 77 56 5a 0e 9d 3f
       0.10984765834510651 0.028375064399327812
000710 a2 68 42 20 2f 44 d7 bf 76 b8 29 ca 6b 89 d2 3f
       -0.3635366263421337 0.2896375154731524
000720 92 b9 44 4d 91 3d 9d 3f bc 9d 67 3a 17 36 bb bf
       0.028555174199192353 -0.1062941091146205
000730 bb c1 c1 1e b7 0b bf 3f 38 80 83 f7 55 07 b4 bf
       0.12127251149082145 -0.07823693554701172
000740 08 5f e0 59 50 81 c0 bf 1a 1d 9d 72 04 0b bd bf
       -0.1289463461732725 -0.11344936178385404
000750 2b f8 dd 3d 1e 1e b9 bf 62 99 2f 16 42 16 b4 3f
       -0.09811581621576752 0.07846463243149551
000760 5c ae ae b2 7f 44 b0 3f eb b3 37 4b 80 2f a7 bf
       0.06354520904886257 -0.045284279996714215
000770 18 85 ff 2d e0 61 d1 bf 6c 2c b6 56 f4 86 c1 bf
       -0.2715988587570606 -0.1369309829136428
000780 25 ae 71 00 db 73 bf bf 20 53 9e fc f5 8e a4 3f
       -0.1228615642627849 0.04015320500108133
000790 e4 9f 62 ba 07 10 d0 3f f8 38 25 8a 10 5a b5 3f
       0.2509784050148467 0.08340552685442393
0007a0 79 82 39 32 8b 67 c3 3f d1 af 2e 78 bd 86 a4 bf
       0.15159740402579638 -0.040090485497188084
0007b0 8f 24 4e 1d 1d 64 c0 3f 23 18 af 27 b8 1e cf 3f
       0.12805522852821524 0.2431249803323122
0007c0 e8 08 23 e6 85 49 c7 3f 3c 48 f0 1f d9 9d b7 3f
       0.18193124520445925 0.09225232152701407
0007d0 e2 79 ff 14 dc 58 c2 3f 32 8b 07 9d fc dc b2 bf
       0.14333678269663525 -0.07368449052550544
0007e0 b0 79 4c 01 1b 97 c9 3f f7 9f 6d 7f 7a fa b5 3f
       0.199923873552462 0.08585324870148257
0007f0 78 0f ce 45 51 d0 b9 3f cd 13 3e 3f 08 c9 d7 3f
       0.10083492235395208 0.3716450326540411

bias f8 [84]
000000 63 37 f8 ec b0 5a bd 3f e3 ec d3 18 f8 d1 c6 3f
       0.11466508660688883 0.17828274929329443
000010 a6 88 88 4a 89 32 76 3f cc ba d7 60 30 f5 c3 bf
       0.005419288915193976 -0.155920073782417
000020 4e 9f ec ac 2a d7 84 bf 89 e0 3e af 4e b4 c2 bf
       -0.010176022913199436 -0.146127543992183
000030 40 d3 b6 b7 6c 2a ad 3f c8 2d 80 52 31 83 aa 3f
       0.05696429960827354 0.05178217060173612
000040 26 6c 57 0f d3 62 b2 3f 21 93 42 aa 3b ab a0 bf
       0.07182044148014252 -0.03255640462274401
000050 28 19 13 f9 ff 33 74 bf c7 90 4d 25 26 26 c5 3f
       -0.004932403463675329 0.16522671529231145
000060 d1 75 64 ff 63 53 c5 bf 14 fa 13 ac bd d4 b4 3f
       -0.16660737963040487 0.08137116862415211
000070 79 e8 c3 25 e4 cf c4 3f 00 00 00 80 b3 ad bc 3f
       0.16259433597571496 0.11202546954154968
000080 2d f9 16 ec 2c 10 c2 bf 91 e6 ee 1b 4d 83 c4 bf
       -0.1411186363965923 -0.16025699485708292
000090 68 4b ef b4 f3 d2 94 bf 2d 59 26 68 b2 3a bc bf
       -0.020335967939739602 -0.11027064364165957
0000a0 a7 de bb eb 60 4a b3 bf be 51 c2 b3 51 c5 6a bf
       -0.07535367732259123 -0.003267917227342403
0000b0 36 70 8e 5a 66 19 c1 bf 00 51 b2 ab 94 d1 9c bf
       -0.13358764096926884 -0.028143237094426787
0000c0 af d0 bd 45 34 8a ca 3f a9 2c e5 54 8d 81 b8 3f
       0.20734265714020725 0.09572680781018285
0000d0 4e ee 02 97 b4 2d a2 3f b9 e5 2a 5e 97 24 92 3f
       0.03550495475198244 0.017717709658176626
0000e0 06 2e 43 6c c2 70 9c bf 52 9d 33 5a be 2e c2 bf
       -0.0277738932207239 -0.1420515003621668
0000f0 b2 3f 3a 16 52 cd 9b bf 08 9f ff 7f ee 5e c3 bf
       -0.027150423628483807 -0.15133458375861886
000100 66 6f de 21 9c 14 a1 3f 44 63 69 9b 87 d9 c1 3f
       0.033360365995774896 0.1394509800764131
000110 d0 0c 3f da c2 8f bf bf 44 4a a9 62 2d 75 a4 3f
       -0.12328737095144793 0.03995649175034946
000120 26 95 ae 2d 5f e0 c6 3f 5c d9 1f 28 93 ae 8f 3f
       0.17872228365482917 0.01546969381523116
000130 45 44 63 59 e3 2b af 3f ce 2c 83 5a ae 12 c9 bf
       0.06088171449813066 -0.19588260097075366
000140 a7 24 28 2f 81 56 81 bf 0e fa a7 09 bc 98 a1 bf
       -0.00846577572976266 -0.03436839692948378
000150 46 b7 63 e6 c1 d2 b4 bf b5 15 d9 3d 9e 2b c0 bf
       -0.08134090304130578 -0.1263311197273375
000160 7a 28 92 84 53 f4 8f bf fc 24 7e b5 72 c9 c4 3f
       -0.015602734072917668 0.16239770757628225
000170 7d 5b 06 aa 27 46 a8 bf da 8e 31 2b 54 18 bf 3f
       -0.04741023970125633 0.12146497778445156
000180 c2 ab 5b ce d2 65 a6 3f 18 4a c9 05 30 d3 c1 bf
       0.043745601358601074 -0.1392574337247232
000190 59 39 0d 76 c2 88 b8 bf b0 2f bc fc 85 06 ba 3f
       -0.09583678609962955 0.10166203899660675
0001a0 bf f4 10 ee 97 f7 b8 bf fe c4 6b f1 d0 66 ba 3f
       -0.0975279766289132 0.10313135046068919
0001b0 7e 1f 6b 3f 05 df c0 bf c1 0a 80 07 73 89 c0 3f
       -0.13180604549983949 0.1291946207639594
0001c0 a9 e8 f4 78 79 fb a3 bf 1c 04 a4 dc 66 8b bf bf
       -0.03902797318956292 -0.12322085272536792
0001d0 c9 2b c4 c2 41 a3 b7 bf 09 c3 25 54 38 b7 c7 bf
       -0.09233485226665929 -0.1852789317013264
0001e0 17 39 1e fa 31 12 c8 3f 1c 7d 13 16 18 ea ad 3f
       0.18805527413173515 0.05842662114604932
0001f0 5b d2 a8 d7 21 bd c1 bf b9 71 96 7d bf aa cb 3f
       -0.13858435659644183 0.21614831573687157
000200 a8 6d c7 d9 ba 5b c4 3f 00 00 00 00 08 95 93 3f
       0.15904937394848884 0.019123196601867676
000210 c4 77 f6 22 e1 23 97 bf 7e 87 9c 27 0d 18 83 3f
       -0.02259780670066626 0.009323218127579965
000220 7b b7 d6 ed ad a3 c3 3f ac 19 e6 a4 c3 3b c4 3f
       0.15343259919375982 0.1580738597078385
000230 04 d0 ca 0c 01 b8 c9 3f dc fa ea 46 0f 0c b5 3f
       0.2009278595411389 0.08221526605027968
000240 8f de b4 01 9c ef a4 bf 00 30 4c 45 26 3f c4 3f
       -0.04089057465392642 0.158177169644091
000250 5e bd b6 97 89 56 ad 3f 6b e3 bb 95 01 6f ba 3f
       0.05730085350966861 0.10325632005323164
000260 df 8e 1a 1a fb cc c0 3f 0b b3 56 b8 e1 69 c4 3f
       0.1312555196246796 0.15948125363265606
000270 d0 93 28 c1 cb 7c b2 bf 30 f8 1f 6e 0d ff ba 3f
       -0.07221673455985855 0.10545429171176646
000280 24 fe 0a 34 f8 55 a9 3f 85 8e e4 ad c4 ad c4 3f
       0.04948402056970405 0.1615529870115219
000290 ab 3e ef e4 51 47 a6 3f 59 c2 8f 1c e3 b8 c4 3f
       0.04351287765132147 0.16189230818374048

weight f8 [6, 84]
000000 be 13 27 7f 17 06 d8 3f 8e f4 c4 15 c6 fb b0 3f
       0.37537181298494804 0.06634176284292634
000010 01 0a 9b 13 8c 43 a0 bf ee 20 2f 44 b3 7f be 3f
       -0.03176534404112275 0.1191360513176993
000020 7e 8d f8 1d 21 a5 cb bf 68 be 43 38 f0 c0 be 3f
       -0.21597684825347224 0.12013150571487474
000030 75 6e d8 73 fc 93 c6 bf 92 ec 82 1f 4a 3b a5 3f
       -0.1763911786700764 0.041467968317612805
000040 88 7d 2d 4c 63 75 be 3f 4b 15 6d 6d 08 c5 07 bf
       0.11897869691664742 -4.533702820323312e-05
000050 f8 40 8f 3e d5 4b b8 bf 8d ae a2 3d ba e6 ca bf
       -0.09490711953481312 -0.2101662445978615
000060 ad 93 e6 14 c2 b2 ba 3f 9a 73 16 6c 56 17 d3 bf
       0.10429013262053273 -0.2982994132560691
000070 4f 44 98 04 41 34 bc 3f 00 00 00 a0 4f b9 87 3f
       0.11017233240296885 0.011583921499550343
000080 5f 66 1d 67 2b 5d af bf cd 3c 29 71 e3 9f 92 3f
       -0.06125770219541659 0.018188051015667384
000090 d6 e2 98 a0 a8 e2 a7 bf 41 db f9 bc a7 e5 51 3f
       -0.046651143650199664 0.0010923517292249082
0000a0 08 ce 97 e0 4d 40 ca bf 29 b8 df c5 1f b2 ac 3f
       -0.2050874086995551 0.05604647913411071
0000b0 97 20 19 0e ed ac a4 bf 36 37 5e 99 c9 0c d1 3f
       -0.040381820651021964 0.26640548684450793
0000c0 d2 e1 79 9c 98 77 d2 3f 6e a6 b7 7e 5c 0f c7 3f
       0.2885495689474996 0.1801562899338935
0000d0 21 0d e3 f5 e8 0d c3 3f 5d c9 ec 95 18 33 94 3f
       0.14886199957082005 0.019726165915196037
0000e0 4e cc 68 d6 ab 1b c4 bf f1 24 e5 34 b4 d6 c7 3f
       -0.15709445924003024 0.18623974402206714
0000f0 ac 8f 9a 51 0f 9d c6 3f 5a 06 02 e6 14 9a 9e bf
       0.17666808590467775 -0.029884649790352526
000100 ef fd 48 15 09 ec b7 3f 5b 3a db aa f6 3c 9c bf
       0.09344536561638227 -0.027576307466740207
000110 1d 33 3c 24 2f 2e d2 3f f4 60 ec ca 46 90 c0 3f
       0.28406885660733555 0.12940297039381898
000120 14 c7 38 c9 5e f3 c5 bf 43 9b 9f b0 7d cb b4 3f
       -0.17148957085878946 0.08123002588363896
000130 2b 9e 26 32 9c 5a cb 3f 3a 72 3e 5e dd 3d bb bf
       0.21370270203372974 -0.10641273070218285
000140 c4 89 b4 fc 6c 09 9c 3f 3a 2e 41 b5 7f b4 c9 bf
       0.027379706310179733 -0.20082088804552872
000150 bb 29 79 7d d1 f1 b6 bf d0 b7 30 f2 fa f7 c3 3f
       -0.08962735474884813 0.15600525689791178
000160 b0 e2 9c ca e8 19 93 3f 69 17 93 09 2a 77 9a 3f
       0.018653523794656734 0.025845200380693188
000170 1a 05 ae 90 2b 89 a1 bf d8 af 66 97 90 f1 a8 bf
       -0.034249650393585365 -0.048717993241865265
000180 11 21 24 50 6b de b9 3f ed 09 8d 90 c6 bf 55 bf
       0.10105009752817674 -0.001327461157601402
000190 a4 3f ae 90 81 0a a3 bf 80 0c 1c a4 a2 bc a0 3f
       -0.03718953028794594 0.03268917325296972
0001a0 08 cf 8b 05 cf e1 b2 bf 7c 1e 58 49 28 48 d2 bf
       -0.07375806699183951 -0.28565413630028735
0001b0 6c 3a ca ab 25 d2 c5 bf 0d 3e d0 d9 9f e9 c0 3f
       -0.17047568214589448 0.1321296514074536
0001c0 07 cd db 59 ef 21 60 bf e7 30 50 fb e8 10 95 bf
       -0.001969306452218714 -0.02057231935400319
0001d0 f5 cd b3 04 32 b7 cb bf 4b 30 3e 21 45 12 b2 bf
       -0.2165281794510602 -0.07059127866358599
0001e0 d1 6c 29 b4 94 c6 c5 bf 29 7f bc bb b9 fb b1 bf
       -0.17012270733798698 -0.07024727662473808
0001f0 c7 1c a1 3e e2 e1 8e bf 31 ee 36 fb 4a 9e c3 3f
       -0.015079276596351566 0.15326821581207775
000200 91 c2 1d 1a 1e d4 c4 bf 00 00 00 e0 a3 a6 99 bf
       -0.16272331500251316 -0.025049744173884392
000210 69 31 00 41 bc 54 b5 3f 99 17 f2 63 f4 17 c0 3f
       0.08332420908863515 0.12573103790435594
000220 bd 71 79 a3 40 24 98 bf ce 0c 5f b9 7d 48 b3 bf
       -0.02357579229134087 -0.07532487655321349
000230 a5 45 8e 0d 2f bb b7 bf 8c d0 1a a9 7b c9 be 3f
       -0.09269994812918599 0.12026188734563642
000240 a4 06 fc 5d 2c e6 ba 3f 1f ae 6d 68 5e f3 b7 bf
       0.10507466597121123 -0.09355726289293685
000250 10 d4 85 8e b0 d2 c8 3f 98 7b 57 df 7b 63 b2 3f
       0.19392973860854612 0.07183050348929354
000260 3e 5b ab 77 f5 ca b1 3f 52 4c 43 db 16 e0 cb bf
       0.06950315639128932 -0.21777616220660662
000270 58 82 bd 5b 38 4e ca bf d4 01 14 e9 03 2c be 3f
       -0.20551208953385713 0.11785911980042069
000280 93 e1 87 52 01 0d b5 3f f9 4e 04 de 10 2f c5 bf
       0.08222969307815324 -0.1654988369051507
000290 6b 8d 34 84 12 d0 c1 3f 26 2e bb cb 71 e8 bc 3f
       0.13916236358009412 0.11292182182221974
0002a0 07 ca ed 3d 61 9b 9c 3f 0c db a7 05 da 2e b6 bf
       0.02793647709354199 -0.08665239942625308
0002b0 10 c0 3d 2b 7d c4 b4 bf 90 f4 4a 59 65 47 bf 3f
       -0.08112318330472612 0.12218316488265857
0002c0 e3 d9 8a 8a 81 39 b0 bf 76 88 00 82 f2 b8 a6 bf
       -0.06337747223265171 -0.04437978589000206
0002d0 c3 fc f3 16 85 93 c4 3f c8 4c 5e 6b 01 24 b5 3f
       0.16075194950824398 0.08258065100953893
0002e0 f4 d7 3d 2f e8 bb c4 bf 1f 4e ab 7d 0e ec c1 bf
       -0.16198446566312408 -0.1400163758868169
0002f0 d0 13 4b f8 32 f2 ba 3f 95 e9 48 4d 0c 27 c1 bf
       0.10525816499564589 -0.13400415204689567
000300 83 6f 3b e6 b4 6f c6 3f 39 ac 22 5a c2 81 cb bf
       0.17528401605420293 -0.21489743615288306
000310 a6 81 32 c2 6e e1 d2 3f 00 00 00 20 2c 36 b8 bf
       0.295009317060272 -0.09457660466432571
000320 08 f6 4a fd cd bf b9 bf 14 d9 c9 d5 a1 bf c0 bf
       -0.10058295663744599 -0.13084814967050618
000330 70 b2 cc 0f 25 b0 99 3f b6 79 05 15 4e 20 c1 3f
       0.0250860014813718 0.13379837061343175
000340 92 dd 74 1a 91 63 c3 bf 9a df 82 a1 d4 52 b2 bf
       -0.15147603790113046 -0.07157639449257971
000350 b3 6a 86 3c 3d 19 cb 3f 22 99 bd d4 42 4c d1 bf
       0.21170773940396756 -0.27027960563136066
000360 dc bf f9 f1 49 eb c2 bf f4 94 20 91 a7 7c 80 bf
       -0.14780544581617405 -0.00805025970118798
000370 41 41 5b e9 8d 1e c9 bf ba 9e f3 f3 63 e8 a3 3f
       -0.1962449445186483 0.03888237336087515
000380 ab 2c d1 4c e0 fa ab 3f 1f 41 ad c0 82 57 9d bf
       0.054648408295713345 -0.028654139528328956
000390 72 49 19 9b bf ff cc bf 2a d8 7c ad f9 8e d3 3f
       -0.22655482361967533 0.30560151998668295
0003a0 2d 07 6f 4e e2 1a bb 3f d6 59 ec f8 63 8e b6 3f
       0.10587896742711385 0.0881102068636673
0003b0 cc f8 c3 ec d2 0b d3 3f d2 47 1b 4a b5 37 d3 3f
       0.2975966751254304 0.30027515637368396
0003c0 e1 23 01 90 cf eb c2 bf a5 c6 ff e2 55 c8 bc 3f
       -0.1478213742396113 0.11243187705965825
0003d0 80 32 f7 2c b2 f1 c6 3f 6e 5e 66 6b 8e f4 bf 3f
       0.1792509765204109 0.12482538339679092
0003e0 4a c4 57 96 1d 30 bd bf 9a 6e 3e 85 a4 fd c1 3f
       -0.11401543541411843 0.14055305963562575
0003f0 12 4d 29 95 42 3e b9 bf cc fd 2c 90 ef ed 71 bf
       -0.09860626355775917 -0.004377303880402871
000400 a6 17 09 ab f5 86 c0 3f 9c 0e b4 2e 52 80 a8 bf
       0.129118641389309 -0.04785401172742107
000410 c6 d5 33 3a a8 45 89 3f dd 55 6f a2 64 f3 c0 3f
       0.012339891697119475 0.13242776805297654
000420 d3 11 3c c4 81 14 cd bf 34 e2 83 1a 08 68 a5 3f
       -0.22718832093973038 0.04180932353660119
000430 d4 83 10 4a 59 c4 b9 3f 5e 8d 0b 6c 72 22 cb bf
       0.1006522947141229 -0.21198873782769118
000440 b2 8b 9c 30 84 61 be 3f 5e 81 aa 52 fc cf c5 3f
       0.11867548167042122 0.17040971790721476
000450 44 b2 54 66 07 08 c6 3f c1 89 80 40 f6 e9 ae bf
       0.17212002274153992 -0.06037873780612158
000460 ee 04 88 a8 51 e2 b6 bf db 00 ae 5f 75 7f cc bf
       -0.08939085354360873 -0.22263972446308497
000470 46 cb be 89 fc 3d cd 3f 9f f9 31 68 61 ae b4 3f
       0.2284541771492405 0.08078583520725723
000480 dc 52 01 47 a0 cd 94 bf fd 7a 00 9b 0f 87 a8 3f
       -0.020315651258289033 0.04790543334114792
000490 cf 3a b3 b0 1c 80 b3 3f d5 9a d2 e9 23 a9 cd bf
       0.07617358507125548 -0.23172425191042714
0004a0 13 61 9a 9a b4 cd b9 3f 00 00 00 00 30 41 b0 3f
       0.10079506659019825 0.06349468231201172
0004b0 a8 fa 69 dc d9 8c d0 3f 6f c6 26 3d 71 f8 b8 3f
       0.25859686398318127 0.09754092925029466
0004c0 49 88 6a 1f 9e a4 8d 3f 13 66 4e 8e 6e e4 b6 3f
       0.014474139531845636 0.08942309355042992
0004d0 87 74 c8 0d 47 9f c0 bf fe 52 98 06 cd e1 70 3f
       -0.1298607651996557 0.00412159050167271
0004e0 dd 2b 53 b3 c4 28 b2 bf 71 a9 a7 41 c9 f7 a3 bf
       -0.07093457582520508 -0.03899983335925839
0004f0 c0 a0 0b 0e e8 10 bb bf ad d8 39 d4 ee 08 bb bf
       -0.10572672217279244 -0.10560505563066398
000500 27 42 fe b0 2d c5 86 3f 3e 50 f3 8a 49 40 c0 bf
       0.011118275607970919 -0.12696189198197944
000510 9c 73 ab 7e c8 13 b0 3f 97 9d b4 d5 a4 f0 ca bf
       0.062801867413738 -0.21046886858787836
000520 d3 8c d4 44 c9 2a 60 bf a6 a3 69 68 f9 d5 c6 3f
       -0.0019735270531256815 0.1784049758746537
000530 4d 39 45 d7 c1 66 b6 3f 5e 75 67 a7 5b 21 c4 bf
       0.08750545030236374 -0.15726800607709895
000540 13 69 97 bf f4 ea ce 3f 5b 98 01 e6 1f 1f d4 bf
       0.24154528956462026 -0.3143996950296974
000550 d0 5a b0 eb 57 14 ac bf a0 7a 57 ac cc e8 c6 3f
       -0.05484270813047021 0.17897947707293316
000560 69 b6 7d 88 46 d5 be bf e4 12 bf 21 a2 37 c1 bf
       -0.1204418261747492 -0.1345102944161659
000570 4c 5d 3e 0f cd f6 8b bf 1c 89 76 7c a1 95 b1 3f
       -0.013654329326341717 0.06868943489692864
000580 92 65 0e 30 26 9a be bf 61 8e 38 3d b0 d6 b8 3f
       -0.11953962968109114 0.09702588553096227
000590 3c 6c f9 d1 77 ea c9 3f 0c fc 88 3b 54 dd af bf
       0.202467896963613 -0.06223548151728417
0005a0 59 d6 4f 01 6a 3d c1 bf 39 30 0c 78 b5 1b cf 3f
       -0.13468670906120186 0.24303310739230868
0005b0 40 0d c3 b3 29 05 b2 3f 00 00 00 20 5f 09 b3 3f
       0.07039127958983205 0.07436174899339676
0005c0 5b 66 54 37 e4 98 cd 3f f7 6e 17 2a 4f b8 a6 bf
       0.23122837735791077 -0.04437491787731845
0005d0 20 b8 fc 4d 8f 6f b3 3f 68 59 1f 5f c4 ec 7b bf
       0.07592101720794675 -0.006817595554784318
0005e0 f3 a0 82 43 8c aa c3 3f 0c bd 75 bd 24 bf ae 3f
       0.1536422090187056 0.06005205929511179
0005f0 8b ac 5a 1c 97 d7 a8 3f 6b 99 a9 49 14 c1 c8 bf
       0.04851982327576206 -0.1933923110656893
000600 ba 13 b9 96 ab 38 9c bf 48 2a 75 63 df 94 b1 bf
       -0.027559929918669936 -0.06867786577382973
000610 d6 8c 5f 09 69 a1 ce 3f 56 e8 c6 aa c3 b2 9d bf
       0.2393008514182841 -0.02900224428024275
000620 70 74 84 94 0d 66 8f 3f 89 43 c7 08 d1 b3 bc bf
       0.015331369490519914 -0.11211878265682008
000630 f0 52 b1 6c 28 b0 c3 3f 52 37 23 55 3a f5 ad 3f
       0.1538134127355515 0.05851156510617152
000640 ce 45 22 aa 15 14 9e 3f 9d b5 14 45 f9 07 96 bf
       0.02937349177279263 -0.021514792291034025
000650 94 d7 24 bd d0 f0 83 bf 10 3e 79 c2 14 91 cc bf
       -0.009736662647451579 -0.22317752357274445
000660 c2 b1 d1 17 e5 7c 6b 3f e7 14 1b b9 d5 5f be bf
       0.003355452964163259 -0.11864982384857435
000670 de 75 8c 9f c9 bb ca bf 5d 33 bf 5d ec b8 88 3f
       -0.2088558224722154 0.012071463213851602
000680 c0 d8 5a c4 a4 ef a8 3f 3b 40 7a 50 c3 c0 b8 bf
       0.0487033357325557 -0.09669132914336924
000690 24 a2 27 c2 2b 08 c1 3f 1b ee 06 af 32 91 82 bf
       0.1330618570348331 -0.00906600567474585
0006a0 08 03 61 36 ec 4e c7 bf 3e 03 a6 49 31 51 b5 bf
       -0.182096029808257 -0.08327014968928112
0006b0 02 df 5d ae cf 2e a1 3f d8 0f 64 32 17 fe 9a 3f
       0.033560266528125396 0.026359903765310694
0006c0 07 b4 f0 a5 03 10 a5 3f a8 29 bc 9c a0 04 b3 bf
       0.04113780403745442 -0.07428935839212747
0006d0 ae 58 b7 2b b1 60 9d 3f 5a a2 cb ed cf cf a6 3f
       0.028689163487648876 0.04455423143173638
0006e0 25 cc 15 66 b2 17 ba bf 46 ef f3 a5 b7 3e bb 3f
       -0.10192408554375783 0.10642574121078238
0006f0 14 a3 75 bb fa c0 a3 bf 8f f0 5b da 17 b6 a8 bf
       -0.03858169115375723 -0.0482642606784519
000700 e9 da bc 99 96 be b4 3f b7 c7 39 c9 a9 d4 c5 bf
       0.08103314641344252 -0.1705524666354543
000710 99 d4 92 d7 89 c0 d3 3f e2 ce a1 ff 4a 1e b6 3f
       0.30862661411385656 0.08639973393456615
000720 ce 7a 5d a1 de e5 c3 3f 0b a4 b5 91 4f 99 b3 3f
       0.15545256499441112 0.07655808741914442
000730 bb fc 08 ef 47 58 95 3f 28 a5 7b 34 2e b8 cb 3f
       0.02084457775549418 0.21655824244161548
000740 4d 72 f3 df 5b 7b c0 3f 00 00 00 80 8c 50 ac bf
       0.12876461444001777 -0.05530203878879547
000750 16 0e 62 31 a8 dd d4 bf 9f 9f fa a5 c5 3b cb bf
       -0.3260288698440673 -0.21276159862941044
000760 49 82 53 fb 21 f7 b9 3f f6 bd cd 7c d0 35 81 bf
       0.10142719636815757 -0.00840342408056836
000770 92 11 85 43 7b ce ba bf b4 4a 2c 06 34 bc a7 bf
       -0.10471315763886072 -0.046357751611272674
000780 25 79 fe 2b 5c 00 a0 bf 5d 4e 90 33 63 c8 d2 3f
       -0.03125274693523953 0.2934806827117649
000790 9b 3a d6 9b 77 4a b5 3f ab 0d 60 79 e3 8f af bf
       0.08316752962694311 -0.06164465767508472
0007a0 49 3f cf 9d c3 4f d2 bf 5d f8 06 c5 4f 15 ba 3f
       -0.28611841593827997 0.10188768921122589
0007b0 d8 9e 92 b7 bf e6 b7 3f 6a 3b e5 e2 cb 98 bd bf
       0.09336469871288544 -0.11561273850860024
0007c0 0b a1 4f 37 c2 2c ab bf 45 f4 00 f8 ce 35 b6 bf
       -0.053075856448972024 -0.08675855212000368
0007d0 71 a1 ca 37 64 e7 c2 bf 20 e6 7a b3 f2 b1 b0 bf
       -0.14768650745578385 -0.06521527177655928
0007e0 8b 94 dc ba ef d8 c2 bf 26 51 ad 65 12 5c d6 3f
       -0.1472453749094352 0.3493696206035274
0007f0 2b 2d 06 02 c5 84 a4 3f 51 33 fd 52 99 12 98 3f
       0.04007545137127474 0.02350844925904322

bias f8 [6]
000000 d5 cc a0 dc e3 2a b8 bf 61 1f 09 f1 42 1e a6 bf
       -0.09440445076397748 -0.043199626849456114
000010 40 44 1d 19 db f6 93 3f 06 b7 7a 5e b6 1c b6 bf
       0.01949636784349118 -0.08637561613678821
000020 0a d9 23 b4 fb c4 90 3f a7 53 c0 29 96 24 b6 bf
       0.016376431341051968 -0.08649576682394287
