part_4/Reinforcement_Learning/models_lab1/model2_winner_test6.pt (torch, 22519 bytes, 6 tensors)

weight f8 [28, 14]
00000000: e8f6 63c7 9a19 e3bf f58c bc1b 6454 d4bf
00000010: 8f8f 4cd0 940c d13f f483 b07c 5f32 cabf
00000020: d9fb 56f6 9377 e93f 723e c7a3 1cc2 d8bf
00000030: 6d42 a6df b9c8 a0bf fdd3 0f2d 4606 c33f
00000040: ce34 9ad4 c9d6 993f 8463 4c41 54c8 4dbf
00000050: b64e a7d4 16f4 c33f c4ef 6796 be3c b23f
00000060: d16f e306 553d b63f c29c cabb 5747 d23f
00000070: 5e92 03c9 d0bc e0bf 9adf 4efc 15b0 f23f
00000080: f8fd 1ff4 7f1c df3f 9f4b 48fa a755 c43f
00000090: 10b8 60de 3610 e3bf 91e1 1944 2cdb c93f
000000a0: 38d7 7cf4 038a a4bf f1af 4c75 3184 c33f
000000b0: 575a 0c94 1380 c13f 10a1 78b4 6695 b5bf
000000c0: 3592 62a6 ac5d b23f 2337 3d10 d245 d13f
000000d0: 979e 2c3e 2fc5 94bf 423f 6d9b e3ab a03f
000000e0: 0e15 5c10 d982 c5bf 7852 a6e5 8218 e2bf
000000f0: 311f 94a1 6938 dc3f 175f 27f1 234a e4bf
00000100: ae6a 175a c6a7 b53f a930 b2e5 0193 e43f
00000110: 0f14 8c58 87d0 babf 5bc9 c62f 03d7 cf3f
00000120: 9293 af09 6d60 c53f ede1 4ed2 3cd5 a1bf
00000130: 16cb b783 00d7 c13f 1b49 3f18 7b9b be3f
00000140: 83a6 25ae 22dd 90bf 669f 7ed8 a739 a0bf
00000150: bc62 70a8 f62e b4bf 0094 8d71 f440 d7bf
00000160: 91ea 2059 4779 b23f dffe f725 be89 f13f
00000170: 68c7 5c69 cfec d4bf 2c65 cbe3 07bd e1bf
00000180: 40a7 0d7b 0e80 b03f 7a64 a810 cde5 8cbf
00000190: df53 f191 9724 b5bf 94c6 7659 4f93 c53f
000001a0: 544e f5bf e565 c43f 6b3e 653f 7928 acbf
000001b0: 1c92 f408 4db8 be3f 8d7c 3f7c 80ea c93f
000001c0: 5e9e 174e 9934 d8bf 4d6a 520d bf91 c4bf
000001d0: bf72 54a0 dc79 e53f 1a00 c486 8e82 d83f
000001e0: 2e41 1023 a12b d4bf 4efb c8ff 5285 d0bf
000001f0: 27ea 5ce5 b91e 76bf 24af 3646 3001 c33f
00000200: 2a7d 968c a681 a5bf ba73 4612 db18 c73f
00000210: 55b9 c932 5357 a7bf 30e6 930b c540 bebf
00000220: 8e2c 5f77 5c99 c2bf d2c1 a55a 237b bbbf
00000230: cde2 ee85 af31 f13f d811 1f72 2e58 cb3f
00000240: 3d4f a078 27a7 e73f afc2 f977 b732 e1bf
00000250: 7bed 7828 a049 dbbf e377 c2b7 f1e4 e3bf
00000260: 7687 bd14 d9a6 9a3f d940 be4b 0427 8a3f
00000270: 6b8a eebb cdf0 c53f 45ab 5656 2c5f a6bf
00000280: da2a d84c c0a1 a1bf f370 aab3 e82b c83f
00000290: a6d5 48b2 0729 acbf e623 322a 1a97 b13f
000002a0: b3ec bdfe d2e1 d43f 347c fea4 528f eabf
000002b0: 9b64 ca02 6699 973f 5d5e 9979 0a56 e73f
000002c0: 0a43 8805 16e0 d3bf 4e70 2793 5388 e63f
000002d0: 71f8 5fca 5e1a 8fbf 613e 3fae dfa1 be3f
000002e0: d71c 5f54 0628 b13f f04e c4f8 a83c 8fbf
000002f0: b774 df98 1664 bcbf 60fe d549 e8cd d13f
00000300: c901 c261 94c3 a93f f755 10af 2292 c33f
00000310: a284 2bb8 3613 e9bf c306 e2e2 2cd2 df3f
00000320: b55d c4ee 3bd7 c63f 612b fe41 d4d2 d53f
00000330: 999f 286a 2939 dc3f a66c 2e80 ea7c ac3f
00000340: 39d6 c537 2f5d b5bf 144e b2a8 6c99 cb3f
00000350: 3a88 6d67 d1fc b13f 5036 e4fe 8eff 86bf
00000360: 56cb 67ae a020 b2bf 6607 7bb7 97d8 d03f
00000370: 1898 616b e1a9 bb3f 0cf6 80d2 6d14 9c3f
00000380: 7dd6 93c6 709d ebbf 708a ac04 cb9f e23f
00000390: 2ddf 4db2 27a7 e53f 927c ac5e b210 e3bf
000003a0: 9dfe 5cad 66ef 913f 27ea 94a2 7341 c3bf
000003b0: 787b 0c85 90bf be3f be77 0f57 b5cb 953f
000003c0: e2e7 1433 0383 c33f 59d0 77d0 2144 a43f
000003d0: c7b1 c406 c01c cb3f 3f22 57f8 529f 963f
000003e0: 416b 2097 6632 c03f 1051 207c 41a6 82bf
000003f0: 7f5a 817f 5cc3 87bf 978b 7654 b3d3 b8bf
00000400: 3321 59e9 4278 c3bf 32ea c317 a890 d1bf
00000410: 595b 61ad 8bb4 d2bf 1849 2377 5456 c9bf
00000420: 4437 42a8 a060 b9bf 861d 0b04 d541 c6bf
00000430: 50b3 1af7 314a bb3f 8afd e582 7906 c53f
00000440: 28ff df90 e491 b63f 61ee 034d 19e1 b5bf
00000450: 35d6 b99f 3ba7 d3bf 7cd9 0c5d 8734 c93f
00000460: d46a 5570 8e61 e0bf 1748 0ccb 7dd4 e23f
00000470: f351 b7e8 3a9b 933f 6a30 c018 5620 d13f
00000480: dbe7 4de4 80ea e5bf 6c8a 14f8 5a04 e93f
00000490: 7942 9c6b e23a c73f 7242 1d3f b1f7 b73f
000004a0: c075 75b7 ecde ac3f 9436 247c 9924 c63f
000004b0: 359a c6dc 5476 ce3f 94f9 243b 36ec ab3f
000004c0: 19c6 b1b9 d710 bc3f 6acc b0fc 32fe b83f
000004d0: dd9b 6e4d e72d c3bf 4304 91bd 7826 d7bf
000004e0: 1dfc 8773 8bd7 c7bf 79d7 b398 d658 cebf
000004f0: 9224 8f51 cc16 ca3f 553e b4f5 70f1 b83f
00000500: 01f3 e886 385e b3bf b65a d063 f81c cfbf
00000510: 8ff2 a7fc f1f0 cfbf fce5 9ec1 6a73 c73f
00000520: cd82 a5a7 c585 b4bf ac96 6f4b ba2f c03f
00000530: 6a6f d767 6d38 bcbf 65ca f953 3270 a43f
00000540: 6db5 be63 d2d6 c73f 781a 635e 42dd e7bf
00000550: bdd0 cf92 1e76 e93f 1607 876f fc60 cdbf
00000560: 39da 41c0 869b d5bf 6d55 1a2c 6d9e d33f
00000570: 5083 1bf4 4a14 c53f 46b6 057c e3d1 afbf
00000580: f75a b76a dfe6 acbf f582 84ee 3731 c03f
00000590: 601a f216 60bf c13f d262 3d08 268f 973f
000005a0: 9f1c c50e 59e7 aebf c03b 79cc 7545 b8bf
000005b0: 0000 00c0 bdca b9bf 0000 00e0 d1be ccbf
000005c0: 0000 00c0 2c57 a83f 0000 0080 adc7 cebf
000005d0: 0000 0080 0043 c33f 0000 00a0 3ca0 cbbf
000005e0: 0000 0040 943e c5bf 0000 0000 460e cabf
000005f0: 0000 0080 0e45 b73f 0000 0060 90c1 b0bf
00000600: 0000 00e0 613f b8bf 0000 0060 a167 bbbf
00000610: 0000 00c0 b823 c1bf 0000 00c0 eb48 c6bf
00000620: 3ad6 7411 d037 c93f ca79 f632 dfb7 dc3f
00000630: 5d0c 6849 d8b7 e4bf f17a 9075 4569 e2bf
00000640: 3732 a60f 5ea5 e6bf 9ed6 f550 53ff ea3f
00000650: dabd 1606 32f5 b23f 76a4 dba4 722a ba3f
00000660: be97 d181 b10a 803f 6eb9 1f63 b577 acbf
00000670: 59a0 ed70 030b c2bf e312 7840 0f1d 9e3f
00000680: 44d6 b7e1 701b 933f f090 2c34 d804 b43f
00000690: 8346 c630 11e5 e4bf b70f 4021 d743 d3bf
000006a0: a010 3aef 11a9 d5bf 6089 756e 25dc a1bf
000006b0: 29d8 4cfe eae4 e53f 666f e47c deb3 e53f
000006c0: ee44 c1ea 3ddb cd3f 7db8 02e0 3796 b8bf
000006d0: e466 7546 7b81 c53f 80f1 6bd4 07ba afbf
000006e0: b964 6b3c 5f98 babf 01c0 3397 3420 b93f
000006f0: e418 ec4d 162c bebf 0710 5637 ab98 be3f
00000700: e7f0 6118 3340 be3f 51e8 fb29 e74c dbbf
00000710: 839b a014 f11b d13f 7aa9 1dd1 0656 dcbf
00000720: 1994 d644 508b b53f d7c6 54f7 bff5 cd3f
00000730: 7cba 64fb 4a18 a53f 569a 7579 eb53 c13f
00000740: 45de 77cd 7224 ac3f e016 69ae e6df a5bf
00000750: 23b4 4f41 77e6 9c3f b1cd 16fb 50f0 a23f
00000760: 1e1c 2ad4 c0e8 ab3f d28b e475 57df cc3f
00000770: 591c fa70 f360 ce3f 6993 df5c 1d23 edbf
00000780: 246e 6c4d f734 b7bf 52dd c5ca 2ff2 e33f
00000790: 9f37 c983 4cc1 e73f eaf2 c23d d292 e9bf
000007a0: 1094 7d4d 20fb aa3f a8c7 9630 4677 c03f
000007b0: bd1b 5090 a528 ce3f 6fde 48aa df41 adbf
000007c0: 18c4 1e17 dc2a a7bf c329 abc3 8e45 c33f
000007d0: c75d 84a3 b72e 9f3f 4b7e 0991 15ff bbbf
000007e0: b14d a6a1 922e f13f d5f0 c9b1 cb52 bebf
000007f0: 520f b675 3681 d23f ff5b c54b cd37 debf
-0.5968755621285853 -0.3176508208145628 0.26639290181832903 -0.20466226185183667 0.7958469210933529 -0.3868476485631397 -0.03278141837211455 0.1486289711025676
0.025233415223330273 -0.0009088908578603759 0.15588651069139353 0.07123938724538365 0.08687335413145482 0.28560441340455267 -0.5230487752965691 1.1679897170815594
0.48611449089364056 0.15886401863880636 -0.5957292884174894 0.20200112653016025 -0.040115474314389166 0.15247171618955194 0.13672108391684176 -0.08431093126330702
0.07174185812125063 0.26988650880672277 -0.02028344933492451 0.03256140968608047 -0.16805566119015974 -0.5654921040864584 0.4409431531826043 -0.634050341609483
0.08459129046915834 0.6429452406169008 -0.10474439536854184 0.24874915917241477 0.16700518582288432 -0.034829998657588714 0.1393738406328217 0.11955994932148821
-0.016468564871877433 -0.031689877679410824 -0.07884160625725206 -0.36333952988780993 0.07216306615820602 1.096128605189669 -0.32695374764727214 -0.5543250512229512
0.06445398811561365 -0.014110185690741728 -0.0825896006875406 0.16855804317815581 0.15935966370544696 -0.054996289242464545 0.11999970883022865 0.20246892992779345
-0.3782103788966874 -0.16069782400593838 0.6711257106249703 0.3829685512610027 -0.3151629297654094 -0.25813746432315987 -0.005400396495867577 0.14847377231978343
-0.0420047804466271 0.18044603721946634 -0.04558811182947645 -0.11817580731067134 -0.14530521229457743 -0.10734768832276778 1.0746302825702287 0.21362858364422155
0.7391545635204931 -0.5374410002969706 -0.4263687510717415 -0.6216972912841324 0.02602709950531997 0.012769731103418657 0.17141124416692163 -0.043694863833783994
-0.034437188511295694 0.18883999607795196 -0.055000534547086574 0.06871188669369097 0.326283215304737 -0.8299954626599004 0.023046106262516557 0.7292530417425486
-0.3105521253610709 0.704141414079922 -0.015187016058913568 0.11965749744489919 0.06701697883464718 -0.015252418605576662 -0.11090222580192487 0.2781925889066539
0.0503202790578175 0.15289720104253465 -0.7835954281873863 0.49720308453116163 0.17844342382953263 0.34099298901189995 0.44098887793597324 0.05564053358758629
-0.08345313178673387 0.21561964261182764 0.07026394629568325 -0.011229626802129605 -0.0708103586000964 0.263219765835052 0.10806092139827717 0.027421680424813785
-0.8629688147036202 0.5820059863365952 0.6766546709540983 -0.5957881783578094 0.017514805155996006 -0.15043492735442607 0.12011054275761335 0.02128489822268142
0.15243568414899672 0.03958230657363577 0.21181488352284658 0.022092148215764103 0.1265381086276083 -0.00910617027333463 -0.011603090897705613 -0.09698029338919266
-0.15210758584931625 -0.27445413895444226 -0.2922696297804826 -0.19794708077694945 -0.09913066966893519 -0.17388403603966313 0.10660087855167188 0.16426009074710307
0.08816364800440779 -0.08546598558671682 -0.3070820865462765 0.19691555064646227 -0.5119087404267142 0.5884388891011011 0.019146843389380618 0.26759865204872446
-0.6848759135311825 0.7817816586796886 0.18148451094068088 0.0936232356155047 0.056388280291439496 0.17299192964167232 0.23798619060581108 0.05453652832010217
0.10963199885898013 0.09762877148823326 -0.14983836441862666 -0.3617231227145263 -0.18626540318652554 -0.23708612877060967 0.20382074339275796 0.09743410109171553
-0.07565644544315477 -0.24307160257077037 -0.24954056584092085 0.1832097478307303 -0.08016620009358207 0.1264565342273064 -0.110236013271274 0.03991849207968271
0.1862433421169202 -0.7457591861246575 0.7956688754479938 -0.2295222801749836 -0.3376175763618537 0.3065445833866168 0.1646817867213266 -0.06214819802231068
-0.05644891908348442 0.12650202890747378 0.13865281219860304 0.023007005932728593 -0.06035879426286183 -0.09480987779646366 -0.10074983537197113 -0.22457335889339447
0.0475400909781456 -0.24046868085861206 0.15048223733901978 -0.21582753956317902 -0.1659722626209259 -0.20356059074401855 0.09089747071266174 -0.06545355170965195
-0.09471713751554489 -0.10705002397298813 -0.1339026391506195 -0.1741003692150116 0.1970157704578684 0.4487226483996919 -0.6474420007438187 -0.5753505035571306
-0.7076864534042845 0.8436676579719522 0.0740538849702185 0.10221020245411858 0.007832896017315846 -0.05560080370911434 -0.14096110357354766 0.029407728490712947
0.01865936639474898 0.07819892190724764 -0.6529622986438003 -0.30101564642995576 -0.3384442173194291 -0.03488270734193821 0.6841940848160039 0.6782066764167041
0.23325323069233356 -0.09604214877137625 0.1680139631305827 -0.0619661757282044 -0.10388751244626605 0.09814766589602188 -0.1178602161636238 0.11951704121571548
0.11816710801389584 -0.4265687856674321 0.26733042730705153 -0.4427506487033025 0.08415700607891131 0.23406219078747512 0.041200965106658466 0.13537352972635358
0.05496557958752794 -0.042723854818673024 0.02822290741089629 0.03698971810390662 0.054510141276346 0.2255658460281596 0.2373337079663738 -0.9105364622051698
-0.09065194740508581 0.6233138046654096 0.7423460554070863 -0.7991725164680166 0.05269719072274637 0.1286399590731524 0.2356154398587175 -0.05714320138616535
-0.04524886877278095 0.15056023172503616 0.03045165000466257 -0.10936102667755525 1.0738703073919675 -0.11845086184070237 0.28913651938659257 -0.4721558799696481

bias f8 [28]
00000000: 9d6b cf7f d976 b33f 610a 7950 bd9c b8bf
00000010: 2a31 c43f daad c23f ce41 9c4f 2a64 b93f
00000020: e90b 4ee2 8bda b23f 7e25 2ae2 7787 d33f
00000030: 0112 a4f8 2dac bd3f e183 ecd7 56b1 c5bf
00000040: 4e45 3e4a 7d0a c1bf c3b0 15ff b4fa c6bf
00000050: 6ea8 3c15 69bb c3bf 0d32 20c4 ffdb b5bf
00000060: 968f b84d 7c0e d03f 0000 0080 c1c5 aabf
00000070: 9ab5 90de cc41 d3bf 5b60 3496 2911 cdbf
00000080: e516 9e3b 2880 aa3f ffc6 645b 43a4 cebf
00000090: 9c82 4d9b 3c41 cdbf d5c1 e655 c649 cc3f
000000a0: e773 8f68 0517 a73f c2cf 6b4e 4deb 793f
000000b0: 2cec dc62 8da0 a73f dff3 b24c c6c6 babf
000000c0: 82ef 3c1c ce70 b23f 1d95 70cb 53b5 c8bf
000000d0: 1c2a 8cd7 60e0 c73f 84c9 0520 e041 9abf
0.07603225107543073 -0.09614165510814977 0.14593055833427943 0.09918465083706637 0.07364725375195715 0.30514332853689285 0.11590850181898561 -0.1694744638744217
-0.1331326115146489 -0.17952597098645215 -0.154156813974001 -0.08538816965319303 0.2508841284745754 -0.05229000747203827 -0.30089112982644795 -0.22708625635346177
0.051759011533290246 -0.23938791239338994 -0.2285533674539878 0.2210014266434103 0.045097512258258914 0.0063279170778862154 0.04614679176162215 -0.1045955598119259
0.07203376950650234 -0.19303367074568537 0.18653498196393137 -0.025641920046334046

weight f8 [56, 28]
00000000: 567d 65e1 6d78 a13f ce64 c109 b66f b6bf
00000010: 7df4 429b b08d bebf acba 91eb 58e8 a13f
00000020: f8c3 16ef f873 b1bf 0984 d23d 56d8 b6bf
00000030: e25c 1b75 6bc8 a23f ac72 ebef d9cd c8bf
00000040: 6b62 e0e6 b6e7 c3bf c853 a37e 1600 bb3f
00000050: d777 cf63 9ac2 c6bf 326b d476 c3df c8bf
00000060: bac3 62dd 416b cdbf 0000 0060 fc1a b83f
00000070: 1214 d6b9 17a4 b6bf 909d bf0c 2449 c7bf
00000080: b6ea bf95 da91 c5bf 01a1 adfb 2933 a63f
00000090: 07c8 c588 d0fb 8bbf c2a1 747e 84d9 803f
000000a0: 252b 00fc f405 c6bf 3ab9 990d 61fe c63f
000000b0: e8d4 1692 fe27 97bf 4084 6fc5 6ca2 b1bf
000000c0: 5507 2d04 fbbe 9c3f 6e17 3743 60d6 c8bf
000000d0: a125 3484 63ff a5bf a735 8ebc 0c13 bebf
000000e0: b66f 6cd1 c6f5 cb3f 2a54 1b69 8144 7f3f
000000f0: fa0c 7d5e 3ff9 b3bf 0ab1 82d3 0eee cb3f
00000100: b721 3fef ad11 69bf 3749 207a b827 d8bf
00000110: 609e bbee e92e 973f 1848 e20a f403 cb3f
00000120: b79f 8f9d c169 cabf 58df ef03 3253 783f
00000130: 4501 23cc eafa b3bf b2a1 3219 5bc1 9c3f
00000140: 4f2c a553 0205 d0bf 0000 0060 ee0e 7b3f
00000150: d975 9a7f 17c0 c2bf 1512 7df5 7b5e cd3f
00000160: a1ae 74b9 1ced 8b3f aed8 54a2 acfe cf3f
00000170: 4b49 258b 9044 c1bf f462 ea26 79bc b13f
00000180: 3cd4 182a 5724 b43f 7e30 25a3 4413 bb3f
00000190: 8303 c074 e16d babf 4425 1567 ccf4 97bf
000001a0: 96a5 ff13 50a1 bf3f 8e53 78cd b3db d13f
000001b0: 7b4d f08a 1235 d03f 4014 26fc 016a c73f
000001c0: 0d4f f26e 233c c2bf f03c 2eed 2529 c7bf
000001d0: 0e03 b57d 59ce d23f 12ba 77c3 42b7 a23f
000001e0: b07d 9fa2 a290 943f 638e 068f 0ff7 c0bf
000001f0: ea9c 999f 142f db3f d508 752e 6f3d babf
00000200: 9f88 955b 1e10 bbbf 0032 8d59 08a6 b63f
00000210: 0aaa 9390 d514 8e3f 2dfe 26bb d729 c43f
00000220: d991 04dd 13ba cf3f 0000 00c0 3646 b5bf
00000230: c4ac a398 c60d c93f 90b3 5d79 2bfa a03f
00000240: dcd5 58b8 5c36 ca3f 1422 715b 433f c1bf
00000250: 30c0 a69e 3981 ce3f af07 e370 e551 bfbf
00000260: e43e 1d6d d4cd c13f 5fd9 301f e169 acbf
00000270: 8e65 83f7 3e85 a83f 10c9 efca 7955 c23f
00000280: f78d 01bd 772a da3f fca7 901a 26a8 c2bf
00000290: 8222 76e7 3414 d3bf 374e 9c2c ac95 ccbf
000002a0: 83b3 793b 3677 cc3f 8af6 5ead 943c cfbf
000002b0: b34a f26d 5730 b03f c721 e466 4acf c2bf
000002c0: 01da 5f5b 4846 aabf 7e5c 8a6b 28ad 403f
000002d0: 5ff3 9e1b 9af0 abbf 0d67 60c5 6d25 99bf
000002e0: c677 f93e 54f4 b5bf 3fbb 42c2 fe89 c0bf
000002f0: 7302 1854 2ada c3bf 0d6b 4f11 dc78 cf3f
00000300: 2e91 7358 58bd a43f 0000 0040 2d8b babf
00000310: b91a d461 a961 b4bf 7a85 9457 02fe a43f
00000320: 4acf 37f1 4d96 bf3f bde3 432a 6d73 cf3f
00000330: 1d6c e4a8 b0ae b13f e42a b934 c2ed c83f
00000340: a509 57dc 82e7 ae3f ca47 10a9 da50 cb3f
00000350: 3325 9faa 1fff c53f 8ebe cb3e 8006 be3f
00000360: 7e4b 13cd ea49 bebf a65a 168d 5172 b23f
00000370: 11bc 5666 7388 c2bf 1f5d 5d77 2b3d a4bf
00000380: 6300 ac32 2e02 df3f b952 398c 3fb6 72bf
00000390: dbe7 c55f 4b29 b1bf c0b6 162a ea64 aebf
000003a0: 4ffa 2a18 572a 653f 0d4e 7f2a 846d c4bf
000003b0: fb44 2dff 5050 c7bf 0b45 e909 660d d23f
000003c0: 94ce e6f7 abc5 bb3f 6174 b2d4 6def bcbf
000003d0: f402 8587 f656 a8bf 5cba 6440 bf2b 903f
000003e0: 0873 b56c 1d30 8f3f 0000 00a0 6bbd 873f
000003f0: 3996 f90e 76f7 ccbf 24ea fe7f 7641 cd3f
00000400: 5269 acbb 3678 a43f e491 ab80 31ef c93f
00000410: b456 e345 8e4e b7bf bc6a 6127 6984 8fbf
00000420: 84a2 41c8 8e94 c1bf 254a 4297 5e5e b0bf
00000430: b72d 5f6b 7db6 c33f dfff 4137 540a c4bf
00000440: 96dc 8d9c afb1 b8bf 15cd 0e48 90dd c8bf
00000450: 04f8 be34 189b d13f 36d9 8a18 75ad be3f
00000460: f09f 72f1 0c3b d03f 3894 44eb f08d d1bf
00000470: b4e1 62d1 b369 d33f 9f61 46b5 268a 9cbf
00000480: cce3 8b4b b98b b63f a6f0 a7f5 f297 c5bf
00000490: 9927 0cf7 a7da d13f 6704 9dd5 6060 b23f
000004a0: c8e4 aa14 fc66 b7bf 1229 d56a 9d37 b93f
000004b0: 9693 2ba1 bfa2 a13f 626f 5c59 a84e b43f
000004c0: 3836 5c4d 153c d73f 0000 0080 9c5f b4bf
000004d0: b8d3 c1cc cbfc 81bf 4d4a 52cd 30b2 cc3f
000004e0: 2dba 4de9 4dad b53f c013 472a e9fb c63f
000004f0: a4a9 d5f8 e26f c63f 94e7 1656 d1af c9bf
00000500: e6a9 6ee6 78a1 9e3f cc28 d8f9 939d c6bf
00000510: 277f 023c e418 bdbf fa53 5cf2 726e 803f
00000520: 54fe 8e58 bf23 d23f 4189 a963 8fb6 c7bf
00000530: f64d f3b5 b3f9 d1bf 216c aa83 6780 cdbf
00000540: 272c 06c1 b5c9 b13f c131 2414 beaf c73f
00000550: e3f3 e9e8 4a9e ccbf 6bef 8462 5236 d23f
00000560: 1b23 c85a 2394 cc3f 5727 39fb 9c58 b1bf
00000570: 1cae 9908 0948 b03f 1d9b 3eb1 e30e d03f
00000580: 7b6a 68f9 4a25 cabf aca4 08d2 9e49 b1bf
00000590: ebc8 e9a9 7da7 acbf e8c8 a7a7 d7a0 afbf
000005a0: 8b01 0b9c ade9 bc3f 0000 00a0 a3b1 c1bf
000005b0: a47f 33d5 3037 c3bf 1523 2a8d d5de b4bf
000005c0: ff85 5602 466c c3bf 2bea 69cb 95a3 bd3f
000005d0: b8c1 120d ecba adbf d37d 41eb ea70 c2bf
000005e0: 372b 0ab1 da7d cc3f 160e 4bdd ed82 a9bf
000005f0: 3429 1aa8 ec4e ad3f b86b 93c9 d686 c03f
00000600: a17a a6fb d8f1 b53f 45b5 6a68 bd5d d53f
00000610: c504 ac98 0186 b83f 0d3f 15bc 288f cd3f
00000620: 9881 de56 201b c93f 1ad8 8c3d 3a73 a93f
00000630: 8f07 f560 b679 893f 5f6a 680b bb96 c73f
00000640: 528e ca95 a3b3 b13f c958 cc26 d900 c73f
00000650: 8a87 7f78 2987 bf3f 1654 78ac 986b cb3f
00000660: 136a 7d18 98b5 c1bf 6de8 0968 147c a5bf
00000670: 17de bec0 97b4 cabf fb97 242c 1fe0 c3bf
00000680: cdcd 712d f17e c63f 0000 0020 635e b33f
00000690: 6e55 1e1c 99e2 c2bf 4857 2bdc 1d1d af3f
000006a0: ef06 92df bebb c5bf 25df e539 5ee5 c5bf
000006b0: a6c0 7e45 7665 a03f 20dc f652 7cae ac3f
000006c0: adcd 4da0 814d c63f 7966 9726 42bb cfbf
000006d0: 4ae2 7922 bb87 ccbf ef7f fbfc 50ae acbf
000006e0: eb1d 8a8c cff0 cd3f 8472 1ae4 cce0 c8bf
000006f0: e3ce f3b3 579c b3bf f1de 1ff6 1a38 a4bf
00000700: 378d 4ee9 33aa cd3f 888f 7692 cc25 c83f
00000710: 682f c3b3 a2c5 bf3f a35a fc6a 4c08 bdbf
00000720: c86b 41d9 7dbd b73f 69aa adbb 0b0a b13f
00000730: 584c cc39 4720 d3bf 4e6d e58c 50bd 713f
00000740: 2f61 53a0 b6ff d03f fdb6 1c41 06a5 b83f
00000750: 6b05 d932 b70f a2bf 7938 dc76 fb53 c6bf
00000760: 9609 2c52 bc97 b0bf 0000 0040 7781 983f
00000770: 4e3e 01ee ab8b c6bf 8e1f 00b8 fff2 a1bf
00000780: a131 7259 c497 c83f 8333 b861 7c43 b53f
00000790: b996 aadb d723 91bf 3e12 0831 f2c9 d3bf
000007a0: 8927 e0d5 53f5 b43f 08a5 2596 3b3a 56bf
000007b0: 8417 b69f 0c69 c53f 92f3 b0c6 07c8 bb3f
000007c0: 2ca0 7ed7 4d03 85bf f862 e19c 2731 c4bf
000007d0: cfda 3c68 754e c53f e8f8 2437 2e8d a8bf
000007e0: 23b9 3d46 4197 82bf fb62 08be 2287 cebf
000007f0: bbc9 98e1 b9ba 83bf 8b72 e1f3 3604 b73f
0.034121927036489794 -0.08764207590265302 -0.11934951582493798 0.03497579455949071 -0.06817584836132073 -0.08923853883108292 0.03668533138778131 -0.1937820836527825
-0.15550886414782225 0.10547009078739145 -0.17781381486469058 -0.19432872106775673 -0.22983573255399198 0.09416177123785019 -0.08844135558145208 -0.1819195806740308
-0.16851360618587358 0.043359100315514716 -0.013663891958206177 0.008227381810301252 -0.17205679230422635 0.17963803447805465 -0.022613504091812425 -0.0688846570988213
0.028072282914997377 -0.19404223711006402 -0.04296408642592132 -0.11747817614942467 0.2184380076004097 0.007633691320468686 -0.07802196556899679 0.2182024510160619
-0.0030601880225484507 -0.37742435385111456 0.022639899440859756 0.21105814486924213 -0.20635242646608074 0.005938716290067557 -0.07804744228179057 0.028081344044638086
-0.25030573051907806 0.006606036331504583 -0.14648717623360488 0.2294459294008823 0.013635849389707135 0.249959544433016 -0.13490492624493763 0.0692821235665056
0.07867951181181437 0.10576275809325072 -0.10323914623587709 -0.023394769469893065 0.12355518806693619 0.2790345675032818 0.2532392842124051 0.18292259990644943
-0.142460278676133 -0.18094324189266997 0.29384457851487944 0.036554418907929556 0.02008298986026852 -0.132539696537708 0.42474856935446204 -0.10249991306503443
-0.10571470008793192 0.08847095667187688 0.014688175654062458 0.15752693784996677 0.24786613742720823 -0.08310262858867645 0.19573290303319457 0.03315864426153958
0.20478400231665617 -0.13474313702524 0.2383186363854306 -0.12234338766123075 0.13909392669528764 -0.05549529557940746 0.04789158603098108 0.14323351296440778
0.4088420243990351 -0.14575649544832447 -0.2981083164563999 -0.22331764391184247 0.22238805679389992 -0.244036278394493 0.06323763307799872 -0.14695100807172265
-0.05131746402178195 0.0005089232791587598 -0.05457002246064379 -0.024556842014226855 -0.08575941598380074 -0.1292112778223444 -0.15509537798063242 0.24587584347940386
0.040507088467878524 -0.10368616878986359 -0.07961519850150979 0.041000436011254984 0.12338721407996647 0.24571003497820057 0.06907180903765249 0.1947558171690026
0.060360040089580104 0.21340497260149355 0.17184825736175355 0.11728669674971057 -0.11831538683627049 0.0720568627788035 -0.14478914734851903 -0.03952918846214914
0.48450808475900525 -0.004568336709401316 -0.06703635299882597 -0.05936366809633631 0.0025836659491169987 -0.159592171431186 -0.18213856181913698 0.28206778495685175
0.10848498155865577 -0.11302839701461799 -0.04753847507754996 0.015791881852403086 0.015228490715054402 0.011591759510338306 -0.22630191546629577 0.22856026887696246
0.03997965851722775 0.20261210234379157 -0.09104241567851085 -0.015389272226618338 -0.13734612253326273 -0.06393996422620114 0.1540066503788304 -0.15656521509299545
-0.09646127292750103 -0.19426158445785605 0.2750912203881628 0.11983424996546863 0.25360416010744213 -0.2742883966005283 0.30332656333805663 -0.027870755018371104
0.08806951612849828 -0.16869961733744282 0.27897071004610435 0.07178311553163184 -0.09141517166689817 0.09850486620158375 0.034444797920321665 0.07932521993319377
0.3630421882124639 -0.07958391308784485 -0.00878295153254692 0.2241879465623974 0.0846756643856927 0.17956270756090298 0.17528950834396284 -0.20067803100192505
0.0299128428120329 -0.1766838998740411 -0.11366106476861813 0.008023164769420877 0.2834318508939522 -0.18525879255600766 -0.2808656002864319 -0.23048108986844887
0.0694840999841949 0.18505073531595254 -0.22358070729015286 0.2845655405142142 0.22327081616119746 -0.06775838025455748 0.06359917125671938 0.25090877827681074
-0.20426308801764378 -0.06752960803773317 -0.055965353957519635 -0.06177400514197179 0.11294064578669898 -0.13823361694812775 -0.15012178812230303 -0.08152517982865633
-0.15174174417647632 0.11577736107020857 -0.058066727252824746 -0.14407097327328575 0.22259076733129188 -0.04982703520138558 0.057242770691191686 0.12911496012278945
0.08572155135923733 0.3338464278884497 0.09579477288572764 0.23093136962642583 0.1961403297582478 0.04970724107117537 0.012439179262063308 0.18428743416810087
0.06914732367527535 0.17971338648266613 0.12315615836953789 0.21422108098400433 -0.138354312856635 -0.04196227808002182 -0.20863625441937536 -0.15527715354363622
0.17574896544429777 0.07565898448228836 -0.147540224771244 0.060769017339835474 -0.16979204098247844 -0.17106225802467026 0.03202409361199558 0.05601871979472883
0.17424030616130662 -0.24790217289300978 -0.22289218123821036 -0.05601742828525846 0.23391146051675035 -0.19436036241394927 -0.0766043485962729 -0.03949054960679444
0.2317566765969816 0.1886535372879019 0.12410942925197122 -0.11340787517506583 0.09273516229715917 0.0665595372389959 -0.29884510654773555 0.004330935144334204
0.2656075063400917 0.09626807298328895 -0.03527615066242159 -0.17443793586466308 -0.06481530195381988 0.02393137291073799 -0.17613743897753625 -0.03505705948924663
0.19213156096919895 0.08306100259524211 -0.016738293440218686 -0.3092008093665618 0.08186840030262323 -0.0013566572093515767 0.16726835058596745 0.10852097130641727
-0.010260208262323621 -0.15775008354355413 0.16645686712009541 -0.047952121955391835 -0.009077558475578734 -0.23849901465361953 -0.009633495518845394 0.08990806058995753

bias f8 [56]
00000000: 6988 942f 8972 c63f 9a2e abab 3e95 b33f
00000010: 4878 2145 93e3 b6bf 4dd4 c858 5bb6 5dbf
00000020: fce1 6f89 c5d7 b3bf fbc2 3dfc 8acc b4bf
00000030: 46c1 fb1c cce3 a6bf 44d6 c0b6 de58 c63f
00000040: 0f55 8d45 7a13 9f3f 08c7 14fe dc61 a33f
00000050: 1f0a 7d95 45f2 c73f 7a31 be5a 4d41 a2bf
00000060: c335 66c4 b49e bb3f 9b72 26e5 67ce 983f
00000070: 0000 0080 c3e5 b13f ab2d d8c7 ad7b 9fbf
00000080: 6a04 97aa ccee c2bf c1d6 5882 5376 b13f
00000090: ac1d 0c44 0764 b7bf 92f5 894f 6875 c33f
000000a0: 011b 2ecc 364c c53f ac6c 25fc 5b12 b83f
000000b0: 3004 2192 2588 88bf 0a22 a3c8 e3e4 c73f
000000c0: 36fc 9489 dd13 913f cb94 1abe 11fa a33f
000000d0: 9d09 ab57 c1c2 a33f 998e bef9 f4e6 c43f
000000e0: a571 8762 b29a c0bf 69f0 b517 b248 b4bf
000000f0: fa56 04b1 c5ca 863f e53d eeb2 ee08 af3f
00000100: c210 76c8 4650 903f 04b4 6be7 2b57 a73f
00000110: 4b61 1b3b 61b5 d03f 12fb 72e5 8d83 be3f
00000120: 6ef5 1493 4007 ac3f 6ab1 a03a 88f5 b6bf
00000130: 3f01 3214 2c3f 9c3f c63b b508 bf30 c53f
00000140: 47de a558 c54f c03f 2ef1 24e1 26af c1bf
00000150: 4ef1 f720 7da5 c33f 0d4d 7e3e 1f59 ae3f
00000160: 002a 2ec7 b33d c43f 2bb9 7048 7ade b53f
00000170: cae7 e5eb 4859 9ebf 66cc 4229 0f6c c33f
00000180: 64ba 656b 9868 bd3f f13c 4f16 12cd b53f
00000190: 6e49 19dc 696f a43f c798 f542 ac24 c43f
000001a0: 6d76 ee86 1987 b73f 0dcf 3e26 128c c73f
000001b0: ffb1 64bf b93e b4bf cbd2 1d1c 541b a8bf
0.17537035773517864 0.0764960450280178 -0.08941002309572454 -0.0018134967859968654 -0.0775111637630132 -0.08124607713922309 -0.04470670560647476 0.17458709643840298
0.030347738738176363 0.037856012359396785 0.1870810489582064 -0.03565446598722395 0.10789041323570019 0.024224875794618055 0.06991216540336609 -0.030745234797036208
-0.14791258172593597 0.06821176464367353 -0.09137006198226655 0.1520204914449264 0.16638836831790374 0.09403014093315915 -0.011978429338457358 0.18667266175022262
0.016677342912995573 0.03901725240329198 0.0385952395931952 0.16329824633168213 -0.12972097216596726 -0.07923424795984747 0.011128944840077083 0.06061502393924537
0.01593123053091073 0.0455869407649985 0.2610705449310628 0.1191948590448926 0.05474283023293479 -0.08968402320232874 0.027584732754349913 0.1655501167792563
0.12743441418182241 -0.13815771096586488 0.153487816903985 0.05927369726046026 0.1581330034790227 0.0854259898048652 -0.02963746967132134 0.15173520579046168
0.11487724897390589 0.0851603798357592 0.03991251765968938 0.15736916799068565 0.0919052080557436 0.18396212451408936 -0.07908211634339322 -0.047083500320615444

weight f8 [6, 56]
00000000: 6354 7430 60ec b33f 9245 f797 c2e7 c8bf
00000010: ac1b 1f0f 97bc c93f d2d6 6de6 3a17 c23f
00000020: 6645 9945 e62a d8bf db74 a619 ee86 91bf
00000030: d267 6f80 e96e a8bf 904b 0501 0b50 c83f
00000040: ce2c e16c 26f4 d1bf c788 a3f1 ccaf c83f
00000050: b202 59da 550b ae3f dd93 07ec 4ccf c23f
00000060: 8dac 19de 2e2c a9bf 2e89 3c1d 6ade b83f
00000070: 0000 0060 eb8f a5bf bfe0 c831 788a ab3f
00000080: cee3 907b 6a13 c2bf 4510 c701 fa30 a0bf
00000090: a609 dbd3 d4b0 99bf bc62 840c d6c9 c7bf
000000a0: d5dc 5451 5e39 c53f 9098 950f 4096 a4bf
000000b0: 2b4c 6ade 856d 9abf 23b2 60eb 8b12 c93f
000000c0: 0f7c 6883 b593 7ebf ea10 4138 6aeb a2bf
000000d0: 32c5 95a2 2fd3 633f 70bc 70dd 2570 cb3f
000000e0: 9807 5d6d 2a72 c93f 1dd7 a4b3 0091 c63f
000000f0: fc44 4175 36b1 c5bf 9aef fd89 c993 cdbf
00000100: dab4 669c 7fa5 cd3f 0063 ee71 abf0 c13f
00000110: 7671 d57e 0ef2 d63f 15cf 5598 4359 8c3f
00000120: 120d 75dd 17f1 c13f 8609 ebd1 51ba 7dbf
00000130: 873c 83d5 4f88 b73f 8b35 1dba ef25 c23f
00000140: fbe5 9b73 a7a5 b4bf fb98 2f32 0ae5 a1bf
00000150: 2232 d7ad ff19 bc3f a3d6 6916 3c21 de3f
00000160: c6b2 2e11 f894 83bf 57c4 edec 2d1a a4bf
00000170: 8843 df47 339b 963f b915 fd3a 6722 c33f
00000180: 5512 ba2f 9b2c ae3f be60 e2fd cdff aebf
00000190: 8511 872d 927c ccbf c023 de2d 3036 6d3f
000001a0: a108 9dfe 44b9 943f a1e7 225b adcc 9bbf
000001b0: 7e11 241e 73de d9bf 38f2 2a39 ecf0 a63f
000001c0: 97a2 f647 4e16 afbf 46cc a694 76be 8e3f
000001d0: 6664 2449 d9fb d8bf 8b67 f7f0 1809 c1bf
000001e0: eb12 55b9 0e6e 923f 769c 5b0f 79e5 e1bf
000001f0: 6a32 2858 f226 b1bf ebb8 284c e8e2 bb3f
00000200: f645 3a48 4c44 b73f 8e97 236f 6004 a43f
00000210: 353e 945d 88e3 b03f 3339 02c7 77ca a5bf
00000220: a535 21ea a751 debf a570 bb68 6d75 a83f
00000230: 0000 00a0 4911 c03f 9d44 2b84 1090 ab3f
00000240: 3909 91b8 e37e b5bf e75f a0ca c897 64bf
00000250: 8913 ffa5 cdd4 b83f 6acd 7c3f 8b34 d13f
00000260: b30c 9cb2 215f 88bf 7315 d651 b4df b13f
00000270: a06b 63fe 0b05 bb3f 92ca f1a7 80e3 c0bf
00000280: 3917 a929 1739 c9bf c220 7c44 256e b9bf
00000290: 9a9d 603b d23f d13f 003c 6c7f a1d1 cebf
000002a0: 32f1 e0b9 78a2 cf3f 1a79 5999 45ee bbbf
000002b0: 8f3a f3da c169 a1bf f85d 38b7 1411 893f
000002c0: 59a5 715d 815e c6bf 8510 644f 3b60 b8bf
000002d0: a31c 08a8 060e bfbf 89b7 1b66 c48a b03f
000002e0: 8fb2 ffcc e1d7 d3bf ab5a 0d5a 794b 97bf
000002f0: 48db e070 f731 ca3f e0e3 4e38 00ab d83f
00000300: ece0 bbed 70f1 cd3f 7e23 afd5 7fb5 9cbf
00000310: 4628 24ce 7145 8d3f 4abc 7022 d20b ce3f
00000320: 5905 3d24 ff68 b3bf b528 ef68 41c5 c13f
00000330: d8e3 8770 5b5d b2bf 508a c2aa 5c1f c93f
00000340: 8627 aa2b eb11 a9bf 6f62 ca6e 7e6a ce3f
00000350: eee7 9e4c 7af4 b13f 0388 4860 e404 b43f
00000360: 087b 1300 9527 a43f 4116 2b63 35ee bdbf
00000370: ed8d 6f9f 37d7 d43f 2c02 7a46 bf3d ba3f
00000380: 171d 3765 a7cf ac3f 666c c561 4b8e d2bf
00000390: 808d bef6 4645 a9bf 1320 7354 0605 9bbf
000003a0: 31be ece2 a360 b23f ca23 2eeb 4c02 cb3f
000003b0: 6470 91d0 96b0 95bf a619 4479 21c3 c1bf
000003c0: 1d0c 676a 8c70 cc3f f44a 5515 3237 d5bf
000003d0: 84f1 f1a7 0244 d53f b2c6 8d83 619f b6bf
000003e0: 43d1 6ba2 7c41 c63f ed85 640d 7dab d63f
000003f0: 0000 0020 62cc bdbf 8cd2 a611 5da1 97bf
00000400: c6bf 990f e2eb c1bf cb31 8a24 a582 b4bf
00000410: 810f 1ae8 8f87 aa3f d442 eddd d6a3 aebf
00000420: 09ba dd44 f5eb c83f 9770 7b5e ac1d b33f
00000430: a685 36d8 f92b ce3f 6cdc bbe9 cfc8 ad3f
00000440: 5a12 9de6 60c5 c83f 6172 6b0c 1435 8f3f
00000450: 01ac 46af 1b33 cdbf 9d98 f54c 571f 9e3f
00000460: c7a1 804b 7255 ccbf e6ab 9fd0 0f1b b73f
00000470: 6223 e69d aedd b0bf 9ee4 6624 67d2 a83f
00000480: d3d5 52ea 33df c13f 1d50 d77f 976b a53f
00000490: d9f1 cdc4 23f5 c0bf 53b7 d54d 7d73 cabf
000004a0: 8c0c acf4 7f35 b23f d81d 8e1b bc60 b83f
000004b0: b2e7 8bcc 84da c8bf 1401 f0a7 796b cabf
000004c0: 1a61 1d56 2fe6 b23f e62a e615 4a90 b1bf
000004d0: 123d 6c14 85a7 babf 0df4 9913 af51 b5bf
000004e0: 3f88 ba26 1541 c7bf 3abb 5521 f251 a83f
000004f0: 2e1d 758b ac1d b5bf 3cc7 0e48 8bbf b53f
00000500: 6e1d c6a6 1862 d0bf bd9a 3133 e2b5 9d3f
00000510: 8560 10c1 5a51 c9bf 029d 5f96 b881 b0bf
00000520: 5d4b f4c9 51ce c33f 1c84 b9d0 8ce9 cabf
00000530: 965d ca1e 302a c03f e622 dd6f 747b b3bf
00000540: 30cd 3388 0efd 9b3f e379 e678 d89e d73f
00000550: 8c8f 37fc 4705 b9bf c108 fee3 c26b bbbf
00000560: aec6 4f76 f4aa aabf 936e 8024 8c73 b2bf
00000570: a6e0 accb 87a3 d13f d67a c282 019a a43f
00000580: bf02 2dff 1bc2 c3bf 07d7 9ee8 41a1 c5bf
00000590: 99b2 7d18 f679 bdbf dd4b 944c 274c aabf
000005a0: 50cc fc8d e7c7 82bf 77c6 87e9 91d1 adbf
000005b0: 0000 0020 eaa8 ba3f d707 196a c032 9bbf
000005c0: e7f8 3d64 a1f2 b9bf 807c 9f6f a32e 8b3f
000005d0: 23e1 799f e698 b73f eb50 1f49 1b9b c2bf
000005e0: ddd2 6610 6e59 d63f 8c84 7bed b783 cf3f
000005f0: b86d 9a22 6fa0 bebf d242 8bf3 7cf2 c2bf
00000600: 2c1e 3e7d 0692 b53f 3886 2400 135d 9a3f
00000610: b323 d97d 5f4d a83f 7d7d b149 14f5 be3f
00000620: 58c9 1899 a8f8 b93f 8bc7 e43c 00ec c9bf
00000630: f470 9046 f4d2 cf3f a585 1587 deac cd3f
00000640: 9dc6 32bc f4f6 aa3f 54dc 2874 7fc2 a63f
00000650: 4228 9e53 d0fe 9dbf 1c3f bec0 3d2e c13f
00000660: 1e73 319a 4a09 d03f 0299 8df4 c2df b8bf
00000670: d506 fcf6 1aaf d3bf f998 59ba f239 d6bf
00000680: ac5d 8794 74e9 ab3f faa2 503e 2651 a6bf
00000690: db37 e925 403c bdbf 2983 104d 465d a93f
000006a0: d89c 7a7d 541a c53f 5c1b 425c 444a c23f
000006b0: ca06 2160 f7cf aabf 354c 0a5c 4110 d8bf
000006c0: 97a1 b40b 9ea9 d13f ce44 5a76 22e8 bcbf
000006d0: 3738 147f 88af c2bf 095c 71a5 ed52 c8bf
000006e0: 2cc0 8d63 3571 b1bf 7076 3dbd d2f8 67bf
000006f0: 26b5 2f31 d388 9b3f 78fd 1378 0a1a 753f
00000700: e7fa c5e6 4f5b c03f 27b2 6136 0f90 d13f
00000710: 14fe 6c62 07bd ccbf c090 84ce 0b47 c33f
00000720: a218 399a 79a2 d33f d8c2 55b1 0e52 b03f
00000730: 022f b183 97e1 b6bf 46f1 2929 d95d a0bf
00000740: cf4a 99b3 295f b13f 1ed6 b15b db14 ca3f
00000750: c8af 6d63 c2ef cabf 8e93 9ca9 4a26 be3f
00000760: 5b38 461c e4cd cc3f 6211 98bd e51e d2bf
00000770: 0000 00e0 9d30 bd3f 1f7a 82d4 dcba a5bf
00000780: fac9 cf72 02ca bcbf 8f69 dcbb f855 903f
00000790: 9370 9cf0 3239 bf3f 4f50 b140 2197 c5bf
000007a0: 6a55 1a60 e20d d1bf a2a1 6a88 2db9 45bf
000007b0: 05b4 b0f7 41e3 c0bf ed76 5c32 a395 9e3f
000007c0: 0524 534b a744 ca3f 387f d732 245f a03f
000007d0: ec1e a8dd d1ed b13f f8b9 a5e7 a8a8 a4bf
000007e0: 9a25 972e 0472 d1bf 6e47 02e4 a270 b83f
000007f0: 5941 c678 de3c b53f f233 c945 b466 c5bf
0.07782555754632052 -0.19457275791368694 0.20106781233172677 0.14133392573756126 -0.377618377654548 -0.017116279902997227 -0.047721192291376405 0.1899427180274782
-0.28052673943302586 0.19286500738878073 0.058680231956264164 0.14695130848772822 -0.049165215122081475 0.0971437760713669 -0.042113643139600754 0.05379081351969849
-0.14121752770895885 -0.03162366172503587 -0.025088620596542953 -0.18584704981983247 0.16581324549927126 -0.0402088183425785 -0.02580842180266189 0.1958784961037888
-0.007465085064295897 -0.03695232330986349 0.0024200373051647345 0.21435998260992362 0.19879656162271142 0.17630013248133816 -0.16947060323085583 -0.23107260930907786
0.23161311280038072 0.14015715659186156 0.3585239637957537 0.01384213265075788 0.1401700812658438 -0.007257766351076339 0.0919237037917232 0.14178272807695821
-0.08065268108830274 -0.03495056021329109 0.10977170938640105 0.4707784861451307 -0.00956147959171839 -0.03926223294445979 0.022076417218900996 0.14948740368178706
0.05893406827548079 -0.0605453846375794 -0.2225516054442204 0.003565878009741813 0.02023799709355301 -0.02714796894790761 -0.40420225089498973 0.044806844690786496
-0.060717054638478256 0.01501171723507445 -0.39037162916935697 -0.13309013143480927 0.017997961103236298 -0.5592618274648788 -0.06700052883406618 0.10893108233787856
0.09088589442605852 0.039095891539360314 0.06597187313695303 -0.04256033233933678 -0.47373388160925806 0.04777089980572783 0.12552757561206818 0.0538335000361567
-0.08396743064898694 -0.002513782664220077 0.09699712088247571 0.2688320274348458 -0.011900199187499494 0.06981970785098728 0.10554575882581085 -0.13194282722868828
-0.19705476316647166 -0.09933693811410918 0.26952033804487885 -0.24077242585960335 0.24714573932750167 -0.10910449022182825 -0.03400998876314986 0.012239610520778918
-0.17475907385532244 -0.09521837890867076 -0.12130776979766948 0.06461741917493503 -0.31005139369407514 -0.0227488480771522 0.20464985858571993 0.3854370641598148
0.23393069847202896 -0.028036115090603435 0.0142926112207712 0.23473574334772912 -0.07582087168431907 0.1388322603582474 -0.0717370176061104 0.19626959169279923
-0.048964833336028454 0.23762493524261027 0.07013668413756566 0.07819964743296741 0.039364486941613264 -0.11691602393246915 0.3256358201017225 0.10250468702907573
0.05627177343881778 -0.2899349646374446 -0.04935666811004591 -0.026386355308915265 0.0717871121421403 0.21100770457658619 -0.021181446533191553 -0.13876741810981946
0.22218470759807554 -0.3314938743907725 0.3322760238732132 -0.08836945974123969 0.1738735001632766 0.35421682651403225 -0.11639989167451859 -0.02307649059521792
-0.1400110794234008 -0.08011848585210328 0.051815507014025826 -0.05984374484126467 0.194700869203601 0.07467152888006222 0.23571703965448626 0.05817270019718354
0.1935235143702297 0.015237957600612253 -0.22812219675446957 0.029416431495882567 -0.22135761915821048 0.09025667994835337 -0.06588260035472396 0.048480246728510354
0.13962410871105976 0.041836485248183154 -0.13248107060998285 -0.2066494588902353 0.07112884257735369 0.09522605583889943 -0.19416866290685914 -0.20640488338541074
0.07382484295283512 -0.06860793146749308 -0.1041186499462479 -0.08327764729070015 -0.1816736640076346 0.0475001969997408 -0.08248403935168788 0.08495398053380837
-0.25598732267868385 0.029014143347377386 -0.19779524256660266 -0.06447938605525752 0.15473387108849126 -0.2102523821986616 0.12628747466508788 -0.0761025212388052
0.027332522452480024 0.36907016569776213 -0.09773683459894594 -0.10711305681437279 -0.05208553261026104 -0.07207561389116739 0.27560610666433616 0.04023747178256591
-0.15436124763257017 -0.16898368700429264 -0.11514223192143404 -0.05136225518994995 -0.009170350094427487 -0.05823951698029089 0.10413993149995804 -0.02656078956193383
-0.10135849664036166 0.01327254948040335 0.09217683213671939 -0.14535847731043047 0.34920837022518275 0.24620722862076538 -0.11963553042226394 -0.14802514926716143
0.08425941999131997 0.02574567497607047 0.0474653092501919 0.12092711257127138 0.10145047891345393 -0.20251467679332466 0.24862531133192756 0.23183805080320244
0.05266537473052078 0.044452650956764345 -0.029292349914193723 0.13422367011343617 0.2505671029846769 -0.09716433020148332 -0.30756258124902774 -0.34728687475434544
0.05451549828620314 -0.04358787069970123 -0.11420060086786014 0.049539753825462114 0.16486602904226433 0.1428914499740256 -0.05236790703248813 -0.3759921454267812
0.2759776224434289 -0.11291709317653728 -0.1459818478110166 -0.1900307710481857 -0.0681336753893908 -0.002926265335118576 0.02688913333615974 0.005151787657495681
0.12778662460546927 0.2744176894255212 -0.2245187025637142 0.15060565551642036 0.3067916875919626 0.06375209645717506 -0.08937975850238547 -0.031966005587465804
0.06785832056747697 0.20376150109557128 -0.21044187407403414 0.11777178421887255 0.2250332963998883 -0.28313582911530066 0.11402308195829391 -0.04244127363312011
-0.1124574213315909 0.015952955690502753 0.12196653723043686 -0.16867461832828431 -0.26647242913289537 -0.0006629440620900438 -0.13193535417795502 0.029867696713259773
0.20522013833968358 0.031975871282837465 0.07003509198704777 -0.040349272038714135 -0.272584004877524 0.09546869341491312 0.08296003769487949 -0.16719678313748393

bias f8 [6]
00000000: cfa0 8556 dd6a 813f c138 9d50 446b c03f
00000010: 28e6 718f b4be c13f a047 b2f4 e6b8 b83f
00000020: 3bcc 8136 dc54 c13f 58c9 95ee 7ea5 bf3f
0.008504609301511227 0.12827352462995203 0.1386323643126144 0.09657138322861991 0.13540222798801146 0.12361901593047742
