part_4/Reinforcement_Learning/models_lab1/model_winner_ver3_test.pt (torch, 10041 bytes, 4 tensors)

weight f8 [42, 14]
-0.465538280893611 0.2040388927677586 -0.6173191054689429 0.12255888869734038 -0.5032369229642918 0.9429712367711105 0.15489666495388102 -0.0528723261239286
0.03626893967203558 -0.0809557852330051 -0.05158965489600891 0.09330898085795215 0.1813812715492813 -0.10667854478193277 -0.06626667696410271 -0.23418257835929376
0.33832357885245246 0.3582304174848289 0.13658968564786886 -0.38695753136127137 0.19819388938142962 0.049103101000063855 -0.05769763529013028 -0.126781613895453
0.19965168855672705 -0.23964583649708418 0.14154631030385145 -0.11795838407629675 0.7020818576484366 0.7201610122223497 -0.9591705515124698 -0.18151802477269566
-0.43263781216729325 0.04745829265187558 0.05548861952130616 0.0407846883898646 -0.08164087454164791 0.13308010484153862 0.12623043335612644 0.22287380762447886
0.07599674277275477 -0.04960371842639694 0.0010191388539075687 0.5361554112797208 -0.7815542138665268 -0.5125862611887654 0.3159308876187253 0.6247010932399264
0.3017665588326984 -0.14302585792139733 0.02158898454878354 -0.05324505345750103 -0.039378843679501105 -0.1430559041161546 -0.01909586906147651 -0.12865553366636126
0.13700371506446515 -0.16353539054397784 0.5964536473278904 0.007428159174688381 -0.22127202918159442 0.3425625912751426 0.12471979264351803 0.013782470672446747
-0.2153645239603074 -0.22578303078746811 0.06700449266338045 -0.11162450981980579 -0.0752408154991135 -0.03546855722174205 -0.3671728454081813 0.5672322998459235
-0.08079449913174169 -0.1976452667840211 0.4020159027903849 -0.14111483886881593 0.13616363297103762 -0.04010423888102613 -0.015905670603710273 0.2162877965364846
0.26553292638353987 0.0235270231629129 0.2878340396996944 -0.10533409277241038 0.1658724442112195 -0.5200634014113855 1.2275211016614629 -0.12472007427838869
-0.3320144095248389 -0.07158499483548582 0.16910110644323686 0.008732787893925058 0.0245308456024506 0.0032637067377559777 -0.04578258398863111 0.18689612644370296
0.045756238994292264 -0.08424954157191836 -0.5099911781723309 -0.18120191398526836 -0.6191256120559522 0.8313860232278997 -0.2769927613963015 0.15583339604748975
0.11021812194072 0.033202350897516844 0.10598618623316708 0.014568049437610175 0.02224852376281299 -0.13345989439912492 0.11113097060247719 -0.05458659396569492
0.06285501891497011 0.23610031964802913 -0.2336848146373207 -0.09724488134367605 -0.14943973442738678 0.3062919979554488 -0.15651618959460656 -0.18267116944122003
-0.17886678896370448 0.1400405246084864 0.17335617707334514 -0.1115879040219281 -0.038406580888629714 0.27900844546309556 -0.45665227844479883 -0.5335302079083287
-0.6351527259162518 0.7406929175487177 0.4518640847375444 0.3434104319837363 0.2371617537070874 -0.06694187403784302 0.04276519693431365 -0.13635788165181817
-0.04826793946483138 0.11314886480681774 -0.21260011860690964 0.08602697138509971 -0.13691490289428535 0.026064735129201395 -0.08212436562894115 -0.11813400766514906
0.23963608647441192 0.2852896710636347 0.049623553485243714 -0.17895660001957625 -0.2757820284882338 0.19443816439126524 -0.24597958581995205 -0.06493681701015414
-0.0979148116098002 -0.07036176663292068 -1.5195519352805706 -0.8474561873135998 0.9707293824925808 -0.11453572944132792 0.8379785305903111 0.17289387494960784
0.0421401853686323 0.05202786532805964 0.015452567971621207 0.1754610416961006 0.0684380291807727 0.11947449653583267 0.16786578361899204 -0.045135802730535475
-0.30697353273012684 -0.26532962298384655 -0.1112141241610201 0.212745038569941 0.14427953400867732 -0.04269361559605564 0.14438117713268242 -0.2917285811589224
-0.30308036753690254 -0.1912072807246181 -0.21197065266194665 0.05769467509534894 -0.07805705349526629 -0.2411716064566498 0.18266623206856586 -1.2105675324788585
0.481077345747681 0.4049256326706207 0.43569973472088436 0.04845418021095564 0.05300285207399632 0.04907635094015761 0.026657858401693272 0.16782757645806579
-0.0012526093750440015 -0.0775022433634856 0.05304422040973361 0.1721681443931517 -0.2504232047847819 0.025313411166267653 0.73282594039071 -0.7232906839142439
-1.2319446223158632 1.1208417766308765 0.022525952635555263 0.05584287040937428 0.06839328057549503 0.1078932678560242 -0.07337963044396037 0.02223009155739991
0.12940809871267914 0.049447612324093476 0.556539959786125 0.7181150311565986 1.0462859790325105 -0.9821724690368918 0.0736707908990216 -0.034413141561367294
0.2316889291808759 -0.13192635806525013 0.02331436832677078 -0.033384463194381604 0.11781294958402808 0.058770644991679305 0.030335690077184747 0.12140519570243048
0.40355448832610075 0.47539686113595964 0.12049738864519405 0.5138577121550415 0.04160848043801171 -1.0071369182249887 0.05538579132644966 0.14899537058340903
-0.05425488198239291 -0.1729511121368521 -0.029076514294570727 -0.02260238632247606 0.21634156248030575 0.23470230067588319 0.2614497161781579 -0.8761994650471479
-0.5933138321477444 0.14573096812901123 0.20331119476857945 0.1496064921983673 0.05945531061219674 0.02175142910761433 0.21311131756869117 -0.025047323261638922
0.013322852767417279 0.16594445003091743 0.09095128391557138 0.13342409292979657 0.22559523558721004 0.48857573570526774 0.4707149596447637 -0.5730960261121025
00000000: ff57 de12 61cb ddbf 7258 c649 f21d ca3f
00000010: 36ec 25ff 13c1 e3bf c407 caf2 0460 bf3f
00000020: 87ae c851 841a e0bf da04 e003 d22c ee3f
00000030: f941 1e67 a7d3 c33f 06a6 21df 1412 abbf
00000040: ce04 81ab d791 a23f fb6c ffb1 84b9 b4bf
00000050: c739 2e91 f569 aabf 213f 35ed 18e3 b73f
00000060: 909d b462 8037 c73f 33f5 05fd 484f bbbf
00000070: 601b 605a daf6 b0bf cb4d acd9 b1f9 cdbf
00000080: f6c3 a8f0 17a7 d53f b3e7 e145 3fed d63f
00000090: db0c 6a54 c57b c13f b3cd 8885 e9c3 d8bf
000000a0: 1e84 94d8 6a5e c93f eddb daa9 0a24 a93f
000000b0: b05a 4161 8b8a adbf 0221 b542 613a c0bf
000000c0: f29d 78c0 2f8e c93f 3953 30fb b6ac cebf
000000d0: f0ef cf82 301e c23f 3e8e e549 8532 bebf
000000e0: f9e0 365f 7477 e63f 0b2d 6b1b 8f0b e73f
000000f0: f008 c170 86b1 eebf 6541 048e fb3b c7bf
00000100: 8260 9181 56b0 dbbf 5a44 ba0d 744c a83f
00000110: 35d4 491c 0169 ac3f 00c1 9f0d bbe1 a43f
00000120: ef57 2c96 6ae6 b4bf df75 05d5 c408 c13f
00000130: da21 839f 5128 c03f b5e9 7001 2187 cc3f
00000140: ddbe cfc4 8574 b33f 0880 cd98 a865 a9bf
00000150: af23 0c03 94b2 503f 73a2 a064 2f28 e13f
00000160: 7672 93fb 7d02 e9bf bfe8 854d 1b67 e0bf
00000170: 6598 872f 3638 d43f b4b5 a725 8dfd e33f
00000180: 25a0 4daf 2450 d33f 749b 20db ab4e c2bf
00000190: 3d0e 5d3a 6c1b 963f 7927 8c86 ef42 abbf
000001a0: 46f8 83bb 7629 a4bf 3adc d6e6 a74f c2bf
000001b0: 5953 6e14 de8d 93bf 07f2 c5d6 c877 c0bf
000001c0: d7f1 d075 5689 c13f 19ff 0f49 baee c4bf
000001d0: 794d 9bf5 2516 e33f 53a7 984b fd6c 7e3f
000001e0: 7160 6d50 a452 ccbf 2f06 97a5 8bec d53f
000001f0: 155c 91e6 a2ed bf3f fbb1 5ee6 fb39 8c3f
00000200: 8566 9091 1091 cbbf f5a9 9c56 75e6 ccbf
00000210: 559e acd8 3427 b13f 3aac 1b83 6c93 bcbf
00000220: bd9f e469 fb42 b3bf d47c 9b4a ef28 a2bf
00000230: 4879 c088 c27f d7bf e556 225a c426 e23f
00000240: 1cb0 77c3 f2ae b4bf def5 85aa 704c c9bf
00000250: 3c39 bde8 a0ba d93f f8ff f510 0d10 c2bf
00000260: 90f0 4157 cf6d c13f d496 d9f4 8a88 a4bf
00000270: dc6a 417c 9349 90bf 0ef5 528a 51af cb3f
00000280: ce05 b5d0 7dfe d03f e44f 3acc 7717 983f
00000290: 61e3 cb76 df6b d23f 4a80 9cd3 2cf7 babf
000002a0: 4cee 98e9 4e3b c53f c911 9d00 5ca4 e0bf
000002b0: f192 ac2a eda3 f33f be2c 2ea0 a7ed bfbf
000002c0: 8f6f ad5d b93f d5bf cde6 b3eb 6453 b2bf
000002d0: 2110 f2e4 1aa5 c53f 3c2d 42f3 7ee2 813f
000002e0: ec49 6c2e 9d1e 993f cc08 7a36 7dbc 6a3f
000002f0: 3043 ea99 d070 a7bf 8e92 6957 36ec c73f
00000300: 400b 239c 5c6d a73f 2a1f c1c1 6091 b5bf
00000310: 1bf5 ef04 d951 e0bf da08 45d3 9f31 c7bf
00000320: 79ae fc83 e0cf e3bf bfb0 83dc b69a ea3f
00000330: 1141 dbd8 3fba d1bf ce04 d345 59f2 c33f
00000340: 6874 293d 4137 bc3f 2aa3 8206 e6ff a03f
00000350: f4ff b223 e921 bb3f 1358 357f dad5 8d3f
00000360: 0d41 c827 51c8 963f 26cc e2bc 3615 c1bf
00000370: dd74 4f4c 1473 bc3f 07f0 c327 c6f2 abbf
00000380: 0e17 a13a 4417 b03f b851 bb07 8938 ce3f
00000390: e734 384e 62e9 cdbf b911 1361 0ae5 b8bf
000003a0: a855 0b5a d720 c3bf 90b0 8fc0 499a d33f
000003b0: 403b cdf5 b808 c4bf da07 56d5 c461 c7bf
000003c0: 4546 7860 1be5 c6bf e170 a710 d9ec c13f
000003d0: 1778 8b03 8930 c63f 2143 675e 0691 bcbf
000003e0: f355 bc01 07aa a3bf 4a98 243d 46db d13f
000003f0: 701d 647a ca39 ddbf 899e 4cf1 ad12 e1bf
00000400: 55d1 38cf 2b53 e4bf a504 28a2 c1b3 e73f
00000410: 8dd2 8b56 57eb dc3f 9f6c 9ebf 6ffa d53f
00000420: 6158 04fc 505b ce3f 88b9 b947 1a23 b1bf
00000430: 1bd1 7ae4 51e5 a53f f489 1fd1 2c74 c1bf
00000440: 88bd e44a 93b6 a8bf 30c0 ecf1 52f7 bc3f
00000450: 4c6d 450e 7b36 cbbf 3645 ac14 dd05 b63f
00000460: 590b 2273 6d86 c1bf 85d5 d5c3 b6b0 9a3f
00000470: 9cbf 9438 1a06 b5bf 4a9c 77c3 073e bebf
00000480: ecac 2c31 65ac ce3f d2b6 c69b 2f42 d23f
00000490: ef2d a926 4268 a93f 3464 3ec4 0ce8 c6bf
000004a0: c59d 4baa 69a6 d1bf 0bcf 938a 59e3 c83f
000004b0: e847 4a52 427c cfbf 446d 5d01 b39f b0bf
000004c0: c878 a8f1 f110 b9bf f6c1 938e 3a03 b2bf
000004d0: 2ea8 a9b0 1550 f8bf 9bc0 2970 5c1e ebbf
000004e0: 154d e210 3710 ef3f c68b 2cac 3652 bdbf
000004f0: 3256 f459 b8d0 ea3f f82b 4bf1 6221 c63f
00000500: 02e5 02fc 6593 a53f 7821 2178 65a3 aa3f
00000510: 445f 9e90 98a5 8f3f ae46 e7e5 8175 c63f
00000520: 3155 2299 2785 b13f dad4 536f e195 be3f
00000530: e767 6141 a07c c53f 7974 3639 0a1c a7bf
00000540: 1010 f450 74a5 d3bf 560a 5819 29fb d0bf
00000550: 23f7 1f62 8778 bcbf e1a6 85bb 3a3b cb3f
00000560: 6052 0674 c077 c23f ec52 7705 f0db a5bf
00000570: 71af f818 157b c23f 1ab5 d85a aeab d2bf
00000580: ad5c a832 ab65 d3bf df12 bcec 7a79 c8bf
00000590: fe89 72b6 da21 cbbf 6a30 600d 288a ad3f
000005a0: 82fa fb0b 8cfb b3bf 8040 3a11 b6de cebf
000005b0: 6eb5 686a 9b61 c73f b089 990f 7c5e f3bf
000005c0: 2e4c b5a2 f8c9 de3f a779 6833 4dea d93f
000005d0: fb21 e023 81e2 db3f 5699 b87e fcce a83f
000005e0: eb4c 8198 3023 ab3f b009 9714 8920 a93f
000005f0: 5112 1198 324c 9b3f f48d 20c0 5f7b c53f
00000600: d203 3b13 d385 54bf b4e0 9ce0 2fd7 b3bf
00000610: 58a1 cdaf 9c28 ab3f 9e71 ca12 9b09 c63f
00000620: 1573 ad0c ef06 d0bf caf1 6f44 c2eb 993f
00000630: f66e f462 4f73 e73f 8838 1d81 3225 e7bf
00000640: 7846 7590 0bb6 f3bf 24ec 69c9 f7ee f13f
00000650: 0819 8617 0b11 973f 9dfd 3ecc 6f97 ac3f
00000660: d380 56d7 3882 b13f fb72 e6a8 e49e bb3f
00000670: 4a0a f3e8 01c9 b2bf 908b e730 7cc3 963f
00000680: d17c e7cf 7190 c03f 8433 988b 3251 a93f
00000690: 9f5a c6e3 2ccf e13f f3ac b25f ccfa e63f
000006a0: dd53 e35d 96bd f03f d470 31f5 f46d efbf
000006b0: b6ed 94c5 16dc b23f bc0c 1e6b 999e a1bf
000006c0: f0ab d69a fba7 cd3f f970 af80 f6e2 c0bf
000006d0: d825 f6c5 b8df 973f a190 3ab3 c417 a1bf
000006e0: fe39 824d fd28 be3f 547e 689c 2f17 ae3f
000006f0: 05e5 21b3 5110 9f3f 413e 1b31 6914 bf3f
00000700: 7aef 6034 d6d3 d93f cdcc ccf4 e66c de3f
00000710: dc08 7cb7 ead8 be3f e91a 90ba 8571 e03f
00000720: 435e 6fed b44d a53f c9ed e599 3b1d f0bf
00000730: 5803 d2c4 865b ac3f 4fa0 f4c1 4712 c33f
00000740: de82 86bf 4bc7 abbf 40a1 3715 4323 c6bf
00000750: 684d e8d7 3bc6 9dbf cb30 4478 1425 97bf
00000760: 7f29 cf8f 14b1 cb3f cd74 d998 b90a ce3f
00000770: a727 2297 97bb d03f 66ce e475 d309 ecbf
00000780: 0dd9 2a4a 6dfc e2bf 6573 10f7 4fa7 c23f
00000790: c68a 38ea 1906 ca3f 3071 a137 4e26 c33f
000007a0: cb49 4e2d ed70 ae3f ea44 a2b2 0146 963f
000007b0: 48b8 ae4d 3b47 cb3f 5a58 0b69 01a6 99bf
000007c0: 3862 6707 0349 8b3f 8df1 eaf0 aa3d c53f
000007d0: b753 f255 9548 b73f 72e3 d069 0a14 c13f
000007e0: 7380 7dff 4de0 cc3f f749 9e29 d344 df3f
000007f0: cf61 5aa3 3120 de3f 32cf 337a cd56 e2bf

bias f8 [42]
-0.13528174325677797 -0.14714249166467283 0.22754616479567766 -0.11264390075623591 -0.29605396523614136 0.0947921841954596 0.1348464355361836 -0.13992275548505978
0.29610633821506827 -0.1741243062506596 0.20440414201722581 0.17141722564291884 -0.005566444757271556 -0.19289932660324355 0.05059628567289173 -0.04706088494410934
-0.2337646152648584 0.1807756579623733 0.2548658080186471 0.18547024029358397 0.11806102070209144 0.049011550237322336 -0.017218914163541217 0.126278102013313
0.3435473747498449 0.2130807188798482 -0.05554661670844346 0.12934743904926377 0.14707195472367443 -0.16390282592911673 -0.16091505237162093 0.03890330899745994
0.07664202785493042 -0.21244108461541006 0.01612180387351263 -0.1326338735112933 -0.10759564891821832 0.14434930900844925 0.01670426067262439 -0.14584862383632158
0.3305807820195012 -0.23032833609994746
00000000: 4351 8483 e950 c1bf d79e c6ae 90d5 c2bf
00000010: 3b57 1094 3b20 cd3f f386 d70d 3bd6 bcbf
00000020: 1095 a254 8cf2 d2bf 3431 09f3 4c44 b83f
00000030: 2117 4ee3 a542 c13f 0224 6325 fde8 c1bf
00000040: fe68 b1ff 67f3 d23f c683 648c b449 c6bf
00000050: 21c2 9038 ea29 ca3f ecbe 0de9 fff0 c53f
00000060: a1e2 ff22 d7cc 76bf 9a36 97d5 ecb0 c8bf
00000070: cc3d 87a0 c1e7 a93f 13f4 8243 5d18 a8bf
00000080: bd25 c3b8 ffeb cdbf 453e 6e21 a823 c73f
00000090: cec1 93ad b84f d03f 299a 3824 7dbd c73f
000000a0: 770d d93e 3f39 be3f e786 caba 0a18 a93f
000000b0: 32f6 d1c4 d5a1 91bf 8f8f 2c7f e129 c03f
000000c0: e757 cb20 aefc d53f 8ea1 7f9f 3a46 cb3f
000000d0: b719 552c 9b70 acbf 42db 44f6 748e c03f
000000e0: 7536 d9f9 40d3 c23f 6b34 8b8e c4fa c4bf
000000f0: ff63 af4b dd98 c4bf fb56 b36f 22eb a33f
00000100: fdd3 22db cf9e b33f 86fe 5ffb 4431 cbbf
00000110: ed9a 8ef1 3b82 903f b051 8992 25fa c0bf
00000120: 6caf 4b71 638b bbbf 451c b2c4 097a c23f
00000130: b5ce 2bf5 eb1a 913f ec94 c5ee 2aab c2bf
00000140: 636e dd4b 3c28 d53f 6e18 721f 667b cdbf

weight f8 [6, 42]
-0.11822521695297523 -0.128572015586298 0.29798993690289943 -0.016328202624183424 0.0842201323088904 -0.0932002070679856 -0.03733182561546993 -0.20299759864450745
0.10601314222975602 -0.13368241298819317 -0.08681261815844923 -0.683634423610858 -0.0653340224691076 0.08158398475328273 -0.07956609115328449 0.10003845432630772
0.07642762035582935 0.24241855982432675 0.09035002441986925 0.07785777989071589 0.05818519785084002 0.15054051560083012 0.4567593876735988 -0.10663162963421126
0.0960841702819908 0.07335257448662452 0.20898558814057436 -0.43085978642345585 0.02857703720285513 -0.2254877805771966 0.062009441772875644 0.10268310142413328
0.00561552682360762 -0.032083180530708584 -0.08446947379603692 -0.0687121262242842 -0.004975347875533257 0.29274184291265376 0.08337638666087514 0.1241181589522003
0.09839005769403329 0.0195905882639034 0.09115898177127166 -0.15796681945733362 0.2927453884169271 0.20495919221912412 -0.0457375996898618 0.16711533926304728
-0.15282283166431332 -0.043693866826858545 0.11907414709981924 -0.1866728380931414 0.0078826436235019 -0.2721497445433346 -0.059332273292338825 -0.4563509915181395
0.028372510657827362 0.1623568208383489 0.10353801068491734 -0.34654366072365184 0.14944942718568505 -0.07797541509285795 0.050332297861485645 0.0480007542356142
-0.3051190218882611 0.07019751756128867 -0.16009954315626215 -0.014076950065665565 -0.061850402581700055 0.35390224143215276 0.01132371128232349 0.454800259350447
-0.2843569721568981 0.1604075079858223 -0.07806207765145692 0.02632873739493112 0.03640153177547894 0.02219652012170867 0.009688315840896912 0.021912063504534066
0.060568565771381574 -0.009949338718694509 0.17231825081837582 0.13698353356974657 -0.14816116264273943 0.08379135375968644 -0.31732216110420497 -0.23979318429337856
0.1910000819451989 -0.02181743608472363 0.255496012710596 -0.13253116497547976 -0.1493536583783163 -0.16452430290689868 -0.13711041831806794 0.38135532320510906
0.02213427998411717 0.0852386159281734 0.23279759724966087 0.2497283493079455 0.022951771465628146 -0.1575443549523215 0.1617550558975183 -0.08029829658292169
0.1944146173513308 0.08829861248663914 0.140623288425639 0.08599585520441896 0.32391399746687255 -0.07623703733406308 -0.05782754495152957 0.05711854585092788
0.1720786777470767 0.19425255944806172 -0.38426492310034427 -0.09308728115812641 -0.08112828703643295 -0.07860466385215704 -0.010977316321833717 0.06607857370916474
-0.21028486166566607 -0.1308921304225911 -0.11436755396065318 -0.010251122484063471 -0.09077934877874322 -0.12497712242464615 0.028732632640217484 0.11485385056876024
-0.08610660704778075 -0.1127618159395634 0.02427487715594444 0.004225154558117773 -0.09670608338790809 0.35502608493642046 -0.020117521080433944 0.23322250557814497
0.14934645811533612 0.05970714177208794 0.006142324503597513 0.10658736951393757 -0.2988734812506921 -0.4600306302789244 0.11713018224771901 0.14916499792974175
-0.29562610824066066 0.07459724650842427 -0.08808598471049557 -0.03308581183912584 0.08022469808018821 -0.08493072271104171 0.326367135633561 -0.17462828161027116
0.03963714925923291 0.16380258308498397 0.06412486763060567 0.05786386860357657 -0.12579639846215268 -0.16856029545703374 -0.20301419073173924 -0.014578861875249536
0.07616890589425095 -0.03451262786566623 0.07870118232680455 0.1527862348431213 0.02532769397064929 -0.15538531660481586 0.24703093728683062 0.17914199042040366
-0.11899676844538763 -0.02713732324208331 -0.20093323166431176 0.144913729882707 -0.0820230893517363 0.15164190461930663 -0.14802247433089993 -0.12342625954990868
-0.10654303404148463 0.09832349286526322 0.036458997683814214 0.4569837668458322 -0.011397783522922407 0.13443561957104871 -0.4954534591173632 -0.07454344156927213
-0.025138992544507764 0.17898821290207703 0.06965638387225125 0.09010164135310905 0.20158052146147692 -0.006659797701422905 0.007273832962529069 0.07705130803005909
-0.5545433866752436 0.16069545901688415 -0.09334490460823242 -0.09109324624727687 -0.0690687906565426 -0.05632262307614819 0.012685637615085166 0.09876943090590534
-0.1035992596181284 -0.12343167097268885 0.07164945385057846 0.04551985674846067 0.2158760362748737 -0.11226148458076982 0.04246683172611436 0.0914804062749994
-0.07305257221596693 -0.020259266635896826 0.3050358452495349 -0.16593148192500437 -0.017297190301484848 0.2176344171838216 0.1441487127707574 -0.071268922947642
-0.10081279512349377 0.07766599442174742 0.05739750280292465 0.10294177810275801 0.12618582148529456 0.08294198687434515 0.052487985448862975 -0.023985134140970837
0.5465424446081968 -0.10253256817617858 -0.27480646351097243 0.09005435996476162 -0.08090376211981569 -0.01924703856656602 0.12387531576115623 0.07088471103330063
-0.3515245326568887 -0.08563090182404785 0.16167418798300925 -0.1084721447427616 -0.2025499383090347 -0.109961994418658 0.12452473768838788 -0.21577414156069402
0.25720791539912846 0.04061274078291994 0.17931671591425294 -0.1437705850360035 0.11017604793619577 0.03493150414483907 -0.044135365829292963 -0.017939416316797605
0.020397902250407458 -0.06584461821453688 -0.09996999652678334 0.050927615490739445
00000000: f522 6000 0244 bebf aadd 0f3d 0c75 c0bf
00000010: 5e3e 6262 4412 d33f 9be3 1721 57b8 90bf
00000020: 4b75 ee59 738f b53f 9061 5601 f8db b7bf
00000030: 57a1 3c34 281d a3bf ea1e ac47 d3fb c9bf
00000040: 0ab0 d262 ad23 bb3f fcd5 ea5b 811c c1bf
00000050: 92e4 de0b 5a39 b6bf a082 7a4c 55e0 e5bf
00000060: 8a29 d201 bbb9 b0bf c588 6422 b0e2 b43f
00000070: afb8 5f7f 715e b4bf 7d83 acc1 1e9c b93f
00000080: ed7b f0b1 c290 b33f 92c7 3145 9207 cf3f
00000090: e67d 13e0 2d21 b73f a3aa 5eca 7cee b33f
000000a0: 36e4 c243 73ca ad3f e740 9d5f e944 c33f
000000b0: eebd 0cba 8b3b dd3f e984 ffe1 354c bbbf
000000c0: 1142 06e1 f898 b83f 4c59 7ffc 3bc7 b23f
000000d0: 7515 332d 0ac0 ca3f 1d6b f6ec 3493 dbbf
000000e0: cbb4 cf80 4c43 9d3f f603 9d99 c8dc ccbf
000000f0: e759 ea98 b3bf af3f d8ef 7792 7049 ba3f
00000100: 4d50 ea80 4e00 773f f119 43e6 346d a0bf
00000110: dcdc 769b ca9f b5bf 0dd0 f82e 1e97 b1bf
00000120: 2a12 96c6 0761 74bf 6fc2 5e48 48bc d23f
00000130: 7b94 f7a5 2758 b53f 1418 8a29 35c6 bf3f
00000140: 1f24 0c40 1730 b93f 0b89 9c1f 8e0f 943f
00000150: cebb 71ed 3156 b73f b110 b6b9 4138 c4bf
00000160: a08d 5327 57bc d23f 6a40 cc51 1a3c ca3f
00000170: 5122 bb2d eb6a a7bf ceb9 6512 0964 c53f
00000180: 8c48 0ad4 b28f c3bf 0741 1de2 0a5f a6bf
00000190: d9c2 97af a47b be3f 84ad 5443 e5e4 c7bf
000001a0: c93c 8d84 c624 803f 866a 1bc3 e66a d1bf
000001b0: b29e c6ba cc60 aebf 4653 04ca da34 ddbf
000001c0: 2feb 85f5 ae0d 9d3f 3441 e4b9 1bc8 c43f
000001d0: c3dc c891 7781 ba3f d86d 5c76 c52d d6bf
000001e0: ca8f 15a9 2821 c33f ed41 b761 32f6 b3bf
000001f0: f2c6 7eaa 27c5 a93f dc26 400b 8e93 a83f
00000200: 1c72 19ef 1187 d3bf 98a5 2fea 76f8 b13f
00000210: c7f7 fa4e 247e c4bf 4292 4641 60d4 8cbf
00000220: 7169 aa20 dbaa afbf 0aa9 3b96 55a6 d63f
00000230: 93f1 03cd e230 873f d8d6 078c 721b dd3f
00000240: e36b f395 e732 d2bf d97d 6ab4 3b88 c43f
00000250: 4221 9256 e0fb b3bf dc8c 39a8 ebf5 9a3f
00000260: 47fe ffb8 38a3 a23f 38ee 0740 afba 963f
00000270: 810f 85bd 77d7 833f 9134 8fb0 1d70 963f
00000280: eeb2 4ed2 d702 af3f b817 4fa3 5160 84bf
00000290: a869 e241 860e c63f e4e3 622a ad88 c13f
000002a0: 6640 0bea f1f6 c2bf 14de 15a4 5973 b53f
000002b0: 4845 0f9c 014f d4bf 6300 2c06 8bb1 cebf
000002c0: 2075 bed0 b072 c83f 3da7 dd59 4f57 96bf
000002d0: 1f6d b6f2 0b5a d03f a39e a2fd c7f6 c0bf
000002e0: edeb 224b 051e c3bf 1cf0 30e2 210f c5bf
000002f0: 3df9 4e8d d58c c1bf b192 5428 2068 d83f
00000300: 14f2 9b62 5eaa 963f 298f c4ab 32d2 b53f
00000310: 7c28 63c9 4fcc cd3f 43b2 943a 19f7 cf3f
00000320: ed0f 524f ab80 973f 0246 18d6 692a c4bf
00000330: 6970 85c1 63b4 c43f 3b87 bfdd 6d8e b4bf
00000340: 78b4 b103 94e2 c83f fe8b e9e4 bc9a b63f
00000350: 4d0b 6ca4 f1ff c13f c6cc b109 d303 b63f
00000360: dc8e 75c6 01bb d43f d1fe 173e 4584 b3bf
00000370: 66e4 bf6c 929b adbf ed80 d95c a43e ad3f
00000380: 729d a192 ac06 c63f 3f32 ff92 44dd c83f
00000390: dbd1 6de7 cb97 d8bf eb69 3f6c 91d4 b7bf
000003a0: 611b 9acb d2c4 b4bf d9de 8e6c 6f1f b4bf
000003b0: 320d cd74 467b 86bf 8314 0c81 86ea b03f
000003c0: 7055 d945 9dea cabf 7d01 bcc5 12c1 c0bf
000003d0: 8c09 fc27 3147 bdbf c8de 875e 8afe 84bf
000003e0: 4429 28be 503d b7bf 14e2 8f2d 80fe bfbf
000003f0: 3424 1256 166c 9d3f f432 03dc 0f67 bd3f
00000400: b25f 3d25 150b b6bf e3af b257 f5dd bcbf
00000410: fd2d ff6d 83db 983f f5d1 5c4a 654e 713f
00000420: 30ae 79d9 bac1 b8bf 95d8 0154 bfb8 d63f
00000430: 1add 77fc af99 94bf 991c 132d 3cda cd3f
00000440: 997c b0e4 c81d c33f 945c 7f3a ef91 ae3f
00000450: 6d76 d4ad b128 793f aaa1 3a52 4f49 bb3f
00000460: cf41 e73c be20 d3bf 2933 0d50 2471 ddbf
00000470: 9ae3 205e 3efc bd3f 8e77 e8b1 d617 c33f
00000480: 7531 afc4 89eb d2bf c915 201e ce18 b33f
00000490: f149 9197 cd8c b6bf 2f0e 9f9f 9ff0 a0bf
000004a0: 63fc 9516 9b89 b43f a635 7814 05be b5bf
000004b0: 0643 82fb 32e3 d43f 7a84 3c33 385a c6bf
000004c0: c2d6 8c07 524b a43f 94d7 aca8 7bf7 c43f
000004d0: a172 55c1 7c6a b03f 5978 8b3e 55a0 ad3f
000004e0: 6abd acac 181a c0bf ef2e 323e 6293 c5bf
000004f0: 7d8a e876 5efc c9bf df9d bcb7 85db 8dbf
00000500: 6fb4 c92f ce7f b33f e1cf f69f a3ab a1bf
00000510: 670a 40bc c225 b43f 3110 f7d4 7f8e c33f
00000520: 86ec 25c5 80ef 993f 3a53 8c82 aae3 c3bf
00000530: 16a3 5fb2 b59e cf3f d715 19ef 1fee c63f
00000540: cf78 cd7c 9276 bebf c68b 4def e2c9 9bbf
00000550: 80c2 561d 2eb8 c9bf a036 4b79 888c c23f
00000560: 0858 4816 77ff b4bf 6d83 857e 0069 c33f
00000570: de7f 2983 66f2 c2bf ee05 3c04 dd98 bfbf
00000580: 8425 d37e 6746 bbbf 51e8 487a ba2b b93f
00000590: efd2 64f5 c0aa a23f 9ef7 59d7 383f dd3f
000005a0: 779d d29b b857 87bf c6d1 bcb6 2f35 c13f
000005b0: 7158 e66c 82b5 dfbf 05db ab6b 4715 b3bf
000005c0: b60a 553b 09be 99bf 0957 64f4 15e9 c63f
000005d0: 6f5e b032 00d5 b13f 4072 edb2 e610 b73f
000005e0: 8e05 98f9 63cd c93f 159b 35d5 4d47 7bbf
000005f0: 25d1 0cab 2acb 7d3f 7766 1a70 a2b9 b33f
00000600: d076 bfc5 d1be e1bf d2ee 8b36 ab91 c43f
00000610: a064 8aa0 73e5 b7bf 4fbe 8411 e351 b7bf
00000620: 814b 0b05 7eae b1bf bc23 46a0 51d6 acbf
00000630: 5a4f 7c75 edfa 893f 74dc 9513 f448 b93f
00000640: e51d f327 7b85 babf f34a 1ece 3799 bfbf
00000650: cb82 105d 9e57 b23f bb42 1bf0 604e a73f
00000660: 6735 e571 d3a1 cb3f daf3 df2c 2bbd bcbf
00000670: c656 db6a 36be a53f ce08 2d89 426b b73f
00000680: cf66 8ec8 92b3 b2bf 1e88 915e d8be 94bf
00000690: 0716 dd10 b585 d33f 9f52 1f28 3e3d c5bf
000006a0: ee58 a1ca 5ab6 91bf b0ee 24d0 71db cb3f
000006b0: fd31 8e0b 7773 c23f 1201 481d ae3e b2bf
000006c0: 8be1 120a dece b9bf 4b7f 0d2a ebe1 b33f
000006d0: 0f3e d29a 3463 ad3f 54eb 5772 645a ba3f
000006e0: 24c6 3f64 db26 c03f d62f 17a1 af3b b53f
000006f0: ea1f df89 b4df aa3f e80e e71a 8f8f 98bf
00000700: a6fa ae94 467d e13f 9d71 170b 933f babf
00000710: 2d94 60d9 6d96 d1bf 4f2e e972 cd0d b73f
00000720: 938f 6de4 1bb6 b4bf 13c5 c0e4 7eb5 93bf
00000730: 9cd0 f9ed 4ab6 bf3f e0a7 ac1b 8025 b23f
00000740: 7f31 e0c0 607f d6bf 577c dc22 e8eb b5bf
00000750: e047 ff62 bdb1 c43f ba77 329a d4c4 bbbf
00000760: 2d0c 6c08 28ed c9bf 0cc1 d421 7826 bcbf
00000770: 8723 ea6b dae0 bf3f 12af a9b0 7c9e cbbf
00000780: 8457 3a30 1876 d03f 9958 ed72 31cb a43f
00000790: d529 3da3 d9f3 c63f 3d9f 6d14 1367 c2bf
000007a0: d340 b05a 7f34 bc3f 86e9 cdc7 8ae2 a13f
000007b0: 0ae9 aa21 e998 a6bf 7955 8fd9 b55e 92bf
000007c0: b53e 4a0c 30e3 943f ce5a d961 31db b0bf
000007d0: b4ec a939 a297 b9bf 42f2 fd35 2f13 aa3f

bias f8 [6]
0.0861266487490548 -0.04730614848298572 -0.12878267624851622 -0.05624129193283134 0.08438569516801964 -0.17709140922758207
00000000: 0df7 b063 650c b63f 7bae 44f1 8238 a8bf
00000010: 87ad 6363 f37b c0bf d095 129b a8cb acbf
00000020: d832 ff08 4d9a b53f 757b 8469 eeaa c6bf
