part_4/Reinforcement_Learning/models_lab1/model_best_1.pt (torch, 86143 bytes, 6 tensors)

weight f4 [256, 14]
00000000: 22a7 1b3d 9e49 0c3d 3430 e5be 9e6a 013f
00000010: 246d 8ebf 93d8 95bd 8fd7 103b e2b2 093e
00000020: d568 15bd 3d76 3e3e c6c2 0cbe 4eef ca3d
00000030: 3abc 2b3d 6b0f 9fbd 5a60 dcbd eb0b 9fbd
00000040: 680b e6be b09d 8ebe 19b6 91bf 2f03 35be
00000050: 0b03 da3d fa30 3c3e 9901 f1ba d2d4 55bd
00000060: 03b0 a03c 02d5 383e 089f abbc 9278 293e
00000070: 6dd8 28be de7c 1abf daf6 e83e 8e82 bbbd
00000080: afc7 78be 1ff3 803e 257e e3bd e9b6 2c3e
00000090: b96e 87bc d511 603e 16ec 38bd 6805 9c3d
000000a0: 4f1a 8c3e ded1 7d3d 17c5 0e3d c62d ddbd
000000b0: ac0c ac3e b82f 6b3e 14f1 fc3e aa3d a1be
000000c0: 560c 003e da03 703b 83a7 8abe d9cd 253d
000000d0: 26e4 173e aabe b53d 5ed4 3f3c 8200 3ebd
000000e0: b4ac 19be 11c6 653e ef4b a33d 7213 f0bd
000000f0: 6b0b 333e e7ea 6d3e f350 963d 2724 bcbd
00000100: 5809 7fbe a423 123e 6977 633e ab8a a13c
00000110: 958a c0be ea49 f1be e370 63bd 959d 4abc
00000120: a3e3 afbd 7de7 ac3e faf3 363d b13b 51be
00000130: 42c2 553d c343 bfbe 78c7 bdbc 3e0a 4c3e
00000140: 4a15 2f3d 5b52 a4be 512b 0a3e 2b21 8cbd
00000150: c834 763e 7ce7 de3e cb19 d8be 2a4f d0be
00000160: 2302 353f 6e04 f5bd 5654 153e d92d 4a3d
00000170: 2fe0 263e 270c 48bd a64f eebd dceb 4e3e
00000180: be21 ae3d cabb 39be 17c7 bcbd 34eb 0e3e
00000190: 6bc1 cebd c6a0 ef3d d56b 5b3e dcd3 76be
000001a0: 98dd d23b 8b64 fabd c493 29be ed7c 3b3e
000001b0: e121 19be 5973 d0bd 5725 78bd 36a7 94be
000001c0: ba64 0c3f 4bca 8c3c aeee 1c3f f1d9 d53d
000001d0: f7ad 213f 689f b83c 48ef 103e a6ac 33bd
000001e0: 3d93 53be 782c edbd 0d62 00be c48d b13d
000001f0: c2c5 3fbd 3725 b6be f5cc 1ebe afb4 a1bd
00000200: 329f aa3d 0362 683d ef46 92bd ab07 79be
00000210: 0d66 593d a138 74be 7433 4abe 2521 abbe
00000220: ac0b d53c 963f 283e 435b 65be 5bd4 ddbc
00000230: 6a2a a23d 9860 243e 1f50 27be 16e1 6bbe
00000240: 0fbb 9dbc ff78 ccbd 3a9b a5be db5f 01bd
00000250: 5422 e6bd 09f2 6dbe 8b71 94be 12fb 05be
00000260: a984 c93d 2b6e 743d 50e2 25be 3ad1 ff3e
00000270: d939 ce3e 92f4 0dbe 3546 fd3e 74f9 633e
00000280: d91d 8ebd 74cf ed3d 04d7 7bbd fa69 d23c
00000290: 5a98 38bd 70b5 61bc aac5 bc3d afff a0be
000002a0: 4ac7 8d3e 112d 783e 1cdb 45be f583 d73e
000002b0: f3cb b8be 21ca 483e 05ab 97be 2244 40be
000002c0: 7684 c3bd c264 eebc a381 d63d f38c debc
000002d0: 7f74 aa3d 7d22 f73d 9ede 3c3e 3ef2 203e
000002e0: 25bc 74be a265 873e fd5e 3c3e b3f6 81bf
000002f0: d842 1d3d bdc0 01bd f83a e13d 644e a73c
00000300: 9078 e7bd ec04 333d c79c 0e3e 8613 5d3d
00000310: 3d34 10bd de92 c6be 1509 4e3e 2536 093e
00000320: 6a30 b03e debf 7e3d 0248 933b 6379 99be
00000330: 0e0b d73c b4ae 863e f76e abbe e4ee 62be
00000340: 40ef c93d 6591 70be 4011 44be 7861 c8be
00000350: 07ab c9be 05f6 9d3d 8465 18bf 01af 143e
00000360: 151d 0fbe 6126 b93d 6d1d 553e 03b8 2abe
00000370: 4fb3 da3d e8c7 1c3e 2bc6 acbe 8aa4 29be
00000380: 4bfd d53d 7c87 80bd 8968 553e 6918 b2be
00000390: 00f6 a33d 5c76 89bd e6d9 7cbe 3152 cc3d
000003a0: d8e9 f33c 06c0 2b3e c6b1 c1be 841a d0be
000003b0: 3541 263e 51ef 8a3d 4d61 c4bc 7f76 d93b
000003c0: 94b5 3c3d 2e25 cfbd 287f eebd ca22 e6bd
000003d0: c72b 40be 0212 ff3c d442 103e 1367 22be
000003e0: 824c a8bd 73ba 46be 51d4 89bd a719 743d
000003f0: 1279 313e 06c8 0cbd 9d1e 5dbe b910 073e
0.038001187 0.034249894 -0.4476334 0.5055331 -1.1127057 -0.07316699 0.002210114 0.13447145
-0.03647693 0.18599792 -0.13746175 0.09908925 0.041927554 -0.077666126 -0.10760565 -0.07765945
-0.44930577 -0.2785468 -1.1383697 -0.17676996 0.10645112 0.18378058 -0.0018387317 -0.052204914
0.019615179 0.18050006 -0.020949855 0.165499 -0.1648881 -0.6034678 0.45500833 -0.09155761
-0.24294923 0.25185487 -0.111080445 0.1686665 -0.016532289 0.21881802 -0.045147024 0.07618219
0.27363822 0.061967723 0.03485593 -0.10799746 0.33603418 0.22967422 0.49402678 -0.31492358
0.12504706 0.003662339 -0.27080926 0.040479515 0.14833125 0.08874257 0.011708347 -0.046387203
-0.15007287 0.22438838 0.079734676 -0.11722459 0.17484824 0.2323414 0.073396586 -0.09186583
-0.24905908 0.14271408 0.2221352 0.019719442 -0.3760573 -0.47126704 -0.05552758 -0.012366672
-0.0858834 0.33770362 0.044666268 -0.20432927 0.05218721 -0.37356386 -0.023166403 0.19925782
0.042744912 -0.32094082 0.13493086 -0.06842264 0.24043572 0.43535984 -0.42207178 -0.40685397
0.70706385 -0.119637355 0.14582953 0.04936013 0.16296457 -0.048839714 -0.116362855 0.2020716
0.085025296 -0.18138042 -0.09217661 0.1395691 -0.10095485 0.11700587 0.21427853 -0.24104255
0.0064351074 -0.12226208 -0.16560274 0.18309374 -0.1495433 -0.10178251 -0.060582485 -0.29033822
0.54841197 0.017186305 0.61301696 0.1044196 0.63156074 0.022536948 0.14153779 -0.043865822
-0.20661636 -0.11580747 -0.12537403 0.08669618 -0.046819456 -0.35575268 -0.15507872 -0.07895791
0.08331145 0.056734096 -0.07142436 -0.24319331 0.05307584 -0.23849727 -0.1974619 -0.33423725
0.026006542 0.16430506 -0.22398095 -0.027078798 0.07918246 0.16052473 -0.16339158 -0.23035082
-0.019254236 -0.09984016 -0.3234499 -0.031585556 -0.11237016 -0.2323686 -0.28992876 -0.13084057
0.09839756 0.059675377 -0.16199613 0.49964315 0.4027851 -0.13862827 0.49467626 0.22263128
-0.06939287 0.11611834 -0.06148435 0.0256853 -0.04506717 -0.013776168 0.09217389 -0.3144507
0.27691108 0.24235941 -0.19321865 0.42092863 -0.360931 0.19608356 -0.29622665 -0.1877599
-0.09546749 -0.02910078 0.10473945 -0.02716682 0.08323001 0.12067125 0.18444297 0.15717408
-0.23899896 0.26444727 0.1839561 -1.0153412 0.038393825 -0.03167795 0.109975755 0.020423122
-0.11302292 0.043705866 0.13926993 0.053973697 -0.03520607 -0.38783926 0.20120652 0.13399561
0.34411937 0.062194698 0.004494668 -0.29975423 0.026250388 0.26305163 -0.33483097 -0.22161442
0.098600864 -0.23492964 -0.19147205 -0.39136863 -0.39388296 0.0771294 -0.595299 0.14519884
-0.13975938 0.09040523 0.20812006 -0.16671757 0.10678732 0.15310633 -0.3374494 -0.16566673
0.104487024 -0.062758416 0.20840658 -0.34784248 0.08005905 -0.067120284 -0.24692497 0.09976614
0.029774591 0.1677247 -0.37830943 -0.4064523 0.16235812 0.06783927 -0.023972178 0.0066364403
0.046071604 -0.10114513 -0.11645347 -0.11237104 -0.187667 0.031136516 0.14087993 -0.15859632
-0.08217718 -0.19407062 -0.06729949 0.059594776 0.17331341 -0.034370445 -0.2159371 0.13189973

bias f4 [256]
00000000: 50aa 983e 40e2 73bd 378f d8bd 3c85 b9bd
00000010: 05cc 75be 8f3b e63d 4eb3 a7bc 5fb7 9dbe
00000020: 2fa8 b9bc 03e0 83bb 391d 583d c8dc 27be
00000030: a7b9 523d 37dc b13d d116 b7bd e2f9 04be
00000040: 22cf 813d 1037 2dbe e7b5 2d3e 4d22 18be
00000050: 36c9 babd 2aec 8bbe 09d0 82be 0008 f73c
00000060: 589b 89bd dd46 923c 79b1 883d b61d 6dbe
00000070: e222 c3bd 1085 90be c867 5bbe 3736 11bd
00000080: 5d22 793e b4be 633e af35 963d 2286 9dbe
00000090: af6a 4dbe ac20 60bd 3757 36be 3c8e a9bd
000000a0: 0701 0bbd 3518 04be c806 8c3c 1d78 8c3c
000000b0: cf58 213e 16b9 9b3c b380 8bbd 9fe2 e4bd
000000c0: ef93 88be 5243 d93d d04d 8bbe 055a 72be
000000d0: 9190 eabc e683 a1bc f61e ee3c 4877 d7bd
000000e0: 9c50 d53d 6231 02be 8cdf c23d a712 693e
000000f0: 3d92 873d 079b c73d ad4d 38be 2e8d 8b3d
00000100: eaf2 e13c c6ce babd d39a 923d ab71 c4bd
00000110: c931 693d e16e 7cbe e3a0 f53d f4bf 2dbe
00000120: 4300 643e 80e6 48be e48e c83c c363 bf3d
00000130: 4435 093d a9ae 6d3d 1c04 f7bd 91ae b23d
00000140: 4c66 2c3e cad6 543e 150b 29bd 2e96 6c3e
00000150: 1e6b c33e e01d 903d 5ce5 4a3e 5687 16be
00000160: d1de 0b3e c72d 45be 675f ac3d 1375 0c3e
00000170: cc25 583d 647e 653d 5a47 1abd caa5 3b3e
00000180: 0168 90be af9e 0bbe 7074 a53d 06a7 a0bc
00000190: 80fe 573e aa8b 933d 494a 453e a177 fc3d
000001a0: e0bf 0ebe 1c97 5d3e 1ca9 1dbe 6a76 ad3d
000001b0: 1a48 5abe 63f3 593d 811c 5c3e 7240 bcbd
000001c0: a468 bbbd 2796 963d d7d5 23be 1762 b93d
000001d0: bea2 0bbe 19cd 6e3d 18a1 573e 0edb 40bd
000001e0: 10e7 f23d cdee aa3d 8636 8b3e a484 cf3d
000001f0: b87f 88be b67c fc3c 9e11 383d 9db6 4abd
00000200: 6447 d33c e056 3b3e 599f 913e f18f 183e
00000210: 9d19 e23d 6151 633e 3947 2bbe 6066 cf3d
00000220: b42f 8d3d 4eb7 24be 3f2e e53d ed61 dbbe
00000230: 3574 953e 99e3 35be abdd 3ebd 33c7 33be
00000240: 48c7 4d3d 1353 2aba 062d a1be cae7 6fbd
00000250: ad53 a3be 7c14 3cbe 4d63 a9bd 29af 6e3c
00000260: 930d 82be 0b39 debd 8ed1 b0be c02d 1ebe
00000270: a666 b63d 1f85 95be 778d 0dbe 9117 6b3e
00000280: f63c 6dbe 6a7a 35be e4dd 023e af5e b53d
00000290: 7e41 96bd 3a47 8ebd dc20 6cbc 4836 b63e
000002a0: 6764 e63d d058 3a3e ceee 863d 3ebd 253e
000002b0: 5655 793e 7fb1 aebe a72c 20be bb83 a937
000002c0: 890f 82be 9014 2abc 2e6b b63d cd06 fcbc
000002d0: e993 093e 1bc2 97be db9a 64bd bb6d 6dbd
000002e0: 7021 d7bd 7379 9dbe bb45 d7bd b323 01be
000002f0: fc0b 70be 7174 413e c741 9cbd 0c13 4abe
00000300: 093e f9bd 844a 4cbe ec4e 6ebe a2fc d4bd
00000310: 2c65 29be 7f92 693e 34fa 6b3d 4b74 da3d
00000320: c1bc 20be cb0f 323e 4f24 43be 7097 40be
00000330: 7243 92be 39c8 403e c3f1 983e 0fac 01be
00000340: 9118 87be 5ff9 17be 7cb9 0dbe c26d 4e3d
00000350: 4045 bb3d 17b0 f4bd 1f3e 173d d361 903e
00000360: f744 fd3c 8d49 c9bd c70f 96bd bc5f 08be
00000370: 474d 173e 9fce 02be 7fe8 1cbe 3677 0fbe
00000380: e17b e0bd 0b3a 98be cf0a 79be 70c6 22bd
00000390: 2a22 9bbe 4080 93be 95a2 e5bd 794f d23d
000003a0: 42ec 70be 1096 1b3e 16de 703e ae30 a0be
000003b0: d8a0 0ebe 0d2e 163e f1ee 073e a80a 883d
000003c0: 1de4 a3be e433 39be 695f 463e bf59 b63d
000003d0: 5ad2 623c 838a 36be f786 093c 55ca 05be
000003e0: ca36 b6bb 67c1 10be 911a 05be 7b6c cd3c
000003f0: aff1 e93d 176d 53bd 8708 82be 35ed 563e
0.29817438 -0.05954194 -0.10574191 -0.090586156 -0.24003609 0.11241829 -0.020471241 -0.30803964
-0.022663204 -0.004024507 0.052762244 -0.16392815 0.051446583 0.08684581 -0.08939899 -0.12985948
0.063383356 -0.16915536 0.16963921 -0.14856835 -0.09120409 -0.27328616 -0.25549343 0.030155182
-0.067190826 0.017856056 0.06674475 -0.23155865 -0.09528138 -0.2822652 -0.21426308 -0.035452094
0.24329515 0.22240716 0.07334458 -0.30766398 -0.20060228 -0.05471866 -0.17806707 -0.08279082
-0.033936527 -0.12899859 0.017093077 0.017147118 0.15756534 0.019009154 -0.06811657 -0.11176037
-0.26675364 0.106085435 -0.27207804 -0.23667152 -0.028633388 -0.019716214 0.029067498 -0.10520798
0.10415766 -0.1271415 0.095152944 0.22761022 0.066196896 0.09746366 -0.17998381 0.06814037
0.02758165 -0.0912147 0.071584366 -0.09591993 0.056932244 -0.24651672 0.11993577 -0.16967756
0.22265725 -0.19619179 0.024482198 0.093452 0.033498064 0.058027897 -0.12061331 0.08724702
0.16835898 0.2078506 -0.041270334 0.23104164 0.3816766 0.07036948 0.19814056 -0.14700064
0.13659216 -0.19255744 0.08416634 0.13716535 0.05277042 0.05602874 -0.037665702 0.18324962
-0.2820435 -0.13634752 0.08078849 -0.019610893 0.21093178 0.07204373 0.19266619 0.12327505
-0.13940382 0.21639675 -0.15396541 0.08469851 -0.21316567 0.053210627 0.21495248 -0.091919795
-0.09150818 0.07352858 -0.15999542 0.09051912 -0.136363 0.058301065 0.21057546 -0.047083907
0.11860478 0.08346329 0.27190036 0.10132721 -0.26659942 0.030821186 0.044938676 -0.04949056
0.025790878 0.18294859 0.28441885 0.1489866 0.110400416 0.22199012 -0.16726388 0.10126948
0.06893864 -0.1608555 0.11190461 -0.4284815 0.2919022 -0.17762603 -0.046598118 -0.17556457
0.050238878 -0.00064973644 -0.31479663 -0.05857066 -0.31899777 -0.18367189 -0.08270893 0.014568129
-0.2540098 -0.10850724 -0.34534878 -0.1544714 0.089062974 -0.29203126 -0.13823496 0.22958209
-0.23167786 -0.17722479 0.12779957 0.0885595 -0.073367104 -0.06947179 -0.014412131 0.35588288
0.11249619 0.18197942 0.06588517 0.16185471 0.2434896 -0.34119794 -0.15642034 2.0207712e-05
-0.25402477 -0.010380879 0.08907162 -0.030764962 0.1343533 -0.29640278 -0.055811744 -0.057965975
-0.105044246 -0.3075672 -0.10511347 -0.12611274 -0.23442072 0.18892075 -0.076297335 -0.19733828
-0.121700354 -0.199503 -0.23272294 -0.103997484 -0.165425 0.2280979 0.05761166 0.106667124
-0.15697004 0.17388837 -0.1905682 -0.18807769 -0.28567082 0.18826379 0.2987195 -0.12663291
-0.2638593 -0.14841221 -0.13840288 0.050397642 0.09144068 -0.11947649 0.036924478 0.28199634
0.030916674 -0.09828482 -0.07327228 -0.1331777 0.14775573 -0.12774132 -0.15323065 -0.14010319
-0.10961128 -0.29731783 -0.2432053 -0.039740026 -0.30299503 -0.28808784 -0.11212651 0.102690645
-0.23527625 0.15193963 0.23522219 -0.3128714 -0.13928545 0.14666004 0.13274743 0.066426575
-0.32009974 -0.18086201 0.19372334 0.089038365 0.013844097 -0.17826276 0.0083939945 -0.13065465
-0.0055607306 -0.14136277 -0.12998416 0.025076142 0.114230506 -0.051617708 -0.2539713 0.20988925

weight f4 [64, 256]
00000000: 90aa 7abe 25c4 d6bd 8f7e 383e 1b21 233e
00000010: d3a7 a03c 4fd6 2d3e c22f c3bd a782 213d
00000020: 5a62 793c 402f d83c cb7f 8abc 385d 7abd
00000030: 2857 af3d 72cf a23d 2ee6 8fbd 8350 d23b
00000040: 6800 95bd 32cf 29bd b5d1 42be f00b 8fbe
00000050: 498b 883d c28b 51be a381 8ebd 9824 17bd
00000060: aea4 74bd 82e0 15bd 472c 3b3e e3bf 823d
00000070: 9c6e 12bd 478c 003d c046 8bbe 040f 3abd
00000080: 18a7 0d3d bd59 913d cebe 53bd 6416 50bd
00000090: 0a18 903c cda4 d33d 0f9b 8fbd 3390 993d
000000a0: 7db9 e93d e1bb e73d b4c0 e7bd a67a 80bd
000000b0: d64c 28be 3192 2c3e dc74 05be 974a f6bd
000000c0: 63e8 91bc 813d 133e c351 523d 9057 0cba
000000d0: be9d bbbd e74c 8a3d da9d bb3d 23dd 0b3e
000000e0: 872b 43be 1e4e 50bd ad25 ba3d 4ab0 8b3c
000000f0: 9270 0bbb 19fc 13bc e977 1abd eb95 583d
00000100: 624a 9c3d 2753 283e bef0 45be fc2f afbe
00000110: f4ea 75bc b105 a3be ef75 4b3d 00e0 84bd
00000120: 9c2d 9d3d 878a 413e 477a 6d3d 6cbc e13d
00000130: b272 24bd 0a4d 2abc 4ace 8a3b ec37 1b3e
00000140: ad7a cb3c 16d4 263e e343 bd3d 5c73 783e
00000150: 3553 a73e 0119 01bd 8544 2dbe f233 82bd
00000160: 6a3a de3d 5a47 7cbd fa49 1c3e 8d2e 073e
00000170: c96b a13d 6e3f 823c 4a00 38bb caac 11bd
00000180: 21c4 dcbd fdc9 d8bd 3985 b7bd 26ce fd3d
00000190: 9583 653c a617 7c3d 06fe 1d3c 6155 f13d
000001a0: e2b3 78bd e9bb 073e 2b21 703e 1b44 0bbb
000001b0: 46de 91bd b2db 093e f367 1c3e 1ac6 d6bd
000001c0: 1f2f 9bbd 6af8 0cbe 994f 23be ab52 333d
000001d0: cd6e 15be 1b69 443e e709 63bd 3105 5dbd
000001e0: 87be 4bbd 6880 ae3c 1d63 783d b57d acbd
000001f0: 61e5 c1bd b868 e3bd 17ed ef3d 4877 633e
00000200: 59bb fb3d 6233 afbd f798 883b ef67 63bd
00000210: 56ca 133d 979e 43bd ba98 7cbd aebf 29bd
00000220: 69aa 153d 3a5e e43c e8dd 013d 41d6 7e3e
00000230: f8d7 a63c 5a21 1d3d 38c5 8b3d e914 7cbd
00000240: 80ed 463e d487 273d 4a6d 5ebd eecc 403b
00000250: 6228 053e a74b a93d caa0 71bb 537b bfbd
00000260: 32b9 75bd 090b 223d 92b7 d8bd 430a 9abe
00000270: d45d 493d bae4 abbc 0bb8 e7bc e4a3 963c
00000280: 82fd e2bc dc25 21be 6c62 15bd d5c3 73bc
00000290: be3c 363e ec3c 6fbd 75cb 81bd 1466 593e
000002a0: 4069 183c 7142 bfbc 251f 2bbe 63cf 2d3d
000002b0: f8d1 bcbc befd 5fbe fec2 e13d 58c5 bfbd
000002c0: fcfa f2bd a579 b1bd 7c57 e4bd dabf 433e
000002d0: 2592 e3bd afe6 173e 02bb 313d ed6f 4abd
000002e0: 6722 ab3d 897a efbd 844a 5abc 32b5 18be
000002f0: 7496 05bd 52b5 59bd ac11 3cbe 50fd 8c3b
00000300: 477f 3c3e 9a0a 3b3e 8fdc 94bc 05bb 8b3e
00000310: 847a 373d 3135 1c3d b3e8 83bd cc62 a5bc
00000320: 558d f93d c3a3 033e c65b 33bd ec30 12be
00000330: f32e 39ba cab0 023e 3895 303e fd7b e13d
00000340: d5b8 13bd a8cc 173c bec5 56be 195d 143e
00000350: 5716 123e 9dc8 9b3c 2c76 c2bd 0baa a73e
00000360: e06b 813e 3044 a6be 0282 92bd 31a4 64be
00000370: 1110 a3bd 6ecd 8b3e e87a 19ba 7ac4 76be
00000380: 8ffc c83d 7310 f8bd 6032 e0bb 2f24 c0bd
00000390: f703 26bd 74e8 c3bd e471 92bc a917 7cbe
000003a0: 896f 833e d160 d33d 8854 95bd 64b0 91bc
000003b0: 83e1 1ebe 34fa fd3a 5c80 b43d a5a9 0bbd
000003c0: 67eb cb3c 4dda 17bc e3d4 f83d 95b0 d8bc
000003d0: a402 a9bc 334d 173e 59fb b63c bf39 37be
000003e0: 8bfd 1ebc f022 163d 9c28 3fbe ab70 cebc
000003f0: be8b 32be 11d4 883c e532 293d b3f4 d0bd
-0.24479127 -0.1048663 0.18017028 0.15930597 0.019611275 0.16976283 -0.095305935 0.03943124
0.015221203 0.026389718 -0.01690664 -0.061124057 0.085615456 0.07949723 -0.07026325 0.006418289
-0.07275468 -0.041457362 -0.1902531 -0.27938795 0.066671915 -0.2046347 -0.0695832 -0.036900133
-0.059727363 -0.03659106 0.18278609 0.06384256 -0.035750017 0.03138378 -0.27202415 -0.045424476
0.03458318 0.07097194 -0.051695637 -0.050802603 0.017589588 0.10334168 -0.07011997 0.07498207
0.11412332 0.11315132 -0.11316052 -0.06273393 -0.1643556 0.16852643 -0.1303286 -0.12025946
-0.017811006 0.1437893 0.051347505 -0.0005353624 -0.09160946 0.06752949 0.09160967 0.13658576
-0.19059573 -0.05085575 0.09089217 0.017051835 -0.0021276814 -0.009032273 -0.03771201 0.052877348
0.07631375 0.1643797 -0.19330117 -0.34216297 -0.0150096305 -0.3184028 0.049673017 -0.06488037
0.07674715 0.189005 0.05797794 0.11022267 -0.040148444 -0.010394344 0.0042360174 0.15158051
0.02483877 0.16291842 0.09241464 0.24262756 0.3268067 -0.031517986 -0.1692067 -0.06357564
0.10850985 -0.061591484 0.15262595 0.13201351 0.078818865 0.015899386 -0.0028076344 -0.035565175
-0.10779596 -0.10585401 -0.08960957 0.12392835 0.014008422 0.06154599 0.009643083 0.11783863
-0.060718425 0.13255276 0.23450153 -0.002125031 -0.071224734 0.13462713 0.15274028 -0.104870036
-0.07577347 -0.13766637 -0.15948333 0.04378001 -0.14593048 0.1918072 -0.055429365 -0.05396003
-0.049742248 0.021301463 0.060641397 -0.08422414 -0.09467579 -0.11103958 0.11715143 0.22213471
0.12291593 -0.08554722 0.0041686255 -0.05551904 0.036081634 -0.047758665 -0.06166909 -0.041442566
0.03653947 0.027876962 0.031705767 0.24886419 0.020366654 0.038361885 0.06824726 -0.06154338
0.19426537 0.04090102 -0.054303445 0.0029419023 0.13003686 0.08266383 -0.003686952 -0.09349694
-0.05999107 0.039561305 -0.10581888 -0.30085954 0.049161747 -0.020983089 -0.028286 0.018388696
-0.027708773 -0.15737098 -0.036470816 -0.014878233 0.17796609 -0.05840771 -0.063376345 0.21230346
0.009302437 -0.023347111 -0.167111 0.042434108 -0.02304934 -0.21874139 0.1102352 -0.09363812
-0.11864278 -0.0866578 -0.11149499 0.19116154 -0.11111859 0.14834093 0.043391235 -0.049423147
0.08356171 -0.116932936 -0.01332343 -0.1491287 -0.032614186 -0.053151436 -0.18366116 0.004302658
0.18407927 0.18265763 -0.018171577 0.27291122 0.044794574 0.038136665 -0.06440868 -0.020188712
0.1218516 0.12855439 -0.043788694 -0.14276475 -0.0007064186 0.12762752 0.17244422 0.11009977
-0.03606494 0.009265102 -0.2097387 0.14488639 0.14266334 0.019016558 -0.09495196 0.3274692
0.25277615 -0.32473898 -0.07153703 -0.22328259 -0.07962049 0.27305168 -0.0005854801 -0.24098387
0.09813797 -0.121125124 -0.0068419427 -0.093819015 -0.040531125 -0.09565821 -0.017876573 -0.246184
0.25671032 0.10321201 -0.07291514 -0.017784305 -0.15515713 0.0019376935 0.08813545 -0.034097333
0.024892522 -0.009268356 0.1214998 -0.026451388 -0.020631142 0.14775543 0.022336649 -0.17893122
-0.009704004 0.036654413 -0.18667835 -0.025200209 -0.1743612 0.016702684 0.041308302 -0.10202923

bias f4 [64]
00000000: c850 073d 5145 1d3d b7f2 56bc 1fb6 cc3b
00000010: ca0d fdbb b203 323d 78c5 f33b e90a 86bd
00000020: ed77 1abd 0723 933d 9795 123d 805b 07bc
00000030: 7a5e 3d3c 9a64 6cbd da1d ec3c 7aa7 53bc
00000040: 3f4c 92bd f4d9 54bb f01b b6bb 6f43 ae3b
00000050: 4149 34bc 7584 8bbd 70aa 27bd b836 5e3d
00000060: ce28 39bc 417c bfbc b352 123c e6a7 34bd
00000070: b812 bcba 5995 9e3c 8cc8 fb3b 93d1 a0bd
00000080: b8ff a13d 2f23 ac3c 9ea0 b03c 35b5 d33c
00000090: 231b f43c 9b50 073d 50a6 93bd 5824 a9bd
000000a0: e3a3 fc3c 74f2 373d ac91 c2bc cdd5 a03c
000000b0: a10e 093d 4140 c1bd 7f62 8dbc 1518 76bd
000000c0: f6de 9cbd cfcc d83c 1d68 8b3d 3017 a0bb
000000d0: c683 ba3d 3e6e 8c3d 01a2 8dbd 2b4b 96bd
000000e0: 50ce 183e d4b7 cc3c 0422 79bc 1498 04be
000000f0: 7024 f03c cdf3 e53b d353 2fbd 6b9b 8dbc
0.033036023 0.038396183 -0.013119391 0.0062472965 -0.007722591 0.043460555 0.0074393116 -0.0654505
-0.037712026 0.07184415 0.03578719 -0.008261561 0.0115581695 -0.05771313 0.028822828 -0.0129183475
-0.07143449 -0.0032478543 -0.0055575296 0.0053180973 -0.011003793 -0.068123735 -0.040934026 0.054251403
-0.0113012325 -0.023374679 0.00893085 -0.044105433 -0.001434884 0.019358324 0.007683819 -0.07852473
0.079101026 0.02101287 0.021560963 0.025843242 0.029798096 0.033035856 -0.07209456 -0.08258885
0.030839866 0.044908956 -0.023751102 0.019633198 0.033461217 -0.094360836 -0.01725888 -0.06008156
-0.07659714 0.026464848 0.068069674 -0.0048855767 0.09107165 0.068569645 -0.069156654 -0.07338556
0.14922452 0.02499 -0.015205864 -0.12948638 0.02931425 0.0070175887 -0.04280455 -0.017286023

weight f4 [6, 64]
00000000: b703 37be b9eb 89bd 4892 3f3d ecc8 d93d
00000010: 4911 ca3c e546 593e b05d 04bf e8ed 913d
00000020: 5cc0 a83d 63d2 a2bd bf49 bd3d 6d68 a43d
00000030: 6edb a3bd 1942 88bd 27cc 1abd 3a77 d13c
00000040: d036 ecbd 9863 413d 4327 06be 6ca7 6bbc
00000050: 50c6 c1bd fe6c 8cbd dcb7 823d e17e aabc
00000060: 0b4d b73d 74bd 4fbd bc4c 9a3d ca0f eb3d
00000070: 63a5 d53c 7325 3abf 6bf1 44bd d337 853e
00000080: dd4c a7bd 81f1 cd3c 0f17 b13e a9b4 65bc
00000090: cd3c aebb 8616 d03d b666 7f3e f81e 66bd
000000a0: 09ab 2fbd 9e5e 0cbf 0f4f e43d ec6d 86bd
000000b0: f916 423c 4d34 44bd d7f3 57bd f7f6 bbbd
000000c0: 861a c43d 376c 533d 4e43 a23d 1307 aebd
000000d0: 5e29 583e 95d3 0dbd 1c4a c73d a93d 4abd
000000e0: f453 54be 28c7 f33c 9c52 303e f4ff bd3e
000000f0: d87d e83b 5541 4ebd 4da8 c73d 7adb 99bd
00000100: c2a2 89be 071a 8e3c f0a1 7b3d c5e2 3dbd
00000110: 8d1f 523b 818b 9d3e eee9 c6bc b05c 713d
00000120: 915a 243d 0a05 043f b6aa 78bd 47ed f03c
00000130: 0782 18bd 8c43 503a 7640 72bd 91ca 7e3c
00000140: e87a e23c 5599 963c 996a e8bc 82a0 ef3d
00000150: 761a 453d b882 ccbd 3576 63bd 8e13 313d
00000160: 7220 613e bf55 27bd b00a d73c d690 e23d
00000170: c8a7 8dbd 5da9 04be e3ba b33d a8f9 ac3d
00000180: 0b01 b7be c447 87bd 27eb 8dbe aaf6 6fbd
00000190: cadd 78bd 3c35 bdbd 9766 70be c35c cd3d
000001a0: 4246 853b b9a7 17be 6f55 16bd 444d 473c
000001b0: a76f 7dbc 646a af3c 247b 8b3a 0c29 6cbd
000001c0: 4925 fa3d 1540 6dbd 5c94 d63d 445e 723d
000001d0: fc67 b8be 7dc7 a13d b6ef 293e a96d a0bd
000001e0: 35e2 ebbd 6c64 b6bc 1fd0 523d 0744 91be
000001f0: 0e32 433d 40d1 1abb 49f8 5a3d 29e0 eabd
00000200: 61bb 303e ef5f 7d3d 8954 63bd 2c20 85bc
00000210: e290 e53d ade4 043e 060f 85bd 26ea 8b3c
00000220: 6b0e f23d 9710 30bd ddb1 e7bd 5972 74bd
00000230: ecd1 6c3b 705a 343d ad3c b23c 10c0 073d
00000240: dc0c 27be 8dd1 1e3d 6d1d 4a3e fe64 9a3d
00000250: aec3 9d3c 98dc b33d b9bd ca3d 9e38 f0be
00000260: cf8c c63d 1a1b 06be c069 573d 084f ff3d
00000270: 2b4d 26b8 5520 643e 6006 8b3d 2700 823e
00000280: 1a3e 79be a175 01bc 3f5e c63b 8185 f53d
00000290: af51 e43d a6b5 e1bc 8cf6 233e b542 483d
000002a0: da22 8e3d ad39 9abd 25f1 82bd a6b4 b3bd
000002b0: 5881 28bd 77dc e1bd f52d 193e 7720 463d
000002c0: 9297 14bd b7c4 babc 2f41 8d3e fd06 be3d
000002d0: fe1f 933d d05e aebd 36b1 89bc d014 8fbc
000002e0: 151f 5f3e 966e c3bd f55c 87b9 205b 07bf
000002f0: 6f7e 7b3c 9782 03bf 7685 f63d f238 adbd
00000300: b24d 9b3c 0c88 a23b 8185 dcbc bb3e 9ebd
00000310: 36d9 f63b 68c7 e3be ccc1 0c3e d238 ed3d
00000320: 7d8e 8c3d bac4 06be 588a c4bd bd5f cb3c
00000330: e99b f13d cc78 9e3d 684f a0bc 75eb 8bbc
00000340: c612 48be c557 993b 79bb 563e a9ba c43d
00000350: 6381 af3d fe70 a73c a24e ca3d cbe9 5b3b
00000360: cadd 393e 15bb 56bd b51d 95bd b594 59bd
00000370: eda0 0a3e cffe 023e 8376 6bbd 538c 56bf
00000380: 8818 7ebe a5f5 a13c 9da1 4dbe 737e 61bc
00000390: 8736 b2bd fb2e 57bc b028 8bbd b256 07bd
000003a0: b217 89bc 5d23 9b3d a1c6 54bd e5ab df3c
000003b0: 9691 073d 98d7 eebc c7cc 05bc 0ac8 d53d
000003c0: 50a6 89bd 561f 96bc 9b25 4dbf 1c3e 273c
000003d0: 999c ad3e 9163 b53e acc1 093e cb5b 743d
000003e0: eac2 9b3b 952a 69bd 4e61 093e 566a 2b3b
000003f0: 46fd b63c 5970 233d a883 9b3d 8941 8f3d
-0.17872511 -0.06734414 0.046770364 0.10634026 0.024666445 0.2121845 -0.51705456 0.07125455
0.08239815 -0.07950284 0.092425816 0.0802773 -0.08000837 -0.06653232 -0.03779235 0.025569547
-0.11533892 0.04721412 -0.13100915 -0.014383178 -0.09461653 -0.06856726 0.06382725 -0.020812454
0.08950242 -0.050717786 0.07534167 0.11477621 0.02607984 -0.7271339 -0.048081797 0.26019153
-0.081689574 0.025139572 0.34587905 -0.0140201235 -0.0053173066 0.10160546 0.24941525 -0.056181878
-0.04288772 -0.54831874 0.11147892 -0.06563935 0.011846297 -0.04790144 -0.05272278 -0.09177964
0.095753714 0.051616874 0.079229936 -0.08497443 0.2110953 -0.03462561 0.09730932 -0.04937521
-0.2073515 0.029758051 0.17219013 0.3710934 0.00709508 -0.050355274 0.09748898 -0.07512565
-0.26881987 0.017346395 0.061433733 -0.046358842 0.0032062263 0.30770496 -0.024281468 0.058926284
0.040125433 0.5157019 -0.060709678 0.029410018 -0.03723338 0.00079446356 -0.059143506 0.015551225
0.027646497 0.018383661 -0.028371142 0.11700536 0.04812094 -0.0998587 -0.055532653 0.04323154
0.21985033 -0.04085326 0.026250213 0.110627815 -0.06916767 -0.12955232 0.0877588 0.08446056
-0.35742983 -0.06605485 -0.2771847 -0.058584847 -0.06075839 -0.09238669 -0.23476635 0.100274585
0.0040672133 -0.14810075 -0.03670257 0.012164418 -0.0154685145 0.021413036 0.0010641557 -0.057656333
0.12214143 -0.05792244 0.10477516 0.05917193 -0.36016834 0.078993775 0.16595349 -0.07833416
-0.11517755 -0.022264682 0.05146801 -0.28372213 0.047655158 -0.0023623258 0.05345944 -0.114685364
0.1725898 0.061859068 -0.05550054 -0.016250692 0.11209275 0.12977858 -0.06497006 0.017079424
0.11819156 -0.04298457 -0.113132216 -0.059679363 0.0036135865 0.04403156 0.021757448 0.03314215
-0.16313499 0.038774062 0.19737788 0.07538794 0.019258346 0.08782309 0.09899468 -0.46918195
0.09694826 -0.13096276 0.052591085 0.12466246 -3.9649352e-05 0.22277959 0.06788325 0.2539074
-0.24340096 -0.00790158 0.0060537155 0.119883545 0.111483924 -0.027552437 0.16012019 0.04889174
0.06940241 -0.07530532 -0.06393651 -0.0877469 -0.041138977 -0.110283785 0.14958937 0.048370805
-0.03627736 -0.02279888 0.27588794 0.09278677 0.071838364 -0.08514178 -0.016808134 -0.017465979
0.217892 -0.09542577 -0.00025818465 -0.5287342 0.015349968 -0.5137114 0.120371744 -0.08458127
0.018957946 0.0049600657 -0.026919128 -0.07726809 0.007533218 -0.44488072 0.13745803 0.11583103
0.06863115 -0.13160983 -0.095966995 0.024825925 0.117973156 0.07737884 -0.019569114 -0.017080048
-0.19538411 0.0046796524 0.20969953 0.09605915 0.085696004 0.020439621 0.09878279 0.00335561
0.18151012 -0.05242451 -0.07281057 -0.053120334 0.13537951 0.12792514 -0.05748607 -0.8380787
-0.24814045 0.019770453 -0.20081182 -0.013763058 -0.087018065 -0.01313376 -0.0679487 -0.033041663
-0.016734932 0.075751044 -0.05194724 0.027303645 0.033097826 -0.029155537 -0.0081664985 0.10438545
-0.06721175 -0.018325489 -0.80135506 0.010207679 0.33908537 0.35427526 0.13452786 0.059657853
0.00475346 -0.056925375 0.13416025 0.002615591 0.022337567 0.039902065 0.07593471 0.06994922

bias f4 [6]
00000000: 466b 0b3e e366 69bd 23b7 fc3d 1894 2f3e
00000010: b57a d53c ea1e 19be
0.1361514 -0.056982886 0.12339618 0.17146337 0.026059488 -0.14953199
