part_4/Reinforcement_Learning/models_lab1/model2_non_zero_test1.pt (torch, 22535 bytes, 6 tensors)

weight f8 [28, 14]
000000 d6 6c ae 69 86 40 e3 bf 83 b2 ab 8b 5b c5 d4 bf
       -0.6016265930260498 -0.3245457519504173
000010 b4 06 f9 f1 95 1c d3 3f 2b e4 a4 f7 a1 cc cc bf
       0.2986197340979786 -0.22499489395139113
000020 3a 31 58 9c 99 32 e9 3f aa 49 e4 a3 93 34 d9 bf
       0.7874267629245317 -0.3938340282922136
000030 a9 78 1b 8e cb dc a5 bf 3a 50 70 2c f7 43 c2 3f
       -0.042700158211787916 0.14269914312228754
000040 38 ae da 92 6d bc 96 3f 8a bd f2 d5 8a 9a 71 3f
       0.02220317086054832 0.004297773673143887
000050 d4 28 ba 18 68 28 c5 3f 13 2a 1c fd 0d ab b0 3f
       0.1652956124056063 0.06511008672183775
000060 a2 4b 57 9d cf ee b2 3f b1 6f 7a 18 95 d1 d0 3f
       0.0739564665921493 0.26279189482169857
000070 bc 0d d7 34 48 87 e0 bf 91 2f 9b ab 99 8a f2 3f
       -0.5165139228851596 1.158837957703302
000080 79 b8 ca a9 a7 cc dd 3f 5b 3c 46 14 c0 e2 c6 3f
       0.4656161459087183 0.1787948702808276
000090 cd 10 18 ce 02 2d e3 bf 49 67 06 85 be 3d cd 3f
       -0.5992445016168176 0.22844678397523868
0000a0 21 b5 1d 78 81 9b a8 bf b1 07 ac c2 21 23 c4 3f
       -0.048061414635279805 0.15732213979214074
0000b0 97 ac 94 23 60 ff c2 3f 90 8d 40 01 df f5 b0 bf
       0.1484184430822537 -0.06625169544763865
0000c0 e7 24 be d8 ec 03 b0 3f 4b 4d b3 02 89 40 d1 3f
       0.06255989352770862 0.26956391586027867
0000d0 4e d4 74 4b dd 38 60 bf 4e 5a 36 96 c2 f1 a7 3f
       -0.001980240074454665 0.04676635821958951
0000e0 97 9c 88 df 60 39 c6 bf a7 72 e2 ea 9a 42 e1 bf
       -0.17362605013588414 -0.5393805110539532
0000f0 cb 32 32 9e 3c 2b dc 3f fd 6a a0 10 ef 33 e4 bf
       0.44013896416508363 -0.6313395809878269
000100 89 2b c8 36 24 8f b6 3f 64 b5 45 15 26 1b e4 3f
       0.08812166535805778 0.6283140578722564
000110 18 1d 7b c2 a1 1c ba bf 27 cc a1 80 a4 ea cf 3f
       -0.10199938772267492 0.249348223503689
000120 7f 1c 86 5c f3 c6 c4 3f 45 cd 56 03 48 bd a3 bf
       0.16232149141089633 -0.038553476722337034
000130 29 96 bf 44 8c b8 c4 3f 41 8b e4 4d b5 ec bf 3f
       0.16188195568899857 0.12470563079527343
000140 1b 72 27 c4 03 f0 91 bf 4b 50 be a5 f2 14 aa bf
       -0.01751714596490404 -0.05094106934771555
000150 e1 53 44 de 0e 37 b4 bf 5e a7 2d a3 b9 ef d8 bf
       -0.07896511961401088 -0.38963166175255093
000160 fd be 2f 46 3d a9 9d 3f 1f eb 19 d0 6b 23 f1 3f
       0.028965909394115908 1.0711477402644005
000170 9d 9c 4b d2 67 a5 d5 bf cc 5c 2f 98 3b 88 e1 bf
       -0.33822055374771215 -0.5478799793590041
000180 49 55 e0 04 33 05 b0 3f ce 0b 62 e0 14 96 94 bf
       0.06257933491754843 -0.020103765673876776
000190 50 ed 13 f9 5e 38 b5 bf 59 87 f4 e7 db 9d c4 3f
       -0.08289140301706266 0.1610674746125891
0001a0 1f 3f 5f 16 25 36 c5 3f 09 d6 5c 70 99 2d ac bf
       0.1657148703802642 -0.05503539558996457
0001b0 d6 2b 2b ad 05 36 c0 3f 23 4f 2b 72 5c 54 c9 3f
       0.12664862590312848 0.19788699698130427
0001c0 fa e8 84 db 8c d7 da bf 6a 34 4c 89 45 fb c6 bf
       -0.41940614163799206 -0.17954320148456598
0001d0 a8 b5 f1 13 dd 8c e3 3f 0b 17 e5 a7 63 51 d4 3f
       0.6109452619108895 0.3174676074598756
0001e0 d4 b4 b9 5c 0b 44 d7 bf 24 db d2 c3 ea 2e d1 bf
       -0.3635280995866428 -0.26848858951000154
0001f0 c8 9e e0 fd 2e e8 8e bf 08 fc d7 18 05 b4 c1 3f
       -0.015091292498325429 0.13830627167769216
000200 5b d1 2d c8 0b 5f aa bf a1 62 c6 c5 89 c4 c5 3f
       -0.0515063936099149 0.17006036908130276
000210 f8 6f 99 fc 35 ac ab bf 23 b7 b5 e5 65 2c c1 bf
       -0.05404823978889789 -0.13416742054271777
000220 f1 20 68 8a ef 4e c5 bf 59 8c 8c ad 52 96 c2 bf
       -0.16647142656461925 -0.14521249269555161
000230 6a c8 33 a7 56 e5 f0 3f c8 bc ea 84 91 51 d0 3f
       1.0559908419932307 0.25497854213876936
000240 ac 8f a7 b2 42 b1 e7 3f 4c ae 4f ac 9f ff e0 bf
       0.7403882493349463 -0.5312040677503744
000250 cc dc 80 b3 4c 6d da bf 33 ec ed eb 38 fe e2 bf
       -0.4129211190188016 -0.5935330017085846
000260 5f 47 89 1c 7b e7 9c 3f 9d 38 8f d4 ca d7 93 3f
       0.028226779572214308 0.019377869819259364
000270 fc 5c 7d d1 e1 84 c6 3f ba 2b 29 e9 8e 39 a8 bf
       0.17593023995389234 -0.047314134561552604
000280 95 89 aa 3c ff c2 a6 bf ea be ff 8d ed ab c9 3f
       -0.044456459193742116 0.20055932458443887
000290 cc f7 1d 64 e0 5e aa bf e2 20 23 68 e5 77 b6 3f
       -0.051505100461312375 0.08776696960842714
0002a0 40 08 37 d6 a2 92 d4 3f 68 8e b8 0c 45 c9 ea bf
       0.3214499561255515 -0.8370690582709814
0002b0 ea 57 ea d1 57 55 a2 bf 4b 5e 1c 05 b3 5a e6 3f
       -0.03580736577457329 0.6985716914959509
0002c0 52 2e dd 73 b0 2d d5 bf 9e 7a 2d a4 8e 26 e6 3f
       -0.3309136516079195 0.6922066885561724
0002d0 8f 2d b8 b6 1e e2 90 bf 18 e9 1e 3d d0 ef bc 3f
       -0.016487579252538572 0.113034262582833
0002e0 e2 9e a1 4d 83 a9 af 3f 65 2e 77 94 c0 48 a3 bf
       0.061840155817490375 -0.037664430735813416
0002f0 60 30 d8 6e 35 e6 b9 bf 2a b2 1e ef 6b 0d d2 3f
       -0.10116895633854162 0.28206919051698043
000300 85 46 6f cf cb 08 aa 3f 06 7b 07 f6 f4 55 c1 3f
       0.050848359176268544 0.13543569577355913
000310 40 20 fe b7 ef e3 e8 bf f0 f7 41 55 2a 9f dc 3f
       -0.7778242677313827 0.44721468282648313
000320 93 4d fa 01 02 ca c6 3f 25 c1 04 95 48 97 d5 3f
       0.17803979012078894 0.3373586135158056
000330 5d 65 a7 4e 87 40 db 3f 68 1f 8d 07 6e e7 a6 3f
       0.42581350976032245 0.044734419271263814
000340 a9 e5 61 16 ee 3f b8 bf ee 18 40 9d 05 dc cb 3f
       -0.0947254948277051 0.21765203645936232
000350 c8 84 c3 12 61 8b b1 3f 86 b8 4f 4a 2a 6f 82 bf
       0.0685330076990055 -0.009001093285373917
000360 de 36 4a 14 fe dd b3 bf f1 74 d4 20 6c 66 d0 3f
       -0.07760608668669586 0.2562513657192787
000370 36 95 3a bc 06 f5 bb 3f 4a 9b f8 6b d9 97 92 3f
       0.10920755477362296 0.018157384123834754
000380 a8 f1 c9 ee 92 c7 eb bf ef 5e 97 02 ad 3e e3 3f
       -0.8681120551914789 0.6014008570300272
000390 de d3 09 4f 14 52 e5 3f fe ce 58 1f f8 a7 e2 bf
       0.6662694495886361 -0.5830040561909013
0003a0 47 22 84 25 f3 12 3b bf df 3b d2 28 3b 95 c0 bf
       -0.0004131168002606028 -0.12955417149757317
0003b0 6e b3 8d f9 35 92 bf 3f c7 0e 3f 1d f5 7b 9b 3f
       0.12332475035300458 0.0268400477505242
0003c0 66 86 d5 26 7f a2 c4 3f 73 9c bc f4 ed 77 ab 3f
       0.16120900531955157 0.05364936459073357
0003d0 08 48 9a b6 b3 a8 ca 3f 43 74 36 f0 d3 fe 95 3f
       0.20827337661882006 0.02147990373270071
0003e0 73 96 51 8d 2f 49 bf 3f eb d0 19 9b 91 51 8d bf
       0.12221047592319127 -0.014315736337473036
0003f0 b9 9d c3 27 ae 39 89 3f f7 39 88 76 74 43 b6 bf
       0.012317047680382541 -0.08696678060389461
000400 83 61 67 53 18 e2 c0 bf c3 0c 7b 5a 98 9c cf bf
       -0.13189987251713484 -0.24696640413285395
000410 b9 22 9d 2d 6a 52 d1 bf c6 4e a0 62 b2 fe c7 bf
       -0.27065519766305673 -0.18746023002369422
000420 c2 df 85 7c bf 4e b7 bf 17 2f 18 a0 65 30 c4 bf
       -0.09104534902678466 -0.15772695843804094
000430 8e 73 97 22 e2 39 be 3f 80 35 50 5d 3c dd c7 3f
       0.11807072968026786 0.18643908077539706
000440 8d 6e a1 9e b1 a2 ba 3f 21 51 04 b4 bc da b0 bf
       0.10404501078431334 -0.06583766360228484
000450 7e 64 5a 21 a2 f5 d2 bf f8 49 79 a0 32 f9 ca 3f
       -0.2962422681535556 0.2107299121440318
000460 b4 3f 86 8a a7 69 df bf 06 eb e6 bf ee c5 e2 3f
       -0.4908236363198697 0.5866616962515259
000470 0f 8c 00 5c dc 45 6d 3f 13 2c fc c0 32 dc d2 3f
       0.0035733512777524966 0.2946898350352864
000480 49 6d 37 b4 0c 88 e5 bf 06 89 f2 69 af e7 e8 3f
       -0.672857620225309 0.7782818860326024
000490 4d 48 6c 4e 99 36 c7 3f e1 88 e4 9f 45 14 b8 3f
       0.18135372475859626 0.09405932572966293
0004a0 00 7a 38 2d 21 2f b0 3f ca 7b c7 ee 08 4c c7 3f
       0.06321914056795919 0.18200790080206125
0004b0 de a6 07 bb d8 3c d0 3f 29 c6 33 d1 b5 1b ae 3f
       0.25371378197324457 0.0588051622270423
0004c0 c3 f0 5e ef f2 65 c0 3f 16 c1 57 f1 f0 d6 b8 3f
       0.12811123550443967 0.09702974216611823
0004d0 8f fd 1a ba 85 7a c1 bf 76 df 33 fb 10 58 d7 bf
       -0.13655158602885506 -0.36475014239794434
0004e0 02 03 f5 5f 29 a1 c6 bf 53 8f 89 3d 9e 69 cd bf
       -0.17679326234249265 -0.22978570942643248
0004f0 8a 5f df 2b 76 0f cb 3f 6d c4 ea 81 a0 b3 b5 3f
       0.21140935079779083 0.0847721402340242
000500 b3 77 ee 6c cf b9 af bf 85 8a e2 4f 37 00 ce bf
       -0.06196449475031276 -0.23438159371024284
000510 e0 4f 81 97 1a 80 cf bf b5 45 09 16 dc dd c8 3f
       -0.24609691999159988 0.1942706210707407
000520 3e 8b f1 29 0d f7 b0 bf a3 df ec cc 9b 06 c1 3f
       -0.06626970552455888 0.13301417833440352
000530 50 d9 89 23 6d 03 c0 bf 6d ca 36 d6 1a 74 a4 3f
       -0.12510456309582674 0.03994830956380189
000540 07 18 12 d0 ce 50 c5 3f 7f e6 59 cc 80 89 e6 bf
       0.16652856025410775 -0.7042850486024718
000550 99 b0 5b c1 98 f4 e8 3f f2 59 28 11 d4 62 cf bf
       0.779857995655692 -0.24520350301527533
000560 e6 ad 3c 28 43 b8 d5 bf 2a ed 20 2d 1e b8 d3 3f
       -0.33937148026845276 0.30811266333667453
000570 02 8a ac d3 3d 17 c5 3f 46 87 20 7f 05 70 b0 bf
       0.164771774631916 -0.06420931199730004
000580 dc 33 58 cb 92 21 ab bf 69 a7 38 d4 61 58 bf 3f
       -0.05299051983102007 0.12244235449966613
000590 82 92 68 d9 4d 81 c4 3f ce 83 a0 1c 06 b6 9d 3f
       0.16019604793213565 0.029014678475622273
0005a0 72 f0 13 97 f3 75 ac bf 8f 15 78 d4 59 95 ba bf
       -0.05558739871227737 -0.10384141385300992
0005b0 00 00 00 c0 bd ca b9 bf 00 00 00 e0 d1 be cc bf
       -0.10074983537197113 -0.22457335889339447
0005c0 00 00 00 c0 2c 57 a8 3f 00 00 00 80 ad c7 ce bf
       0.0475400909781456 -0.24046868085861206
0005d0 00 00 00 80 00 43 c3 3f 00 00 00 a0 3c a0 cb bf
       0.15048223733901978 -0.21582753956317902
0005e0 00 00 00 40 94 3e c5 bf 00 00 00 00 46 0e ca bf
       -0.1659722626209259 -0.20356059074401855
0005f0 00 00 00 80 0e 45 b7 3f 00 00 00 60 90 c1 b0 bf
       0.09089747071266174 -0.06545355170965195
000600 00 00 00 e0 61 3f b8 bf 00 00 00 60 a1 67 bb bf
       -0.09471713751554489 -0.10705002397298813
000610 00 00 00 c0 b8 23 c1 bf 00 00 00 c0 eb 48 c6 bf
       -0.1339026391506195 -0.1741003692150116
000620 55 21 bf 22 7e 95 cb 3f 8a db 04 b9 55 ab de 3f
       0.21549965569125598 0.4792074496103217
000630 54 02 b1 34 34 44 e3 bf 4b be cd 2c f3 2d e1 bf
       -0.602075674927685 -0.5368591189453097
000640 96 46 bb 97 ec a4 e4 bf a1 c0 12 3c f6 3d eb 3f
       -0.6451323474413637 0.851313702898569
000650 4a f5 02 fa 75 d2 af 3f f1 f4 03 fe 34 08 b8 3f
       0.06215256382845753 0.0938752288966105
000660 04 27 58 37 a6 08 7f 3f 83 24 3e 08 88 d3 a4 bf
       0.007576607973087016 -0.040676356321520245
000670 95 c4 7e 07 a0 aa c1 bf ca 07 e8 e5 fe bd a6 3f
       -0.1380195652577966 0.044418302120916645
000680 24 e4 61 26 1c 30 a7 3f 21 f2 aa 15 0a ce ba 3f
       0.04528892487082484 0.10470641163824058
000690 db 7c 5d 10 73 8c e4 bf 52 ea d5 aa c7 30 d5 bf
       -0.6421447105057284 -0.3311022919002983
0006a0 f5 97 1a a6 0a 74 d4 bf 4b ba 77 50 24 16 9c bf
       -0.3195826170070853 -0.02742821446548253
0006b0 b5 ee 48 06 ad d1 e5 3f ee cf 94 dd a1 9d e4 3f
       0.6818451998473934 0.6442422225723001
0006c0 13 28 05 5d 9b e3 cd 3f f2 c1 f4 ad 6c e3 b9 bf
       0.23350851099013478 -0.10112647292113033
0006d0 fd 56 e2 f9 06 71 c4 3f 21 8e ef 8b 35 96 b2 bf
       0.15969931794523254 -0.07260450998688174
0006e0 2f 9c 75 61 4f 30 b6 bf 28 20 33 75 96 8a b7 3f
       -0.08667465333347545 0.09195843087502509
0006f0 82 de ae 3c 15 54 c1 bf 5f 1d 25 67 7a a7 b9 3f
       -0.13537850821534297 0.10021176355541205
000700 9e db fe 2c b4 47 bc 3f 68 f0 ff 0c 5a a2 d8 bf
       0.11046911333583728 -0.384909165091591
000710 0c 5b e5 b0 54 19 d2 3f 04 d1 84 0c 6f 05 dc bf
       0.28279607081405866 -0.43783165190258466
000720 d2 e7 7f dd 1b 44 b9 3f 80 7b c7 9c 18 70 cd 3f
       0.0986955085535606 0.22998340277896645
000730 a5 b8 53 34 5d f9 a8 3f 2c 63 1d cd ae d7 c1 3f
       0.048777496945932065 0.13939461722727609
000740 a9 75 3b 5d 6e de ab 3f b8 56 7f 28 9f 96 a4 bf
       0.054431389695064177 -0.040211652463466974
000750 e5 fb bc 2e 4a b9 a9 3f f6 e8 5c e7 70 b1 a9 3f
       0.0502417738011827 0.05018189262632859
000760 01 b7 60 2b 6c ce a7 3f 37 b0 c4 bf 50 eb cb 3f
       0.046496753974095036 0.21811875690161894
000770 4a 59 04 8e 46 e6 cd 3f f8 65 3f 60 dc 3f ed bf
       0.23358995375083175 -0.9140455131375225
000780 de b8 57 73 ec c5 b4 bf fc 98 fa a3 cd db e2 3f
       -0.08114507499678633 0.5893314554894284
000790 87 88 f8 2b ca b6 e7 3f 0b 53 a2 3e 76 b8 e9 bf
       0.7410631998830163 -0.8037673209497326
0007a0 0c 18 83 d9 e1 94 aa 3f d9 7a 40 84 ae cf bf 3f
       0.05191713123490169 0.12426272133641748
0007b0 74 ca 55 f4 56 da cd 3f 33 a6 9a 6f 43 dc af bf
       0.23322569780755809 -0.06222735154490202
0007c0 c9 be 15 56 0c 32 a1 bf 47 cc fa ae e0 c0 c2 3f
       -0.033584962376037426 0.1465111593621222
0007d0 a7 d7 c8 93 84 fe 9d 3f 7a 82 84 af d1 b3 bc bf
       0.029291221160938765 -0.11211882147882504
0007e0 aa cd 3e ec 82 f8 f0 3f 3d 72 d9 ea 09 c2 b4 bf
       1.0606717327435526 -0.0810857962000648
0007f0 61 f9 7d e4 8f fe d2 3f a6 a6 05 b1 6a 60 dd bf
       0.2967872363441498 -0.4590098122340386

bias f8 [28]
000000 21 a3 2c e6 e2 92 b1 3f 17 ca 6c 47 ce b6 b7 bf
       0.0686475574444896 -0.09263314479611783
000010 6b 67 7b c7 a3 b6 c2 3f 71 08 2d 61 b7 d5 b7 3f
       0.14619872322401348 0.09310480234583608
000020 a4 08 4a c5 ab f5 a9 3f b9 75 ef e5 b0 e4 d3 3f
       0.0507024458247696 0.31083319143894134
000030 a5 ae 2e 47 51 34 bb 3f 06 35 33 73 fe 9d c6 bf
       0.10626705158090972 -0.17669659256936415
000040 1c d6 4d 4e c6 ab c0 bf 3b 26 65 df 41 d4 c4 bf
       -0.13024214576187 -0.16272757919277744
000050 cd d2 79 ae 8b 07 c3 bf 76 14 00 10 ae 3d b4 bf
       -0.1486677743847821 -0.07906616106636641
000060 0f c5 30 06 41 0f d0 3f 00 00 00 80 c1 c5 aa bf
       0.2509310303167504 -0.05229000747203827
000070 87 ac 12 39 d4 f3 d2 bf 61 a9 11 bf e6 c9 cd bf
       -0.29613214086084166 -0.23272404031315388
000080 2e c8 56 48 95 05 ae 3f 60 8e 2f b8 7c 05 cf bf
       0.05863634594005905 -0.2423549556107103
000090 11 91 1d cf 01 bf cc bf d7 e4 92 ed cd 84 cb 3f
       -0.22457907307683247 0.21499036884578146
0000a0 4e a5 96 ca b9 76 b0 3f 7f b5 b1 7f e2 a5 75 3f
       0.06431161113745995 0.005285153161009303
0000b0 f8 91 d0 c9 5f 06 ad 3f 1c af cb 6c 28 6a b3 bf
       0.05668925608214076 -0.07583859115737507
0000c0 eb 6b 73 e1 5c 2d b1 3f 15 cf 0b 4f 99 5f c8 bf
       0.06709843162700195 -0.19041744575189826
0000d0 97 2a cc 58 e2 5a c8 3f 9c c0 0d b7 8f 1f 9c bf
       0.19027356468025822 -0.02746414713641397

weight f8 [56, 28]
000000 fb 58 7e 08 f8 96 9b 3f ad e6 35 09 00 5b b6 bf
       0.026943088072209225 -0.08732605194918604
000010 0c 56 79 1b ab 98 c0 bf a0 51 0c 55 42 41 96 3f
       -0.12965906945707706 0.021733318749356578
000020 7e 38 2c 59 b2 88 b1 bf 90 66 de c8 98 14 b8 bf
       -0.06849207570141577 -0.09406428245565679
000030 e4 b1 4a 73 47 dc 98 3f a2 f6 07 06 03 ae c9 bf
       0.02427779809174692 -0.20062291903007173
000040 85 3d 33 d7 e3 19 c4 bf 22 c4 e4 c5 e6 e6 ba 3f
       -0.15704010017223538 0.10508577662837174
000050 44 f3 81 39 71 13 c7 bf c9 d9 8f 99 f2 92 c6 bf
       -0.18028083141316575 -0.1763594865621612
000060 93 b6 0b e1 07 99 cc bf 00 00 00 60 fc 1a b8 3f
       -0.22342012871324765 0.09416177123785019
000070 12 14 d6 b9 17 a4 b6 bf 5b a5 cb 2e 73 cd c8 bf
       -0.08844135558145208 -0.19376983437477233
000080 6a 54 1c 1f 5d 97 c6 bf ab f1 a3 ca 37 b9 a1 3f
       -0.17649425524783463 0.03461622570646069
000090 5e bf 8f 88 2d 59 97 bf b6 52 f8 da 7d a3 0a bf
       -0.022801124057820636 -5.0809171963238904e-05
0000a0 9c 35 df 9f 83 2e c6 bf f2 67 fa 71 38 e5 c5 3f
       -0.1732944994568414 0.17105775418605124
0000b0 7a 8a 67 3e 68 2e 9f bf ec 9e 2a 4b 2e 2c b3 bf
       -0.030450466927400367 -0.07489289603347132
0000c0 81 4f f7 5c 95 d0 92 3f 85 92 f3 5b 22 d4 c9 bf
       0.0183738077156046 -0.20178632249657738
0000d0 83 fc 55 75 bf 87 aa bf 2f c4 33 ad 5a 09 bc bf
       -0.05181692416498953 -0.10951773384637485
0000e0 c1 3c a2 65 58 0c cd 3f 53 37 73 51 ed 7d 7e bf
       0.22693924868187845 -0.007444312118605928
0000f0 ee aa 84 c8 71 3c b1 bf a4 20 1e 16 41 f6 cc 3f
       -0.06732855935539891 0.22626508312192073
000100 11 38 0b a0 06 cf 75 3f 2d cb 6d ff 43 a7 d6 bf
       0.005324388389182048 -0.3539590830252333
000110 89 1e e2 0a 09 9a 9f 3f ba c9 5b ec 18 e4 c9 3f
       0.030861035622847175 0.2022734788984744
000120 a3 6a 21 3a f3 2a ca bf c7 c9 e5 5e e4 ca 90 3f
       -0.20443573320774985 0.01639897183617636
000130 4a 5d db dd 4f 3e b5 bf 10 1b 79 00 95 66 9f 3f
       -0.08298205534389527 0.030664756921647884
000140 8f eb 39 95 76 11 cc bf 00 00 00 60 ee 0e 7b 3f
       -0.21928293501317994 0.006606036331504583
000150 e4 e9 ea c3 39 b8 bd bf 19 c0 b4 3a db 3f cc 3f
       -0.11609231026788042 0.2206987415934243
000160 64 2d 60 c8 d6 02 9a 3f a6 e3 33 ec b5 f2 d0 3f
       0.025401454906427104 0.264813881556217
000170 00 61 47 74 f4 55 be bf 6b da 84 e3 d2 d1 ad 3f
       -0.1184990676769111 0.05824145343142536
000180 28 93 09 9b ae 10 b9 3f 03 dc a8 88 5f 48 b9 3f
       0.09791079793064894 0.09876057707229795
000190 b8 2a c2 cd 13 12 b3 bf c0 c7 94 cd 7c 15 68 3f
       -0.07449458859825142 0.002939933544120671
0001a0 03 d9 01 87 17 9a be 3f 25 16 9b 0b 26 bb d1 3f
       0.1195387558562722 0.2770476449335056
0001b0 7f 5f 17 9b e5 e8 ce 3f 92 bc 91 5b fc 57 c5 3f
       0.24148244927232196 0.16674761267811228
0001c0 16 99 96 e7 3d ac c2 bf df cf 8f c6 63 86 c7 bf
       -0.14588140304585612 -0.1837887496509429
0001d0 12 9b 9b c5 62 d7 d1 3f af a3 70 70 49 5f a4 3f
       0.27877110765113955 0.03978948113974156
0001e0 b0 73 b2 7b 44 dc 8b 3f 6d 88 78 3c e3 9b c1 bf
       0.01360372068875812 -0.13756981327702836
0001f0 ce 0f 15 08 e6 72 da 3f 08 69 f9 ff 5d d7 ba bf
       0.4132628516128961 -0.10484874247905307
000200 12 ef b8 79 bd ee bc bf 08 f8 3f 52 74 3d b3 3f
       -0.1130178854154418 0.07515646942189858
000210 fe ff 17 d3 15 eb 8c 3f 6c 1f 70 3b 7e d6 c4 3f
       0.01412026453454018 0.16279580976719943
000220 52 bf 1d 2f b9 f1 cc 3f 00 00 00 c0 36 46 b5 bf
       0.2261268119868825 -0.08310262858867645
000230 d1 d3 e5 c2 a4 70 c7 3f 88 c3 eb 2c a9 11 a1 3f
       0.18312510982982969 0.03333786652900189
000240 f0 98 85 d2 c5 c8 c8 3f b8 67 c3 97 fa 43 bf bf
       0.19362709788692412 -0.12213102536352849
000250 3d 5b 15 9e 49 45 cd 3f 38 b6 fd 75 c3 d0 b9 bf
       0.22867698878209267 -0.10084172850266604
000260 3c 18 51 61 46 bd be 3f 0e 74 b2 89 de a3 a3 bf
       0.12007560611627438 -0.03835959845421409
000270 a0 97 d3 dc 1d e7 ac 3f 15 b5 ed b5 a9 f5 c1 3f
       0.056450780111659826 0.14030953772763924
000280 d0 0a 1d d0 66 24 da 3f 73 e2 e2 f7 0e c7 c1 bf
       0.4084717781408189 -0.1388872824079673
000290 15 e4 ee ab e9 66 d2 bf d0 d7 cb a0 5b b6 ca bf
       -0.2875312975916711 -0.20869012214069338
0002a0 ea bc 60 7c 61 96 cf 3f 2b 60 b5 d6 07 2d cd bf
       0.24677675793780135 -0.22793672546208774
0002b0 92 5a 23 6f d6 1c b2 3f f8 a7 f2 81 25 7a c3 bf
       0.07075252736408746 -0.15216511578665837
0002c0 6c 1b 67 9f 9b cf 9b bf 5b e0 ec 53 04 c7 96 3f
       -0.02715914879243135 0.02224356424559946
0002d0 e0 a3 02 d8 8a bf b1 bf 5a 1c da 09 47 86 8e bf
       -0.06932895444573672 -0.014904551494750052
0002e0 42 f2 36 c7 18 0a ad bf ca cf 03 8d 55 2b c4 bf
       -0.05671765739268554 -0.15757245431416173
0002f0 5f 09 2e c7 b8 b4 c4 bf c6 6c 18 f4 04 85 cf 3f
       -0.16176519132211362 0.24624692839356593
000300 8f e5 8d 96 56 22 b1 3f 00 00 00 40 2d 8b ba bf
       0.06693020988122654 -0.10368616878986359
000310 57 2d 34 db ad 77 b4 bf ce d0 c3 b5 8e b8 9e 3f
       -0.0799511585393494 0.030000905841874474
000320 a2 7c 3f a6 8e f2 c0 3f f6 8d df 96 7a f6 cf 3f
       0.1324022590406218 0.24970943800791162
000330 d2 70 a5 8f 15 cd b1 3f b1 20 2a de d0 54 c5 3f
       0.06953558690060227 0.1666508755481622
000340 fa 7a e0 ca 20 55 b5 3f b7 7f 0b 33 cb a1 c9 3f
       0.08333020165489904 0.2002500533335458
000350 3e 9e 1e 1f 93 12 c9 3f 8b e9 7d 3f ac 64 bc 3f
       0.19587935466300793 0.11091114568799847
000360 67 aa 03 ee f8 ab c3 bf 26 f2 ce d0 9d 84 b0 3f
       -0.15368568059723772 0.06452356670246981
000370 b3 14 43 e8 5b cf be bf 2b 01 2c f7 22 22 9c bf
       -0.12035154743633107 -0.027473970733809566
000380 03 f0 88 2e 07 99 de 3f e0 44 b1 d5 49 03 6e bf
       0.47809009117531803 -0.0036636774143877643
000390 96 f3 bf 76 26 9a af bf 0d 96 76 25 de ae b2 bf
       -0.06172294807036065 -0.07298077025060241
0003a0 a5 7e c5 e8 3b 4f 9b 3f 61 53 56 0a 27 1b c3 bf
       0.02666944130157724 -0.14926612858530589
0003b0 b7 d3 dd 8b 79 0e c9 bf e1 1c 47 24 f7 61 d1 3f
       -0.19575423554820556 0.27160433333160766
0003c0 fa 89 45 3b 42 05 bd 3f 0f 5a a8 8a 8e 22 bd bf
       0.11336149165212098 -0.11380854497142699
0003d0 60 2f 2b 16 3d 64 ae bf 3f d5 61 fe c5 c9 8b 3f
       -0.05935850997556602 0.013568445993068166
0003e0 81 8f c1 71 ec a4 a3 3f 00 00 00 a0 6b bd 87 3f
       0.038367642294161015 0.011591759510338306
0003f0 f8 ce ea 12 8c 3c ca bf d1 43 f0 0d 3a e1 ca 3f
       -0.2049727527970544 0.209998375707555
000400 14 e8 28 c9 62 a3 a2 3f f1 ef 0a ab 82 68 c8 3f
       0.03640278535426958 0.1906894049806165
000410 a2 0c 1d b5 a2 85 b8 bf 03 ad 82 4f d1 33 ab bf
       -0.09578911706653284 -0.05312971206270769
000420 1d 0b c0 d0 eb 21 bc bf 50 d7 56 62 bb 4c b6 bf
       -0.10989259573402106 -0.08710833693370756
000430 f4 0f 1f 29 79 ce c4 3f f9 14 90 47 6e 7d c5 bf
       0.16255106456640045 -0.16789034361151048
000440 c4 98 13 b5 a6 09 be bf 00 d6 0b 87 2d d3 c9 bf
       -0.11733476563276485 -0.20175713628820802
000450 78 c6 dc 45 8c da d0 3f 73 c0 8d 2e ce 7d bc 3f
       0.2633391077280076 0.11129463802876831
000460 ba b9 0d f4 3c 14 d0 3f d7 9f 93 b3 ce ae d1 bf
       0.25123523553238736 -0.2762943986585901
000470 40 25 b9 1b c5 09 d3 3f 79 aa 4b 57 7c e2 a4 bf
       0.29747131068559796 -0.040790448814580445
000480 03 16 8b f3 9a a1 b3 3f ae 73 90 a0 d5 71 c4 bf
       0.07668465085870228 -0.1597239526753617
000490 c3 a1 46 43 d2 89 d0 3f 46 91 b0 66 53 56 b0 3f
       0.2584119469634311 0.06381722695420419
0004a0 5b 24 37 9d 04 af b5 bf 67 48 f7 57 d6 1b b7 3f
       -0.08470181310907902 0.09026851317983785
0004b0 b7 16 fc d9 40 38 9e 3f b2 27 b6 02 5f 7e b6 3f
       0.029511464409572166 0.08786577049445901
0004c0 08 b2 7a c8 63 e2 d6 3f 00 00 00 80 9c 5f b4 bf
       0.35756773546270937 -0.07958391308784485
0004d0 35 14 47 51 1b 04 5c bf 47 9f f2 32 b5 03 cb 3f
       -0.0017099634907122966 0.21105065334017523
0004e0 79 77 52 45 7c da b2 3f 16 9a 44 d3 ae e9 c6 3f
       0.07364632313189458 0.17900643649882458
0004f0 8e 5b b3 e4 5b 50 c6 3f d3 b4 55 4d d7 99 c8 bf
       0.17432736079237227 -0.19219485546219647
000500 a0 e4 55 c5 05 e7 9f 3f 13 86 db 98 8e fc c5 bf
       0.031154718560604366 -0.17176992858644322
000510 4c 7f 08 dd 95 e8 b8 bf 43 78 c6 e8 62 f7 81 3f
       -0.09729897161787199 0.008772633293855253
000520 4b 07 db dc 2d ec d1 3f 0a b7 56 87 ac 9c c6 bf
       0.280040231398847 -0.17665630920731018
000530 05 9c c2 38 a6 0e d1 bf 99 e6 51 18 f5 08 ce bf
       -0.2665191225336801 -0.23464835822578747
000540 b1 39 ec 8e 8b f2 b0 3f 60 22 60 4e ea a3 c5 3f
       0.06620094527554589 0.16906479670457752
000550 a7 d7 f8 c5 bb a1 cb bf b5 a8 e0 d3 8e a5 d1 3f
       -0.21587321440318627 0.2757298535458504
000560 be a0 ef b1 54 7d c8 3f 2a c1 8b eb 73 1f b4 bf
       0.19132479370387573 -0.07860493183739395
000570 89 9e bc be c9 14 b3 3f 6c 65 62 3e 01 18 cf 3f
       0.07453595072422038 0.24292007013427097
000580 62 dd f8 13 f3 9b ca bf 16 38 22 8b 88 dc a8 bf
       -0.2078842017669827 -0.0485575361100105
000590 f0 80 d0 ba 57 8c ab bf 9e eb 07 f6 34 d7 ae bf
       -0.05380510478448908 -0.06023564818675385
0005a0 e4 67 6f 1f 8c 26 bc 3f 00 00 00 a0 a3 b1 c1 bf
       0.10996318595371651 -0.13823361694812775
0005b0 9a 8f 38 34 88 4e be bf a7 08 0e f9 c0 35 b0 bf
       -0.1183858039371998 -0.06332021789970331
0005c0 1e 79 04 a6 6f 77 c2 bf fb 75 0c 4e 8c ad bd 3f
       -0.14426990133592538 0.11592938333020435
0005d0 64 9c 1e 05 a1 e5 a7 bf 3b 31 8d 54 51 58 bd bf
       -0.046673805117557504 -0.11462887109991453
0005e0 3b 6c c9 c8 3c 5b cb 3f 2a a3 c2 e5 d5 20 a4 bf
       0.2137218456653914 -0.0393130152672881
0005f0 db 16 7f c8 01 ac ad 3f a8 95 b6 d8 3f dc c3 3f
       0.057952934002555266 0.1551589782876992
000600 39 6a 0f 6a 81 76 ba 3f 59 b8 94 28 d0 65 d5 3f
       0.10337075080261905 0.3343391796396467
000610 13 ff 78 fe 10 02 b4 3f aa d4 78 91 75 42 ca 3f
       0.07815653050147046 0.2051531753838039
000620 d5 bc 2f 68 9a 02 c8 3f 6e 83 a7 87 4d 2c a6 3f
       0.18757944190244893 0.04330675393044357
000630 70 a5 97 46 4f e1 5c 3f 10 a9 33 b5 75 5a c8 3f
       0.0017627023865947854 0.19026061389679017
000640 6d 2b 32 93 18 3a b7 3f 6a 4f 4e 74 7d fb c6 3f
       0.09073022454883324 0.17954986742972362
000650 e6 4e bf b0 e9 dd c0 3f 77 60 fa 79 b5 a1 ca 3f
       0.13177224283446448 0.20805996375998223
000660 37 b2 a0 bd 37 16 c5 bf 69 91 84 c3 e5 0d ac bf
       -0.1647405315319632 -0.05479352962200574
000670 f1 92 71 6a ca 23 ca bf 6c 9b b6 bf 07 45 c5 bf
       -0.2042172450775506 -0.16616913662911814
000680 34 71 56 5e 35 3b c5 3f 00 00 00 20 63 5e b3 3f
       0.16586939913111964 0.07565898448228836
000690 ce 36 0c 9d 2d c1 be bf d5 b5 37 9c b5 51 b2 3f
       -0.12013516506359709 0.07155928672701546
0006a0 32 ea db 46 56 44 c5 bf f4 e2 8e a2 aa 91 c3 bf
       -0.16614798030771422 -0.15288289010438627
0006b0 eb 4e 81 14 53 c9 96 3f f8 99 62 24 e9 7d b6 3f
       0.02225236714032423 0.08785874498662583
0006c0 27 f8 f1 89 e6 aa c5 3f 2e ea 22 7f 83 df cb bf
       0.16927797065358272 -0.21775859554129923
0006d0 6d e4 3e 46 68 91 cb bf 88 21 49 fa 9d bf b1 bf
       -0.2153749793049288 -0.06933009491434039
0006e0 ea c8 d1 14 d6 89 cc 3f d0 e9 9e b8 8f ae c8 bf
       0.22295642868591098 -0.1928271914928943
0006f0 cd 0f a7 f8 88 96 b8 bf ec a0 d0 6a ee 37 91 bf
       -0.09604698248500583 -0.01681492354342222
000700 4a b3 ed f6 c1 d4 cc 3f 46 1a 0d 76 c6 45 ca 3f
       0.2252428489404344 0.2052543713018215
000710 6e 69 46 17 71 2e c1 3f 30 6b c9 44 b5 bc bb bf
       0.13422979008175723 -0.10834820680012736
000720 e9 b7 32 74 d6 0f bb 3f a1 7f cd 98 00 ec ac 3f
       0.10571041428440221 0.05648805489795384
000730 21 ce 7d 18 f2 73 d2 bf 86 93 d3 20 bc b5 94 3f
       -0.288326763074311 0.02022451353413459
000740 bf 55 eb ec f8 3e d1 3f 03 78 b8 0d 4f 13 b8 3f
       0.26946852814338834 0.09404462895369652
000750 9b 08 af 06 35 78 9a bf 1d 42 76 8c 11 eb c3 bf
       -0.025849178822462276 -0.1556112228249881
000760 65 45 5a c2 1f 32 b0 bf 00 00 00 40 77 81 98 3f
       -0.06326483244835897 0.02393137291073799
000770 b2 26 97 8c 71 d1 c4 bf f6 70 3f b2 2f 9a 9e bf
       -0.1626417099453668 -0.029885049108870874
000780 41 73 40 33 ef 3c c8 3f 60 da 90 31 10 12 b4 3f
       0.18935956957366254 0.078400623417886
000790 a3 7b 50 94 d5 90 8f bf 3e 0a df d3 db df d3 bf
       -0.015412968243308905 -0.3105382508330513
0007a0 2e 64 a0 4f 77 c5 b6 3f 53 c8 97 71 20 9d 54 3f
       0.08895059293753668 0.0012581650574898975
0007b0 ff 80 4a fd 5f 90 c3 3f 39 d4 cb ea 60 41 b9 3f
       0.1528434740803348 0.09865384800271294
0007c0 9f df 5f 38 ef 5c 92 3f 0f 61 88 da cd 51 c1 bf
       0.017932641807390955 -0.13530896349471574
0007d0 66 75 72 95 31 e4 c5 3f ec 8a d5 f6 c8 7f a5 bf
       0.17102641865941876 -0.04199054730522342
0007e0 07 9b 3b 57 ef 2e 80 3f 02 86 6e 30 b1 1e d0 bf
       0.007902021264681659 -0.2518732998815666
0007f0 5f a4 3c af 01 9a 92 bf e7 6b 22 b1 4f 03 b9 3f
       -0.018165613480196515 0.09770677637645485

bias f8 [56]
000000 3f 45 b8 e6 02 55 c5 3f 56 4b 9b 19 7f 81 b4 3f
       0.16665683999648626 0.08010095954095439
000010 c5 a7 d5 c2 bc 66 b7 bf 39 1b 1b 0d 87 22 33 bf
       -0.09141139752105605 -0.00029197499416648874
000020 41 ca 3f 3f 69 d5 b6 bf 92 a6 9b 0c 74 10 b6 bf
       -0.08919389528436118 -0.08618855769932512
000030 57 ba d9 c6 d7 9d a5 bf d3 7f 12 6e b9 5e c6 3f
       -0.04221987058996451 0.17476575731870855
000040 93 63 85 80 25 79 a1 3f c3 d2 de c8 4b bb a1 3f
       0.034127399386029066 0.03463208033591549
000050 fb 58 fc 4b fa 98 c8 3f 5b 91 9e a8 ef ef af bf
       0.19216850958100182 -0.06237744267790176
000060 d8 b8 24 b5 33 8d ba 3f 5c 3a da c8 49 98 95 3f
       0.10371707127044105 0.02108874596029363
000070 00 00 00 80 c3 e5 b1 3f 2c f2 18 a7 9b 83 92 bf
       0.06991216540336609 -0.018080169748133354
000080 fd 60 71 c5 eb 9b c2 bf aa 3b ec af e3 ee b4 3f
       -0.14538333073392798 0.08177016301145437
000090 fa b4 4c b2 f9 25 b6 bf af 8e 00 96 54 cf c3 3f
       -0.0865169582654807 0.1547647221024042
0000a0 81 34 f9 3a 21 b5 c4 3f 03 e2 12 b7 67 26 b8 3f
       0.16177764300883626 0.09433601588796851
0000b0 b3 85 a5 39 2d 41 76 bf e1 92 3a be db 4e c7 3f
       -0.005433251057497856 0.18209406651035123
0000c0 16 0b 29 57 e0 a8 79 3f 98 be fa 52 7c 5b ab 3f
       0.006264568643532772 0.053432355050401614
0000d0 f6 1b b4 2f 05 ee ae 3f 59 ad b7 eb 84 8a c4 3f
       0.060409700463473756 0.16047727117198
0000e0 2c 00 00 65 25 a1 bf bf e4 8d 71 73 41 c9 b6 bf
       -0.12355264392681481 -0.08900841778227392
0000f0 3f 45 74 02 35 c8 88 3f d4 74 49 83 35 ff b1 3f
       0.012100614678760222 0.07030043082473308
000100 ab 29 42 9c 56 62 85 3f 94 d8 95 3a 39 7f a7 3f
       0.010441471713666347 0.04589251365807559
000110 6d 8d 30 05 dc cd d0 3f 37 16 fc ca 8c 6d c1 3f
       0.262564663951898 0.13615569983828532
000120 41 30 da d9 e9 8a a8 3f 05 a9 ef bd 91 2d b2 bf
       0.04793482574777431 -0.0710078324042663
000130 c9 c7 f9 c9 84 29 98 3f 47 7e 17 32 24 35 c5 3f
       0.023595881297701547 0.1656842465008472
000140 b5 09 21 e6 f2 fc be 3f 1e 74 b1 28 65 ba c0 bf
       0.1210471927488815 -0.1306883286187323
000150 9c 4b 11 14 79 33 c5 3f 03 11 9b ce 75 a9 b0 3f
       0.16563333015309645 0.06508575719914593
000160 b2 ff a5 fc 7e 0d c3 3f bd ed 12 b1 fc c3 b6 3f
       0.14884936653470288 0.08892802546591035
000170 ca e7 e5 eb 48 59 9e bf 97 75 14 ce eb 37 c4 3f
       -0.02963746967132134 0.15795657694335993
000180 78 3c 0c 02 83 ab bb 3f a9 22 8c 44 95 27 b8 3f
       0.10808581161494313 0.0943539898254452
000190 a1 d5 3d bf 20 12 a4 3f 96 f9 af 87 99 02 c4 3f
       0.039200805039324445 0.15632933736192162
0001a0 14 18 10 bc 82 cd b0 3f ef 1d c5 03 21 1b c6 3f
       0.06563584414843177 0.17270291027146764
0001b0 c2 53 e8 20 7b f4 b6 bf db 2a f3 c2 a2 e0 a6 bf
       -0.08966798356443831 -0.044682585046378974

weight f8 [6, 56]
000000 9e fa f9 07 42 56 b7 3f cf 53 98 42 4c a1 c5 bf
       0.09115994162309923 -0.1689849209948577
000010 1d 5d 2f e4 b1 26 c6 3f 7a a8 64 91 3e 8e c3 3f
       0.1730558742699281 0.15277845477368485
000020 85 58 2a f0 a6 66 d4 bf 1f ae 1c e7 29 e9 9b bf
       -0.3187653870931018 -0.027256636362990357
000030 c7 5b dd a1 46 fd a8 bf 58 fe 9b 46 d9 54 c6 3f
       -0.0488073418225024 0.1744643778583732
000040 a5 f5 a9 d5 70 81 cf bf 78 84 1c 88 ce e9 c8 3f
       -0.2461377185135635 0.19463521619858049
000050 d0 66 91 6a ff ba b2 3f db b9 32 fa 05 c0 bf 3f
       0.07316585876233295 0.12402379377701982
000060 4e ce 6a 27 12 30 a7 bf e3 72 9d 62 1e cc ba 3f
       -0.04528862696807022 0.10467710406869517
000070 00 00 00 60 eb 8f a5 bf 38 4b 16 39 96 93 90 3f
       -0.042113643139600754 0.016187998995131653
000080 35 8c ea d1 40 2b c4 bf 9e 2d 29 e7 d9 69 a4 bf
       -0.15756998300375505 -0.039870080440404396
000090 ec a0 2a 28 d0 a5 8e bf 6a 06 a2 55 49 fa c5 bf
       -0.014964700914177752 -0.1717006366853185
0000a0 5f 16 06 34 02 18 c4 3f 1e bf 09 ed ff 2a 8f bf
       0.15698268451903893 -0.015218734189346213
0000b0 57 c4 5e 96 01 fe 88 bf 85 8c 60 23 f2 05 c9 3f
       -0.012203228379663296 0.19549395301246278
0000c0 38 a3 77 30 89 10 70 3f 7f 87 fd 93 40 90 ae bf
       0.003922019859125929 -0.05969430738947689
0000d0 2a e6 a8 ee 2c 39 97 3f e2 49 8a fd cb 0c c9 3f
       0.022679044787059656 0.19570302848713
0000e0 ba b0 05 6c fb 04 c9 3f 29 ba 1e 37 52 9a c5 3f
       0.19546454214594694 0.1687720078602564
0000f0 d7 27 c1 63 6c 60 c3 bf e2 7b 30 4b bc de cd bf
       -0.15138010855508696 -0.23335984870297383
000100 7f 31 0e 82 87 38 cb 3f 33 06 f1 4f ab f0 c1 3f
       0.21266263819087425 0.14015714076417538
000110 66 3a 01 9b b2 be d6 3f 3e 9e 38 cc 9c c6 51 3f
       0.355389262554047 0.001084950564186018
000120 b2 7b 00 63 68 1a c0 3f 79 4d 9a cf 0e 2e 88 3f
       0.12580590089870963 0.011806598387272814
000130 e1 89 a1 05 2b ae bd 3f 91 90 b2 84 c4 37 c3 3f
       0.11593884360767205 0.1501393936097242
000140 59 ba d1 d9 60 cf b6 bf 8a e9 a0 0b 6e e7 a5 bf
       -0.08910184209683204 -0.04278129474592436
000150 a8 a3 a1 ae 02 7c ba 3f 9a 81 94 72 b8 52 dd 3f
       0.10345474971258162 0.4581738585420908
000160 09 f0 e8 cd 83 86 9c bf 0f 68 3d 40 f9 65 a4 bf
       -0.027856883471244518 -0.03984049710443582
000170 88 43 df 47 33 9b 96 3f 26 46 c4 07 f9 c0 c4 3f
       0.022076417218900996 0.1621390617297475
000180 6a 82 e3 5d 46 3b ad 3f f7 b7 d7 ca 33 d9 a2 bf
       0.05709285636999513 -0.0368133721457155
000190 cf ab 34 69 5d 3c cb bf e1 27 36 8d 29 6f 70 3f
       -0.2127796901416716 0.004012262640921777
0001a0 e8 88 96 00 d2 a9 9c 3f b1 00 bc 48 08 2b a2 bf
       0.02799156311596898 -0.03548456085081975
0001b0 41 42 6c c4 8a 1c d7 bf d3 78 9b 34 b4 19 ab 3f
       -0.3611170690719839 0.052930480405608236
0001c0 b6 37 a1 51 ab 6b ae bf a6 05 0d f0 3e 78 a4 3f
       -0.0594152009149264 0.039979903033337025
0001d0 7c 36 7e 71 75 87 d8 bf 4e 2f 1c b2 c6 c7 c2 bf
       -0.3832677467661154 -0.14672168442518302
0001e0 6c 00 21 59 5b 7e 8d 3f 2f cb fc 48 c6 65 e1 bf
       0.014401162774561459 -0.5436736512695911
0001f0 41 30 25 c0 48 ff 9c bf c8 9b 1a 86 93 2f bc 3f
       -0.02831758187066691 0.11010095619222604
000200 04 b0 ed 47 3a 03 b4 3f e1 9c 5c 7c 63 d1 9c 3f
       0.07817425018373575 0.028142504182281484
000210 ca f2 cc 02 7a 4d a9 3f 0d 52 3f d1 65 0f a8 bf
       0.04941922458826793 -0.046992475312127004
000220 43 3f b4 3b 8a 8c dd bf f0 2b 5a 08 86 d8 a6 3f
       -0.4617028792426831 0.044620693702277836
000230 00 00 00 a0 49 11 c0 3f 2c 0a 96 96 dd 87 ad 3f
       0.12552757561206818 0.057677197105494876
000240 0e d0 b9 ec 0a 9a b8 bf 28 03 c4 6f 19 b0 87 bf
       -0.09610050467910033 -0.011566351626699126
000250 73 4a f2 c1 91 06 b9 3f f2 14 81 4c 34 81 d0 3f
       0.09775649056454387 0.25788600417247587
000260 ee cb 37 59 f0 99 90 3f 02 3b 5b b2 f8 d0 b6 3f
       0.016212230153495648 0.08912615160373252
000270 a4 5c 60 f4 4c 34 b7 3f 9c 4b ce d2 0d e6 c2 bf
       0.0906417938825706 -0.14764569085363355
000280 27 bc 88 d4 b5 7b c8 bf 0e f6 dd fe 4d ba b9 bf
       -0.19127533795969606 -0.10049903366412868
000290 8e 53 ee 6f 92 44 ce 3f fc 76 a3 a3 d1 81 cc bf
       0.23646765199069048 -0.22271175851977165
0002a0 61 b2 65 28 2e f7 cf 3f 8f aa f8 2c 60 2e c1 bf
       0.24973084423563122 -0.13422777362696478
0002b0 a8 1e 3f 0a e2 2f 74 bf 83 f0 67 c6 e5 5d a2 3f
       -0.004928477257585641 0.035872631520732966
0002c0 be e6 92 14 07 20 c3 bf d0 da c5 08 48 61 b8 bf
       -0.14941490654546458 -0.09523439611607931
0002d0 3a d6 f7 8f cc 82 be bf c6 2d a6 8c 05 10 b4 3f
       -0.1191833354458475 0.07836947139565273
0002e0 a6 62 33 4c bb 2e d1 bf b9 bf c7 56 62 ec 90 bf
       -0.26847727242924646 -0.01652673391976098
0002f0 0e ca 33 58 be 9b c7 3f 6e 7b c1 7d c0 59 d7 3f
       0.18444041544678708 0.3648530223926433
000300 a4 77 d9 02 94 81 ce 3f d6 96 fa d1 5b 2f 98 bf
       0.2383294118798719 -0.023618158999531534
000310 1d be 7d 56 f0 76 95 bf 0c d0 1b 7c 7b c8 cd 3f
       -0.020961528090479676 0.23268073616020535
000320 0b 24 97 b7 ee 3f b1 bf fc 1f 7d 96 6d fb c2 3f
       -0.06738178236186358 0.14829797599873007
000330 d8 e3 87 70 5b 5d b2 bf 0b ef e7 03 66 22 c6 3f
       -0.0717370176061104 0.1729247588226531
000340 f6 f2 65 6a 46 46 a1 bf 5f db 1e 11 73 17 cc 3f
       -0.03373928116613982 0.21946562133754363
000350 fc 19 eb 5c 21 0e b1 3f 5f f7 c0 e2 76 fe b1 3f
       0.06662186163439537 0.07028906856518578
000360 2f cb ed f6 4a 0a 9c 3f f7 dc e5 d6 e6 22 be bf
       0.027383014031737204 -0.1177200579312404
000370 37 62 7e 15 89 02 d5 3f a5 09 ce 2c a2 a5 bb 3f
       0.328279753675392 0.1079961165797046
000380 7c 41 fc ea a6 cf ac 3f 83 f1 1f d5 46 f2 d2 bf
       0.05627175920938307 -0.29603739560095493
000390 f5 3a 4d f3 7a 50 a1 bf 35 37 55 80 30 0d b1 bf
       -0.03381714076987478 -0.06660750516058729
0003a0 e6 4a 5d 54 cc dd ad 3f bf 81 18 d1 4e d4 c9 3f
       0.05833281068648492 0.20179162225487166
0003b0 e6 e3 b2 eb 05 3f a4 bf e7 02 da 38 09 bb c0 bf
       -0.039543328306031175 -0.13070788646657336
0003c0 e1 3c 55 ad ca e1 cb 3f 03 37 1e bf 15 4a d5 bf
       0.21782811606906363 -0.332646786345194
0003d0 d2 6b cb 84 75 f2 d3 3f 3c 9f 7c 4c 71 7d b9 bf
       0.31167352646087665 -0.0995703517661441
0003e0 46 5a c6 d2 7d 38 c3 3f ab fa bf 5d 26 71 d5 3f
       0.15016148368586552 0.33503111987367146
0003f0 00 00 00 20 62 cc bd bf d3 29 4d 75 d5 71 96 bf
       -0.11639989167451859 -0.021918616566191162
000400 0f 26 c7 ec 85 c7 b8 bf 12 fb 96 8e f4 9a b8 bf
       -0.09679448157034919 -0.09611443024821778
000410 08 eb 06 75 0d 85 aa 3f cb 45 90 79 3d 14 a1 bf
       0.05179636052658593 -0.033357544984152186
000420 ce 79 98 c8 9f 33 c7 3f cc 1a b5 4f 5d d9 ad 3f
       0.1812629441710229 0.0582989845084306
000430 d5 26 d3 b1 9f ae cb 3f fb 2e ab c5 de 3c 9a 3f
       0.2162665956769191 0.02562282639955436
000440 07 ce 8f 37 18 c3 c4 3f e0 fc 7b 4a ac 4c 72 3f
       0.16220381463027442 0.004467652331867827
000450 78 9a 53 28 2f 11 cf bf c0 2b cf 34 cf 86 a4 3f
       -0.24271192044325907 0.040091014095728905
000460 e7 87 fe de 26 18 cb bf 06 1d d2 32 2f ca b2 3f
       -0.21167455566779766 0.07339758864155863
000470 fe 00 38 f2 bd ec ae bf bb 26 71 10 40 f4 b1 3f
       -0.06039994794628177 0.07013321305671642
000480 ee fc 99 42 6f 28 c0 3f fe fe 43 86 7a 6b a5 3f
       0.12623396636988765 0.0418356217287492
000490 79 4b 41 33 3a 99 c3 bf 5f 76 07 d9 f1 39 c7 bf
       -0.15311362745941517 -0.1814558324539801
0004a0 9f 80 ae f8 83 98 a5 3f 96 4a 8c 02 3b b7 b7 3f
       0.04217922602333712 0.09263962566573478
0004b0 b0 87 02 a4 54 c7 c9 bf 30 46 f6 4e a9 ee c4 bf
       -0.20139558800025048 -0.1635333667332346
0004c0 88 51 44 c8 4a d7 b1 3f d1 dd 26 60 b5 93 b4 bf
       0.0696913470204149 -0.08037885281998249
0004d0 16 2f 4d fe 70 9e bd bf 02 7a 0e 31 12 fe b3 bf
       -0.1156988736012717 -0.07809556672734888
0004e0 98 87 7b 4d 94 10 c1 bf d3 a0 c1 78 aa e3 ae 3f
       -0.1333184603054718 0.0603307030112902
0004f0 2e 1d 75 8b ac 1d b5 bf 12 21 71 17 1a 66 b5 3f
       -0.08248403935168788 0.08358920166313435
000500 b0 43 d3 e7 6c 59 cc bf 49 82 2b cd 92 ca 9d 3f
       -0.22147904700844157 0.029093068859653824
000510 1d 2d 97 8e 5f bb c3 bf c6 f8 02 d7 fe 0e a7 bf
       -0.15415567839077307 -0.04503628134396957
000520 9d bf 8e 2a d4 a1 c0 3f 3f 52 db 07 46 1a c8 bf
       0.12993862226494182 -0.18830180534009064
000530 0f 2d b0 03 28 47 c1 3f 6c 41 29 96 ba de b4 bf
       0.1349840181359032 -0.08152357259792148
000540 2c a2 68 9a 69 a8 98 3f 4d fb 5b b5 28 35 d7 3f
       0.024079942750321034 0.36261956892842734
000550 1f 69 95 85 f6 14 b0 bf b6 34 38 ad 67 44 b4 bf
       -0.06281986962622853 -0.07916877726548219
000560 ac 87 0b a8 41 0d b2 bf 2d 0f 9b a7 6b e5 a8 bf
       -0.07051477768575748 -0.048625339708023275
000570 8c 15 41 d2 12 3e d0 3f 2a 99 21 81 58 66 a7 3f
       0.2537886670364393 0.04570271087941287
000580 d7 df f8 7d 9d 91 c6 bf d7 3e 3e 04 3a 8a be bf
       -0.17631882334694524 -0.11929667094795647
000590 e7 b3 f8 7d 6f 5a c2 bf 6c ed 73 d6 5d d5 9c bf
       -0.1433848729224387 -0.028157678808367434
0005a0 c2 54 66 63 bf e6 84 3f 10 9f 50 42 17 a0 b5 bf
       0.0102057411393538 -0.084474042596977
0005b0 00 00 00 20 ea a8 ba 3f 3f 7d d5 a4 31 8a a6 bf
       0.10413993149995804 -0.044023085948305944
0005c0 10 5e 57 a8 03 d8 ae bf aa 40 a4 46 b5 81 95 3f
       -0.06024180822322134 0.02100260966932469
0005d0 f1 a4 df 7b ff ab b8 3f 2d 09 d7 40 3d 4d c4 bf
       0.0963744809556777 -0.1586071554757579
0005e0 52 7b 2b e5 66 5a d5 3f da 10 5b cd 1a 5b cb 3f
       0.3336426961886235 0.213717794677115
0005f0 c4 9c d6 55 90 d8 be bf cf c1 41 4a 0d db bd bf
       -0.12049200149214118 -0.11662371695434291
000600 57 d5 94 9f 65 c7 b4 3f c7 6e 9d c9 c0 bc 8a 3f
       0.0811675562479953 0.01305533042221131
000610 69 10 21 00 a1 a1 a0 3f 60 60 98 91 a5 a6 c2 3f
       0.03248313070847148 0.1457106552995837
000620 76 45 01 6f 65 d8 b6 3f b3 8f ad ec 4e 4f c3 bf
       0.08923944435198003 -0.15085779720822998
000630 86 ab c0 f8 7e 0c ce 3f 90 7b 46 7f 80 67 cb 3f
       0.23475634714244736 0.2140961286031282
000640 0d ee e8 7d c2 ee ad 3f bf 77 9f b3 a6 e2 a6 3f
       0.05846221720682019 0.044697961260439005
000650 a9 ff 06 d8 6f 8f 8b 3f 5e c3 af 67 dc 80 c1 3f
       0.013457177906161482 0.13674502432652508
000660 31 3a a9 12 74 34 d0 3f ce 54 28 1e 6a be b8 bf
       0.2532015020596275 -0.09665549503582158
000670 55 3e 77 90 dd b7 d2 bf 33 71 55 dd b0 6c d4 bf
       -0.29247225864398746 -0.3191339646780477
000680 6e 35 52 de d3 0f a1 3f 6d 15 4c 83 a0 1a a6 bf
       0.03332388008957819 -0.04317189791440055
000690 36 ee bb db b7 17 b4 bf d9 e7 2f 49 a8 c4 ad 3f
       -0.07848691095926416 0.058141001638389596
0006a0 c0 5b f0 e9 05 36 c6 3f 69 a0 df e0 e4 ab bc 3f
       0.17352365420148708 0.11199789514614768
0006b0 ca 06 21 60 f7 cf aa bf e3 89 de 87 65 16 d7 bf
       -0.05236790703248813 -0.3607419802521276
0006c0 d5 03 38 4a 62 57 d2 3f 76 1b 47 03 39 31 bf bf
       0.28658349273615374 -0.12184482889197831
0006d0 ba c2 3f 1e f0 50 c0 bf 01 6b cb 0c ee 4f c5 bf
       -0.12747003056531075 -0.1665017664407387
0006e0 05 ce 58 77 78 cf a1 bf 59 80 78 92 fd e0 9b 3f
       -0.0347859998404623 0.027225458206999373
0006f0 21 5c 76 56 65 13 39 bf b8 25 19 10 34 f0 59 bf
       -0.0003826258093452846 -0.001583147852573281
000700 f5 4e 8c dd 4b 69 bd 3f b2 66 06 3f 42 6f cf 3f
       0.11488794478310267 0.24558284833329008
000710 33 53 72 08 ea 38 cd bf 09 9c 5f b2 88 ae c3 3f
       -0.22829938328200114 0.15376385411875074
000720 ae bb a5 e1 ec 34 d4 3f 4c 3e db a5 2b ed b2 3f
       0.31573030506018085 0.07393143462399471
000730 c4 07 15 7d a1 1d b6 bf 28 10 fb db 26 e5 8b bf
       -0.08638963035357877 -0.013620666111258187
000740 86 c7 f0 42 51 91 b7 3f 24 c1 bc 62 8d 58 c5 3f
       0.09206111797609937 0.16676490136297517
000750 be d5 66 8f 09 9f c4 bf 5d 97 ae dd 70 59 bc 3f
       -0.1611034345821007 0.11073975956113942
000760 8b b8 43 39 4a eb cd 3f 28 a4 aa a3 4f 40 ce bf
       0.23374297901267868 -0.23633761874705894
000770 00 00 00 e0 9d 30 bd 3f 76 63 84 8f ff 65 a8 bf
       0.11402308195829391 -0.04765318514745946
000780 35 b0 63 48 25 53 c1 bf 4f f0 07 90 5c 30 92 3f
       -0.13534990343703304 0.017762609759288058
000790 06 85 d5 9c d1 f3 bf 3f 6c f1 93 17 e2 a7 c4 bf
       0.12481412962872093 -0.16137338782562993
0007a0 8a 43 02 bc b2 44 d0 bf 60 6e cd 16 5d 6f 56 3f
       -0.25419300422895985 0.0013693245957345987
0007b0 49 41 8d 16 1e 4d b4 bf de cf 59 5c 97 eb a3 3f
       -0.07930172014790061 0.03890679361657566
0007c0 76 6c 13 b6 aa 56 cd 3f 6e 88 46 cc 8d 86 ab 3f
       0.22920736208365938 0.05376093977544448
0007d0 1c 21 7d 1b d4 ad bf 3f fc dd 1b f0 16 40 b2 bf
       0.12374616309273673 -0.07129042970688454
0007e0 0a 21 12 07 5e 69 d1 bf d2 5f 87 c9 ac 00 bb 3f
       -0.2720561093378967 0.10547904892098295
0007f0 ad 4a a0 ee dc 64 af 3f 7a 40 2a 65 8d 30 c4 bf
       0.061316398743789115 -0.15773169936847237

bias f8 [6]
000000 fa 9e c5 1f 82 28 8a 3f fb ab 74 16 3d 74 c1 3f
       0.012772575945475751 0.13635982128593568
000010 26 87 9d c6 d8 51 c1 3f c4 05 61 70 0f 62 b9 3f
       0.13531026552214448 0.09915253156307019
000020 48 64 e0 fe 7d 98 c0 3f 86 43 1f 6a f1 1f be 3f
       0.129653691722327 0.11767491188881082
