part_4/Reinforcement_Learning/models_lab1/model_2_non_zero_ver.pt (torch, 18559 bytes, 6 tensors)

weight f8 [28, 14]
0	0x3fc1cb983aa0d242	0.13902571547227366
1	0xbfe6c5ffea8ad549	-0.7116698819069508
2	0x3fcadf8ee0b40822	0.20994745227659545
3	0xbfc3673a572dbf93	-0.15158776528141668
4	0x3fe2c7c099ac420d	0.5868838311599248
5	0x3fe85dd12c8d8c7b	0.7614522810148537
6	0x3fc5d1b733aae2a1	0.17046251318767694
7	0x3fa52cdc26882f30	0.041357879356011984
8	0xbfc54481ea6d9e83	-0.16615318247498942
9	0x3fc34872b1925f6f	0.1506484381723072
10	0xbfabe6ef182748e8	-0.05449626130907054
11	0x3fc09da0896c23b2	0.12981039724425397
12	0x3fc822f449e2f00a	0.18856671912897155
13	0xbfa1c9353c08c05c	-0.034738219812766785
14	0xbfe8f386674b1dc2	-0.7797271745156922
15	0x3fefb3656c433d00	0.9906489481453775
16	0x3fdc155dd61ee2eb	0.4388041106245015
17	0xbfe64c1521caedb3	-0.6967874202741114
18	0xbfce74f43768817e	-0.2379441519306162
19	0xbfeaef7481b7f409	-0.841730359417512
20	0x3fc1abba837ec0a5	0.13805324001942157
21	0xbfb10f4815c49c57	-0.06663942843862124
22	0xbf725f649895de19	-0.00448550505949854
23	0x3fc198f4557a16ca	0.13748029874493845
24	0x3fbb2d146a50df68	0.10615661235430951
25	0x3fc778ede863189c	0.183377970190297
26	0xbfaef12ecf7a7428	-0.060433829142518214
27	0x3f9446619a12ef26	0.019799733189514467
28	0x3fd3cf64ba3d3df0	0.3095332926504559
29	0xbfa5b3a35e4afb50	-0.04238615537678092
30	0x3fe5f03874680ff5	0.6855737947048498
31	0xbfdc40fa2bde3442	-0.44146589550002
32	0xbfcd678fb4dc6685	-0.2297229416952186
33	0xbfe519ef966ac890	-0.6594160020670348
34	0xbfbc56d27f7dce7a	-0.11069980251868997
35	0x3fcc05c59cecd43e	0.2189261451946169
36	0x3f889918eb0744e9	0.012010759994981206
37	0x3fa77cdb0dc3b677	0.045874448232876945
38	0xbfa02d1d1fff99c4	-0.03159419074636419
39	0x3fcb25ef2a1dc164	0.21209516102272652
40	0x3f29247c36016fb2	0.00019182220694602192
41	0x3fc302e20f0ea891	0.14852548346727137
42	0x3fde60b7596e05ba	0.4746530888879438
43	0x3fd32def952594ff	0.29967870297544147
44	0x3fd9f7d888541bb3	0.40575230897268993
45	0x3fe1439ed70a1ca5	0.5395044517507769
46	0xbfe6b861dcef1fc7	-0.7100076022261356
47	0xbfc261dcb9665972	-0.1436115174553368
48	0x3f91d4097097185f	0.017410418984376338
49	0x3f6ca3fa8ee3a641	0.0034961599077305843
50	0x3fd09941e94de6da	0.25935409339545645
51	0x3fb82ed18ac1fc1c	0.09446439397469003
52	0xbf547308336cf763	-0.0012481288992627008
53	0x3fcaccbfe7146b9e	0.20937346251670602
54	0xbf978075ab1f2899	-0.02295097214645434
55	0x3fc80d8a017af42c	0.18791318008689595
56	0xbfdaf5ccc98f0a57	-0.4212524383876021
57	0x3fe8ebbfe3a72699	0.7787780233713476
58	0xbfea860c73791b37	-0.828863359006255
59	0xbfd4146b7a9713ca	-0.313746328083934
60	0x3fb992e23c5091a8	0.09989751789595991
61	0x3fead1da049a01ff	0.8381166543841231
62	0xbf291d34cad8adf3	-0.00019160527647109314
63	0x3fad4e55b0c36299	0.057238271548787974
64	0x3f7a38cc2330a707	0.006401822483022241
65	0x3fc486e8bed89f2a	0.160367100893603
66	0x3fc6120090c26a8f	0.17242438381511646
67	0x3fac93c3a6d60394	0.05581485187122506
68	0x3fbd1f63a131c0d3	0.11376021085175418
69	0x3fbb0ce773ae8df2	0.1056656510759735
70	0xbfeb895ddbcf08cc	-0.8605183880938738
71	0x3fdcbf6e7d07c184	0.4491840573309889
72	0xbfcb32fa31371ce1	-0.2124932041462904
73	0x3fe409b40a456bf3	0.6261844826325372
74	0x3fd1f9c33ef8961c	0.28086930417552636
75	0xbfeb536c4a28614c	-0.8539334724801306
76	0x3f9f8c0ecf2d400f	0.030807715792718734
77	0x3f8823a8d61e3729	0.01178676513134354
78	0x3fb09341725d3c9f	0.06474694292158965
79	0x3fc41c517b232765	0.1571142054802365
80	0x3fa0a46122c435d5	0.032504115575743654
81	0xbf82008a332dc426	-0.008790092169620744
82	0x3f8bc7910e90baf4	0.013564236886023796
83	0x3fa3d4fc198e82f3	0.03873431980105648
84	0xbfb5be3a9cb8fd8d	-0.0849339134811002
85	0x3fddbd56e6cda147	0.46468136348132244
86	0x3fd0edc2673c4d23	0.2645116813811958
87	0xbfedf6282e2897ba	-0.9362984563383556
88	0x3fe1100ec63d8a31	0.5332101699717154
89	0xbfd67fc333949d8b	-0.3515480045047858
90	0x3fa47c2712f0dc0d	0.040009709417454166
91	0x3fc7f105d90fd278	0.1870429334518524
92	0x3fac1841ad96e82e	0.05487256282818041
93	0xbfc4f9880981dd43	-0.16386509384367728
94	0xbfa16166f6650373	-0.033946244790519574
95	0xbfc53fef2b6aad55	-0.16601361865955747
96	0x3fc0d76debd0a62b	0.13157438291936904
97	0xbf9097c83b67c91f	-0.01620400297719826
98	0xbff3d809894e0403	-1.240243469568896
99	0x3fc4e9c5a69f4ccc	0.1633841575227052
100	0x3fd7c619669693c5	0.3714660169446769
101	0x3fe2692c8f4804a9	0.5753386305297187
102	0x3fd371a0a0ddcefc	0.30381026944745293
103	0x3fbf65aecb0bd277	0.12264530617887624
104	0x3fb897eb9f8830e2	0.096068121383897
105	0xbf9fa0f886168b45	-0.030887492355428554
106	0xbf82c935304413dd	-0.009172835860690337
107	0x3fa6775676c13257	0.04387922477380773
108	0xbf92986829bab542	-0.01815951113410575
109	0x3fcabc22c2ae6347	0.20886644845884403
110	0x3fcae56c59eed07c	0.2101264418721519
111	0xbfc2eb54edfc6af8	-0.14780675526056775
112	0x3fcf9c3703507587	0.2469548002417634
113	0xbfd54f11d21c2d6b	-0.33295102613984423
114	0xbfa2fb1abae7c680	-0.037072024646374935
115	0xbfdefd36b06c86d2	-0.48420493344211224
116	0xbfe326cda90206b6	-0.5984867382942045
117	0x3ff2305ca845864f	1.1368071148975962
118	0x3f8e390c1b851050	0.014757246579968492
119	0x3fc2c6111aa24a64	0.1466695194290707
120	0xbfc15d4cde752638	-0.13565979826152996
121	0x3fc509e5a84e6a8b	0.1643645355041666
122	0xbf9b036e2b0596da	-0.02638027322372847
123	0x3fb6aed934cc4236	0.08860547579775688
124	0x3fc675c260b2fa57	0.17546872827184032
125	0x3f7463529b3d8385	0.004977533990172205
126	0xbfd71bef2391d706	-0.361079964386008
127	0x3fd2d34eefae5251	0.29414723783819335
128	0xbfb987776d060f29	-0.09972330486021676
129	0x3fd557e23516f3a4	0.3334889906362213
130	0xbfc30351ab5e8048	-0.14853878848680524
131	0x3fb7625a293f6aec	0.0913444853498892
132	0xbfc10da2cb83cd0c	-0.1332286351895181
133	0x3fcbca516c12b279	0.21711175705913258
134	0xbfa5a7e17ea939a3	-0.04229645415454122
135	0x3fce1adc41c3c3a3	0.23519471369902786
136	0x3fc138827a2c201d	0.13453703847358237
137	0x3f992167d018c786	0.024541494442196242
138	0xbf7397a3a3fca462	-0.004783286305419217
139	0x3fbd1f89e2d03657	0.11376249110636515
140	0xbfc287e664c88d56	-0.14477233811440254
141	0x3fb7c942100ca781	0.092914704244917
142	0xbfb51de0507aa3a8	-0.08248712506123346
143	0x3f92aa98dcf2e8e8	0.018228901372574408
144	0x3fcd695d17419ead	0.2297779429966246
145	0x3fcf12205173e2e8	0.24274066903287594
146	0xbfb73306d7721078	-0.09062235603238544
147	0xbfc61f3eaeb46cda	-0.17282851725108267
148	0xbfc517ec477b13bd	-0.16479257097503633
149	0xbfcaec73fee4e5c0	-0.21034097620012737
150	0x3fc1f627f2af6464	0.14032458639011047
151	0xbf83575225541404	-0.009443895115063945
152	0x3fb15e1c480cc27f	0.06784226187733998
153	0xbfb52919e9f8726f	-0.08265840494318309
154	0xbfdc56fd729e50e3	-0.4428094500847363
155	0xbfcd54753d2464c9	-0.2291399525209157
156	0x3fb16e3af36aff9c	0.06808823054143293
157	0x3fe19ffb32fa06f1	0.5507789607656531
158	0xbfc217492af6d797	-0.14133562658178953
159	0x3fd4ec7a8b28eda9	0.32693351354438477
160	0xbfc0e3e560ca5f35	-0.13195483423327806
161	0x3fcdf271c8ca66f5	0.2339613180563941
162	0x3fa93e9d3338b8f9	0.04930583238852821
163	0x3fd0271d6c97f234	0.2523873863681587
164	0xbfc8a1168950120c	-0.19241601662373886
165	0xbfc2663706db3e84	-0.1437443526724459
166	0x3fcabd1b0b1407d8	0.20889604607515255
167	0x3fbd21f8b7518704	0.11379961467312333
168	0x3fc294efed0bdb99	0.14517020296599695
169	0x3fcbe2b2f4e2f435	0.21785580594397094
170	0xbfe4a53c0ff86c5b	-0.6451702415391866
171	0xbfc4a93c7d368e10	-0.1614146815673938
172	0x3fe89bc17105c567	0.7690131385299254
173	0x3fb21c5c8d514667	0.07074526262410928
174	0x3fcbff5bcce2817b	0.21873042587413835
175	0xbfbb3d1f0265acb0	-0.1064013844349343
176	0x3fb9c20ccae34430	0.10061721757234987
177	0x3f8d22658eb40b1b	0.014225762765368402
178	0x3f97545ba6439bb8	0.022782737753825194
179	0x3fb90358f3513a70	0.09770732822765082
180	0xbf80517591d470c0	-0.00796787120139475
181	0xbfaf08c61cd57dfb	-0.06061381437279675
182	0xbfd3310bc1144899	-0.29986852507966827
183	0x3fd61008f20267e0	0.344728695237448
184	0xbfdb9b7684a5bcd4	-0.43136370614861375
185	0xbfd88be73eb97cbf	-0.3835390198273209
186	0x3fe29268e1ae4118	0.5803722770524784
187	0x3fb926453de3a084	0.09824021111455933
188	0xbfb169aa1a55a659	-0.06801856177266909
189	0x3fc3705a82fdd9cc	0.15186625858377878
190	0xbfc78a612a98cd2e	-0.18391050891805477
191	0x3fa0fd10abf2fdf9	0.03318073367108449
192	0x3fb0b38e5fde222d	0.065239809422686
193	0x3fc684277495c8e5	0.17590802376395867
194	0x3fbcede0ae489031	0.11300472502677007
195	0x3fb00de8870ddebc	0.06271222398015203
196	0xbfe9849e0be018fb	-0.7974386436406172
197	0x3fe46dfcd3935f19	0.6384262211167623
198	0x3fbd8d47a71a3502	0.11543701009414423
199	0xbfe0ad31944f0fff	-0.5211418053299893
200	0x3fd9efa1f9cc83a2	0.4052510203783247
201	0xbfd7275a678c9e56	-0.36177692520366145
202	0x3fc7aa1b99ab6911	0.18487877849003856
203	0xbfb8547a0a4ec029	-0.09503901244784231
204	0xbfa55ba837273182	-0.041714913113170674
205	0xbfb020cda6dd4524	-0.06300053905330977
206	0x3fba203d32d5f2f3	0.10205442896944898
207	0x3fba19f9806b2849	0.10195884118289301
208	0x3fa7dbf4768b1e8f	0.04659999796927849
209	0x3f79a06f7a50cd1d	0.006256518802774805
210	0x3feb6740968accb8	0.856354040172298
211	0xbf9625a96b991036	-0.021628043358092174
212	0xbfd8ecb43026a87e	-0.3894472570633595
213	0xbfcad80955360210	-0.20971790943805546
214	0x3fe24d5d8940fbe2	0.5719440155734186
215	0xbfe43e190cbd99a2	-0.6325803040352194
216	0xbf825dcb5e9f2e3c	-0.00896796114456954
217	0x3fb1e74d59987ac3	0.06993564069169182
218	0x3f6d412118824dcd	0.0035710951233995703
219	0x3fc66bd44c1c8267	0.17516568867087587
220	0x3f9e8ea11816b431	0.029840962500817084
221	0x3fc3a9996a096f8a	0.15361325910168616
222	0x3fb72586092cd407	0.09041631435395923
223	0x3fc2ee0319916977	0.14788855312765367
224	0x3fca0611a7ebd1f4	0.20331021022106166
225	0xbfe4b14ccf1d8514	-0.6466430707188544
226	0x3fe71ab8d5399d23	0.7220119633247218
227	0xbfede4b48ae72350	-0.934168120665257
228	0x3fe84535871ce339	0.7584483755991648
229	0x3fbb1218f8085700	0.10574489646418428
230	0x3fb0b856eb9c91c5	0.065312798044551
231	0xbf9fbd379c68881e	-0.030995243951231648
232	0x3fbb16bad7f1ae12	0.10581558010169825
233	0x3fc1598ef47d37a6	0.1355456060213644
234	0x3fc453a8e4b43a3f	0.158803092643625
235	0x3f82e21c3fb153df	0.009220333760973474
236	0x3f65c056c2da25e7	0.0026551909020937517
237	0x3fc51720b38d47a7	0.16476830260449768
238	0x3fcc78629130fbd6	0.22242385949536353
239	0xbfe2c58ffc4a1b30	-0.5866165092018942
240	0x3fc236fdde9bf1e9	0.14230321282947436
241	0x3fefd72c40032faa	0.995016217254933
242	0x3fb7eb87a3661f23	0.09343765010100617
243	0xbfce2ed9ceffa5b2	-0.23580477340082734
244	0x3fce1fbfa13adb6f	0.235343888974707
245	0xbfc51cb7f98a3338	-0.1649389236885328
246	0x3fbdcb5a592d2683	0.11638416936070865
247	0x3fa5e3d23f6ec8ec	0.04275376343083956
248	0x3fcc18ac232fd183	0.21950294225792896
249	0x3fcf447a0f663ec5	0.24427724601672743
250	0x3fce510de4a775d1	0.23684858002427103
251	0x3fb1168006848b2e	0.06674957427143788
252	0x3ff0f23a7066510f	1.059137763081768
253	0x3fc6c719c794c04e	0.17795107121628678
254	0xbfd477f100efa8a8	-0.31982064334318716
255	0x3fc8a948bd14259f	0.19266614181860306

bias f8 [28]
0	0xbfc5e9116db9d77f	-0.1711751733561719
1	0x3fcec1c609a7721d	0.2402885005129897
2	0xbfb2cbfbb484ceb7	-0.07342503697582968
3	0xbfc0ef36165a3485	-0.13230014888214128
4	0xbf85c702f5d8dba2	-0.010633490684183237
5	0xbf94b02156891a85	-0.020203133494101983
6	0xbfc1a0ff209597d3	-0.13772572604210484
7	0x3fcefe232ab59461	0.24213065705694972
8	0x3fb883ff90d039ab	0.09576413426859769
9	0xbfc2ac6452d241df	-0.14588598293313645
10	0x3fcd5e91e5787aee	0.22944854454632185
11	0x3fab62b0162a5ccc	0.053487303453204044
12	0x3fb04eab43e2a7c2	0.06370039374692651
13	0x3fd3ee6332238d99	0.31142501732230127
14	0x3fb0570d76dc7dae	0.06382831718337087
15	0xbfc7095fd0476764	-0.17997358007306297
16	0x3fce232b1f726dd1	0.23544825587747067
17	0xbfaa21c7d187ee6d	-0.051038975074303085
18	0x3fa5788ea2119525	0.04193540314080683
19	0xbfc76d01766f9b3c	-0.18301409037595728
20	0xbf3aa2b6ff401de1	-0.00040642707540469557
21	0xbf8b05b946f59ea6	-0.013194510915766355
22	0x3fa3b370bf174191	0.0384783967271033
23	0xbf843740b7e6517e	-0.009871011364148027
24	0x3fd1452b5df61ed8	0.2698467652885319
25	0xbfa14f28be86fb0d	-0.033807061441157506
26	0x3fc475bfa4f845e1	0.1598434024349862
27	0x3fcb058722c7dfcb	0.21110619734076716

weight f8 [42, 28]
0	0xbfa6722508edc6a6	-0.04383960470194141
1	0xbfb613422fdd3fc3	-0.08623136204300778
2	0xbfd8147a87fa73e3	-0.3762499168313395
3	0xbf6244efb2a3beee	-0.00223013702372287
4	0x3fd945d14cf88dec	0.3948863269490335
5	0x3fc46ab844ef860b	0.15950682989118578
6	0xbfc602486c4f8ffb	-0.1719446686612399
7	0x3fd0e925d33f6683	0.26423020963338945
8	0x3fc5c2b96380cd4d	0.17000501020957373
9	0x3fb96e81277ff336	0.09934241499281601
10	0x3fac9fbf0c606fa8	0.05590626741488275
11	0x3fc31906b3d5846a	0.14920123845061833
12	0x3fba09826ad1cc82	0.10170760257624248
13	0x3fd1291821be7f24	0.26813319487881615
14	0x3fa02dc27d890265	0.03159911901866933
15	0xbfc5184fd7642781	-0.16480443970823092
16	0xbfd04669ae618e26	-0.25429765729333764
17	0x3fad45de7a3b5024	0.05717368356786803
18	0xbfa3793918430cea	-0.038034233295116085
19	0x3fc79f6ed84a28a2	0.18455300866145757
20	0xbfcef2a1556cc0cd	-0.24177948638089788
21	0x3fa0a06d6422231e	0.03247396323519623
22	0xbfc4e01f82af12bf	-0.16308969384239977
23	0xbfad50d9b44cfacf	-0.05725746465622238
24	0xbfc145f4a635f950	-0.134947377355227
25	0x3fca298d6f738fbd	0.20439308111155965
26	0x3fc7a23a28b2cf18	0.18463828074674704
27	0x3fb94251cb9c5f88	0.09866820546119304
28	0x3fb7ae176898566b	0.09250017455664199
29	0x3fb8bc586f786552	0.096623923506191
30	0x3f983103aadce8bf	0.02362447481503049
31	0x3fc32abe30459a7f	0.14974191052461447
32	0xbfd41c8f2172818e	-0.31424310938202715
33	0xbfb8509d128c5304	-0.09498006537280551
34	0x3fcf50d7d800a666	0.2446546368312738
35	0xbfc4232c5dc6a0e8	-0.15732340411091816
36	0xbf89ced099dd1b19	-0.01260149926714642
37	0xbf8498a330645ccc	-0.010056757845218554
38	0x3fab8a00e755dcc2	0.05378725837629751
39	0xbfc3ccbff52812b6	-0.15468596907171211
40	0xbfc3c2e921729919	-0.15438570149599043
41	0x3fb58f4de48d81b1	0.08421789960767147
42	0x3fc62f3e0a328ce5	0.1733167218963906
43	0x3fa0e511646a403b	0.03299764967698634
44	0x3fdbdadfaf1c8466	0.4352339944908351
45	0x3fc3339747f312d5	0.1500119305911968
46	0x3fcc2afc62ba3ee6	0.2200618249958019
47	0xbfab40c32f5e83b4	-0.05322847321736593
48	0xbfc3bc24b0f69da0	-0.15417917862690178
49	0x3fc4905ef0f0a352	0.16065584911964464
50	0x3fb677962196ad57	0.08776224441560508
51	0xbfc1c6239e21429a	-0.13885922642886755
52	0x3fb1124ace52e30d	0.06668536698533618
53	0xbfb2c45a15a714d1	-0.07330859211568287
54	0x3f905c06f519c93d	0.015976055822144664
55	0xbfb6b5c171fb89d5	-0.08871087105538973
56	0xbfc3c1b66c9c5f30	-0.15434913924468097
57	0xbf9fb73a62b984f7	-0.030972397113491614
58	0xbf8b51ec2bd3d3f8	-0.013339848601825452
59	0x3fcd55219fbc039d	0.22916050242932054
60	0xbfcb8e5675eecca0	-0.2152813030093954
61	0xbfaee6e3f332d7cf	-0.06035530418141343
62	0xbfa7364c5481343e	-0.04533613711883121
63	0xbfc7b543f2b82fc4	-0.18521928168808988
64	0x3fc56d87f00c3a13	0.16740512105066382
65	0x3fc5c1d61b1587c9	0.1699779159781072
66	0xbfcbc1c97b908fd5	-0.2168514111846195
67	0x3fc6ca60a11b774e	0.17805106989447456
68	0xbfba9fbe6c3cdad8	-0.10399999754450151
69	0xbfcba613d1bfc6ad	-0.21600578061729916
70	0xbfc3dd3eaf2f021c	-0.15518935731780992
71	0xbfc5f0eaf47c9cf6	-0.17141472757177895
72	0xbfaca84819ffe386	-0.0559713870752097
73	0x3fd0318418327adb	0.253022216444078
74	0x3fc713157f2ca4ee	0.18026989659964648
75	0xbfb287ec9cd25374	-0.07238653973247527
76	0x3fd34cd1ff235a88	0.30156373897390454
77	0xbfc9f8bcfcdb604e	-0.2029033884671229
78	0x3fc1c69ed3795965	0.13887391401176355
79	0x3fc4fb0c162e21e6	0.1639113529493123
80	0xbfb770c975826777	-0.09156474226838705
81	0x3fbc53edcd23d396	0.11065565355586524
82	0x3fc02c226a4e73bb	0.12634687605614467
83	0x3fc77053f3d6621a	0.18311547666668632
84	0x3fa9ea5b108692cc	0.05061611725549184
85	0xbfc4ff89dc096c87	-0.1640484165571687
86	0x3fb971a9b5de6377	0.09939060869363724
87	0x3fc7621d96b6c181	0.18268174990727107
88	0x3faec27438da00a3	0.06007731622685355
89	0xbfd122742c8fde97	-0.2677278933692632
90	0x3fa1dde2989daa74	0.034895974283092906
91	0xbfdaf78bccafd7a0	-0.42135901440576085
92	0x3fcb1a0429233372	0.21173145302455115
93	0x3fb0de406de4f6d1	0.06589129145592244
94	0xbfa101c2ac30bee7	-0.0332165560906768
95	0x3fbc9d32a49edc10	0.11177364844375881
96	0xbf95de9e9eaff3ab	-0.021357038913254616
97	0x3fcff9a7c69408ae	0.24980637737468697
98	0x3fc12ade745e0704	0.13412075693127445
99	0x3f839e95a2ed9faf	0.009579819712328545
100	0x3fcc7a280261388b	0.22247791401099834
101	0x3f9183ccc41bf199	0.01710433909373563
102	0x3f98381d305a9e3b	0.023651557995121513
103	0x3fc49e41c0db792c	0.16107961575375762
104	0xbfc7cadc21fd08ef	-0.18587829265204145
105	0xbfc026edbb436ede	-0.1261880077716943
106	0x3fca92b1a87cac46	0.20760174490837552
107	0xbfb716f379444df8	-0.09019395552268594
108	0xbfcc439a62a5c3a0	-0.22081308190129523
109	0xbf92340a85aeccff	-0.017776646050788433
110	0x3f91a0a800f19453	0.01721441751250936
111	0x3fc85aaa18570c32	0.19026685894468326
112	0x3fb9f3197d3815d8	0.10136565501314665
113	0xbfacf65328a8d58b	-0.056566809380835435
114	0x3fc4586ea0d32c2d	0.1589487347867772
115	0x3fccd25c83fae112	0.22516972011886388
116	0xbfd874006dc6c4e3	-0.38208018036227837
117	0xbfc6691a70c26d69	-0.17508249765237885
118	0xbfbe3570972fdcbc	-0.11800292674148499
119	0xbfc7cbcc17b11fd5	-0.18590689808684027
120	0x3fb83974b248f33d	0.09462670662555879
121	0xbfbd334b4733e8ee	-0.11406393516873312
122	0xbfa982cec94af05c	-0.04982610900103232
123	0x3fc243511e751786	0.14267934786965614
124	0xbfc9b1fa4881e7a1	-0.20074394741442084
125	0xbfd140792165e89f	-0.26956012975245786
126	0xbfc1a89388d96228	-0.13795704061591718
127	0x3f87416d365aca17	0.011355260106346283
128	0x3fd48e0dfa55d30b	0.3211703247718993
129	0x3fbb138c312ccd55	0.10576702309190485
130	0x3fc1bc579bfe02f5	0.13856024853523477
131	0xbfb6650ba1fb9933	-0.0874793310609661
132	0x3fc91479e0e5c595	0.19593738061261648
133	0x3fc6f75befcb30eb	0.17942380150487422
134	0x3fd511b90735e5f9	0.3292067118087228
135	0x3faaa51d64ccd92d	0.05204097609969192
136	0x3fc10980dc970c05	0.1331025197124235
137	0x3f31c2b558b57dae	0.0002710049381757462
138	0x3fb2f89795790693	0.0741057147906992
139	0x3fad0f150c663851	0.05675569321020702
140	0xbfb0e8347b4fa557	-0.06604316721463498
141	0x3fb13bac30da4fc9	0.06731678192801306
142	0x3fd0eac1fb4f465a	0.2643284753986329
143	0x3fc2c9a215bcf82f	0.14677835523065272
144	0xbfba22b5e711d506	-0.10209214106892625
145	0x3fde636e31220a0c	0.4748187522710914
146	0x3fa87c1cc5bc0cbd	0.047821902406235385
147	0x3fa31cdf258a0b58	0.03732964833490965
148	0x3fb317368b20e848	0.0745729531926439
149	0xbfc77502ed09304b	-0.18325840543764324
150	0xbfc18722576752f9	-0.1369364668631972
151	0xbfbbbf5080994ae1	-0.10838797702426063
152	0x3fb9089a9dea8c29	0.09778753619552617
153	0x3fc7fca09ff610a8	0.18739707766156255
154	0x3fc4f1e86977b79f	0.1636324419955004
155	0x3fb0b240a2a84a18	0.06521991702201324
156	0x3fc4c27417f4cabf	0.1621842495893215
157	0xbfaa2ba395421c57	-0.05111418911933956
158	0x3fb8c27482f1458c	0.09671714970433792
159	0xbfcdb51ce36835aa	-0.23208962539540084
160	0xbfaeaee4d2769741	-0.059928084079088347
161	0xbfc49a9868450dfb	-0.1609678753976452
162	0x3fba8b022eb7d7ef	0.10368360176639134
163	0x3fc95f9eb49d5ec4	0.19823058909491043
164	0x3fc7d6e76f2687f6	0.18624585082312678
165	0xbfc593f164274046	-0.16857736006068275
166	0x3f7a82f7c1ae980e	0.0064725568762806895
167	0xbfcbf71a5e9b5629	-0.2184784852931199
168	0xbfc596dc034e2b05	-0.16866636430162188
169	0x3fb4ddf97e39d7b5	0.08151206332863022
170	0x3fa417b4453749df	0.03924334855004807
171	0xbfaf131a0857efc8	-0.06069260932778736
172	0x3fc487e37d4a803a	0.16039699189878026
173	0xbfbac45ec13d97b2	-0.10455887048519122
174	0xbfc5fcf7927a04a4	-0.17178244259051667
175	0xbfc1bc6975b1e362	-0.13856237646885022
176	0xbfb28a52f9fc3801	-0.07242315867571848
177	0xbfab047b0460603a	-0.05276855877326665
178	0xbf90633a9e87d570	-0.01600352852434156
179	0x3fa032bc54a3df90	0.031637082416579365
180	0xbfb362a3a6d5b908	-0.07572386572948997
181	0xbfb7fac07e7263ba	-0.09366992079811967
182	0x3fbb922f978d458a	0.10769936990734244
183	0xbfc854820ac27b4d	-0.19007897878051452
184	0xbfbda99f3736b665	-0.1158694753455279
185	0xbfb6ccde4b375640	-0.08906354271251704
186	0xbf7d1b167d20b7b7	-0.007105911108778721
187	0xbfab6253c17c1818	-0.05348455178140926
188	0xbfba276bf84e922b	-0.10216402828388797
189	0x3fbafa66099b56d6	0.10538327917614806
190	0x3fbafc8792f16aa7	0.10541579568363578
191	0x3fc4bbb87803f963	0.1619787775052358
192	0x3fc21e8a736aaf1d	0.14155703197081318
193	0xbfc9b2453ca4574f	-0.20075288258584087
194	0x3fa8effd5d161197	0.048705976117193454
195	0xbf9a20b8d537847f	-0.025515449537014675
196	0x3fc706e1fe32639a	0.17989754592852308
197	0xbfade400e23bd4f4	-0.05838015329019611
198	0x3fc6f2dc1d2b9951	0.17928649353343443
199	0xbfc3e74198e5cebc	-0.15549488034922898
200	0xbfac8ef57e9668fc	-0.05577819032915163
201	0xbfd7196a53df3f96	-0.36092622938758134
202	0xbf9d8f0a017fc07a	-0.028865963307851385
203	0xbfd1d66c65d56d11	-0.2787123674840624
204	0x3fcc9e329f569403	0.223577812005857
205	0xbfba073f1fd34928	-0.10167307402597159
206	0xbfc3b4335d421275	-0.15393678716295126
207	0xbfcb0d836715709b	-0.21134989293466763
208	0x3fcfc83c5c547db8	0.24829821117689987
209	0x3fb22007bd69a674	0.07080124258359338
210	0xbfc811d25eb07227	-0.1880438768720449
211	0x3fcc82eea98e30de	0.22274573592256436
212	0x3fc1d348d8845e4e	0.1392603928768374
213	0x3fc1214abc087415	0.1338284891252505
214	0x3fb50033e8fdd7ed	0.08203434408446215
215	0xbfbccdd53416a53e	-0.11251575967493907
216	0xbfc1eb9726d2553f	-0.14000214953981957
217	0x3fcb5eb2902b7075	0.213827438731531
218	0x3fc67a8bdbff21dc	0.17561481706640236
219	0x3fad1585a5393e25	0.056804825228592905
220	0xbfd1ab94a2776134	-0.27609744897701494
221	0xbfcb1e309efb21f5	-0.21185882342093945
222	0x3fb8bc56fe0282aa	0.09662383748446737
223	0x3fb72a40c7b95e45	0.09048848033978014
224	0xbfc77f6dabfa34c1	-0.18357630631763835
225	0x3fd901c28a891b6f	0.39073241738190395
226	0x3fc956fa899adda0	0.19796687811843316
227	0x3fb8d9610fca2e58	0.09706694255344794
228	0x3fc205e66b4f64af	0.14080505599739498
229	0x3fd02ba79f9dd647	0.25266447627595706
230	0x3fd083cbc8d386df	0.2580441914743527
231	0x3fc12ba861a7027e	0.13414482849295334
232	0xbfbbb61e2c24ea30	-0.10824764802684039
233	0xbf77133a71db16d7	-0.0056335719106692305
234	0xbf6e60ec90eb3a64	-0.0037083263808661993
235	0xbfb650e05789aa6c	-0.08717157494690192
236	0x3fc9987a62907c09	0.19996576130594715
237	0x3fc604a2b008c0f4	0.17201646418971672
238	0x3fd0295b161c5a19	0.25252415808918866
239	0xbfa6132b42ecda59	-0.0431149977870759
240	0x3fb1d09405ba57d4	0.06958890094605802
241	0xbfcdd5b8c7edde3a	-0.23308477174917802
242	0xbfbc77203adf7e5d	-0.1111927169545139
243	0xbf9772a3a63c8679	-0.022898251553789415
244	0xbfdae901e951ed87	-0.42047164712104074
245	0xbfbe777d2b7ab920	-0.11901075660236815
246	0x3fcd147ceb68c38f	0.22718774313537124
247	0xbf993b89d41658d5	-0.024641183442860665
248	0x3fdb08131e85d397	0.4223678396295382
249	0xbfc6a1f3d21d27ee	-0.17681739577739058
250	0xbfa659b90254daf1	-0.04365327981434131
251	0x3fc5ca16da0cf7a6	0.17022977492336827
252	0x3fc128a82ab4ea9b	0.13405325017250366
253	0x3f95728eb26bdb14	0.020944814338657983
254	0x3fc41b689e28ae27	0.15708644602396868
255	0x3f80e98e8ffbc290	0.00825797440435963

bias f8 [42]
0	0xbf9bac562aa296e4	-0.027024599411240482
1	0xbfbc4cfead264f0d	-0.11054984786306594
2	0x3fb8ec6154d58e35	0.09735687562129487
3	0xbfc3c9c76bcb3118	-0.15459530604710703
4	0x3fca1e240d174a97	0.2040448249741373
5	0x3f9097420ccfd032	0.016202003509491365
6	0xbfb5e871e62e9b55	-0.08557807798079627
7	0x3fc1f2f151860e66	0.1402265213074429
8	0x3fc651609daea19f	0.17435844134639653
9	0xbf8e3a1f9a78216e	-0.014759299184348786
10	0x3f932a2495df2871	0.018715449950640953
11	0x3fb69d0b6262164e	0.08833380844051783
12	0x3fc396c5d9390197	0.15303872210098454
13	0xbfc13e94d5fb6f36	-0.13472233246181425
14	0xbfc1962e99691cb1	-0.13739569178344405
15	0x3fc2316cf7229e86	0.14213335101270647
16	0x3fc09d1bf570360f	0.12979459270756918
17	0xbfc66ce99c2aa4df	-0.1751987469226952
18	0x3fb3fc53a641e0c4	0.07806895073906889
19	0x3fb868c8170cb4e9	0.09534884035811654
20	0x3f96e4c3d19317ea	0.0223570439018416
21	0xbfbcffee59dca2bb	-0.1132801980389883
22	0x3f80bf2c278b5e64	0.008177132565307228
23	0xbfc17eecdc87a1b0	-0.13668595092827962
24	0x3f9a2f07195e6daf	0.0255700215562748
25	0x3fc34134ac47b0ac	0.15042742168532663
26	0x3fb3448fc0ecc739	0.075264916039285
27	0xbfc1943cdc319689	-0.13733635665555635
28	0x3fb50dede0cc1c48	0.08224379289832584
29	0xbfc09ce717cbf9fc	-0.12978829061462693
30	0x3f9e13dd26cc07de	0.029372649662953047
31	0xbfc549f91e717c06	-0.1663199804924888
32	0xbf69d0e462840d65	-0.0031513653412972736
33	0xbfa4e1c111c663e0	-0.040784867687029935
34	0xbfb9dc300b9d88df	-0.10101604732111323
35	0xbfbd423e211e0bb8	-0.11429203327683879
36	0xbfc1ab2734556dff	-0.1380356793914501
37	0x3fca67dd2ec3331d	0.20629467757535105
38	0x3fb16e8f98b0b270	0.06809327581204072
39	0x3f94f175b63af23d	0.020452346084072415
40	0x3f8eb0b183277716	0.014985453429229117
41	0xbfa342ffccb83e45	-0.03762053846378114

weight f8 [6, 42]
0	0xbfc5ef9e337d4ac3	-0.17137506021625457
1	0x3fba36c9ddbed34e	0.1023985067721018
2	0x3fc1b3caf6582572	0.13829934147387807
3	0x3fd5ccfac7ed1044	0.34063596271539986
4	0x3fc6b04494909f3b	0.17725426916262585
5	0xbfb0a8e323ac73c2	-0.06507701512278088
6	0x3f97f4fba1d137a3	0.023395473243276076
7	0x3fcd6d29f19ccf85	0.22989391610610369
8	0xbfc6043c433a9af4	-0.1720042541757817
9	0x3fc58c8d233c9cad	0.16835178585572433
10	0xbfb0418f99c2711a	-0.06350038055319765
11	0xbfc2d601cdfbf2c0	-0.14715597684689463
12	0x3f8143762bd0db73	0.008429454052117901
13	0xbfa4eb2bf63a6da7	-0.04085671787944572
14	0xbfd37f00b52e7e6a	-0.3046266335822795
15	0x3fc4b796f3244a66	0.16185271141201268
16	0x3fc0bef2411b0bd1	0.13082721880900164
17	0xbfc60082c185529d	-0.17189058732278265
18	0xbfd6125599733b2e	-0.3448690413032861
19	0x3fd02048eee25cc1	0.2519705136159694
20	0xbfb9ea3ef886ef21	-0.10123055999332255
21	0x3fb8450aa65bddb7	0.09480349122519881
22	0x3fb52d8e02a8243b	0.08272635998595572
23	0xbfad18d855507e5b	-0.05683017770229234
24	0xbf938892f5081e45	-0.0190756761603821
25	0xbfc07ced45e9418f	-0.1288124648440427
26	0xbfabf57d62cc5027	-0.05460731345206709
27	0x3fa0eacd65c43feb	0.033041399643593504
28	0xbfd3d816ecb705db	-0.3100640594167012
29	0xbf943c2b6b5731c0	-0.01976077883391425
30	0x3fc00979debafaa1	0.12528918624407928
31	0x3fb884c4be24df5b	0.0957758869379836
32	0x3fbaaebd815c4333	0.10422882469380283
33	0x3fb2250d6c065497	0.07087787520716159
34	0xbfce9abd63783c68	-0.23909728390615048
35	0x3fa3d954341bb55a	0.038767463074558875
36	0x3fd3774291c59cd7	0.3041540549806547
37	0x3fa6d9b753374eeb	0.0446297921259012
38	0xbfba079168eef4c1	-0.10167797862864615
39	0x3f8c67902847194f	0.013869405965021868
40	0x3fc395752c83b11a	0.15299858735614508
41	0x3fc00a318699ba64	0.12531107971468025
42	0x3fc13f677430b09d	0.13474744008397446
43	0x3f931962706b317d	0.018651521789068582
44	0xbfc06323103beeda	-0.1280254201191074
45	0x3fb283605a2a58ec	0.07231714440635856
46	0xbfcbd00966f473fc	-0.2172862770757148
47	0x3fb21cdf39fb62e7	0.07075305142951614
48	0x3f7b3a0a02bbd8c5	0.006647147278036229
49	0xbfb99a0edd9ae7a5	-0.10000698957710925
50	0x3fde06fbe3989e01	0.4691762659662971
51	0xbfb352b8313be6ab	-0.0754809494209449
52	0xbfae0a2aafb11bef	-0.058671316096074004
53	0xbfc230595e04a706	-0.14210049715739376
54	0xbfcfcea78f98fad0	-0.24849409591293758
55	0x3f5a5cb234972827	0.0016090145385185912
56	0x3fb70789006f68ba	0.0899587274610977
57	0xbfce9ad7614be5da	-0.23910038233570569
58	0xbfd2847b98761ab7	-0.289336108100922
59	0xbfa75d0f50b61294	-0.04563186512226483
60	0x3fb0c9591ab4c401	0.06557232763294964
61	0x3fc28d73752a9d5e	0.14494174214380967
62	0xbfa3431af0d6156c	-0.037621347331007055
63	0x3fd400a1ae408a7b	0.3125385476761619
64	0x3fc241beaf872281	0.14263137407967366
65	0x3fd373cb4698cf82	0.3039425076888095
66	0xbfa6301d2ea5eaa2	-0.04333583063540415
67	0xbfc2897d7d6ef0f2	-0.14482086777378061
68	0x3faf92f9a2e37cb9	0.06166820634256837
69	0xbfcc92df3284732d	-0.22323217360180916
70	0x3fb53ab59ba92ee0	0.08292708444895025
71	0xbfadee4bf138f0f7	-0.05845868415460303
72	0x3f8600f97771cabc	0.010744046170861103
73	0x3fc7759b654d54a3	0.18327658125295895
74	0x3fb942f69390ce79	0.09867802717854514
75	0x3fcd63ebb133f1ae	0.22961183693395298
76	0xbfc08e31c7338382	-0.12933943010923704
77	0xbf8500ac3be7e832	-0.010255189493353443
78	0xbfca7e3814ece806	-0.20697690030812071
79	0xbfb838bab9de042a	-0.09461562192701992
80	0xbfcf79775e64c661	-0.24589435681405106
81	0x3fbb0e601df5aba5	0.10568810206829811
82	0x3fa377e3d97633fc	0.038024063392278123
83	0x3fb7f88aa6166bea	0.09363619379875812
84	0xbfdb109880cf5f18	-0.42288792208772596
85	0x3fc7d245f08a4d3c	0.18610452885750728
86	0x3fae93fcdac3ce3d	0.059722806648917694
87	0xbfb19d0b3aabde67	-0.06880254919439609
88	0x3fccd049b4d42454	0.2251064427330528
89	0x3fb80ae58ca1d0dc	0.09391627009773934
90	0xbfb5b8c693b875e8	-0.08485070330103606
91	0xbfbd3da78b80b0f4	-0.11422202258899344
92	0xbf6a1504ea68430a	-0.003183850861440245
93	0xbfb7a84142da3fd9	-0.09241111642972956
94	0xbf9aa74333028ab7	-0.02602868079032802
95	0xbfc5dedd10d4ca1d	-0.17086375543438317
96	0x3f9366c600346dbd	0.01894673706293103
97	0xbfc482fd78a4fd95	-0.1602475012859769
98	0x3fd2a10809263b77	0.2910785760258742
99	0x3fa3b6c68773f3df	0.03850384143331786
100	0xbfb59d7527236235	-0.08443386273882754
101	0x3fa28134309f938d	0.03614199727579779
102	0x3fc2d06d7e32fc82	0.14698570882862688
103	0xbfbab1350e203284	-0.1042664679991479
104	0xbfa6587c0d7ae61d	-0.0436438337760132
105	0x3fbf564c19f5e618	0.12241054185678768
106	0x3f955eb1be8f59f3	0.02086904264054996
107	0xbfd26a1906269913	-0.2877256927553315
108	0xbfbd5957aacef645	-0.11464450760009821
109	0x3fd06de5f3d19e54	0.25670765695983744
110	0x3fd79d1b428f6ef5	0.36896401882198343
111	0x3fc2c5401cf4fdbd	0.14664460576930863
112	0xbfc28c376eb60501	-0.14490406900225852
113	0x3fb8ec9b6ffe5d9d	0.09736033901423587
114	0xbf9ca28f05830b27	-0.02796386214391613
115	0xbfbfe5aec35d20f7	-0.12459842939017905
116	0xbfbd2a0fcdf2f0e9	-0.11392306116153218
117	0xbfc7098863f093b2	-0.17997841720457824
118	0x3fcef9f0337e67ce	0.24200251116127308
119	0x3f7e120eb91cfd84	0.007341439735511716
120	0xbfd5ba320b22abb7	-0.3394894703621349
121	0xbfd3642c77bc4a57	-0.3029891175548633
122	0x3fb99dc7e7749b50	0.10006379509705465
123	0x3fa012a69f382843	0.0313922948226524
124	0xbf98c009c284db4e	-0.02417006730794507
125	0xbfb0b77193917bd6	-0.06529912808171842
126	0x3fd0c2ec6ba830df	0.2618971873605584
127	0xbfcd50dd1fbcf351	-0.2290302662821895
128	0x3fc77704f4401fb4	0.1833196823720279
129	0xbfc5133db91c8f31	-0.1646496919503249
130	0xbfa4333558cf8252	-0.039453188983092816
131	0xbfa236719a3bbad9	-0.03557162292223887
132	0x3f7fd969a2af44c9	0.007775700224514633
133	0xbfcba6a5a87f3c77	-0.21602316596406343
134	0xbfdb16712882a950	-0.4232447524651848
135	0x3fb10fb7a6fe0d4d	0.06664607836687715
136	0xbfc97bc9e9626ac4	-0.19909023185467423
137	0x3fc7b0c5d17c33a3	0.18508217552917214
138	0x3fbb910556722038	0.10768159256451859
139	0xbf815ea2fce75ab2	-0.008481286376008288
140	0xbfc32a0bedd7b214	-0.1497206603375082
141	0x3fc41a78f4be60fb	0.15705787611364727
142	0xbfb0a176368cab9d	-0.0649637110879397
143	0xbf72681b553dac20	-0.004493815202162771
144	0x3fa6c18f9af7a622	0.04444550291720996
145	0xbfc1581409f91b4b	-0.1355004357048649
146	0x3fdfe5f775f878d1	0.49841105003896496
147	0xbfcdd2d2bac05df4	-0.23299631231996865
148	0xbfbfe2da35b84dd8	-0.12455524264833373
149	0x3fd27319e812119f	0.2882752195657989
150	0xbfc8e9f440f82297	-0.19463971302345293
151	0x3fb626e8c43aa0ac	0.08653120795009056
152	0x3fc632e9a8ebfcf3	0.17342873333107142
153	0xbfc2a476b41727fd	-0.1456440333698196
154	0x3f7bf61724de0a9a	0.006826486975003343
155	0xbfc07b1e5c232378	-0.1287572812928166
156	0x3fc08b8eb90d22dd	0.12925895724972394
157	0xbfc86b6cf3813b55	-0.1907783688534105
158	0x3fbd0041f8cb6f1e	0.11328518222893222
159	0x3fb90d4b1dc34819	0.09785909153586693
160	0x3fbcebcbcec270ed	0.11297296331253266
161	0xbf9b809b27a1b095	-0.02685778073684782
162	0xbfb89ee7351e3efa	-0.09617466971235081
163	0xbfbe4b52b3ca9217	-0.11833683862148124
164	0xbfc30389853b3972	-0.14854544644772322
165	0xbfb6ad413c2e133e	-0.08858115882146664
166	0xbf479c02c396b16c	-0.0007205022331411687
167	0x3fc2e7e25a43ce8b	0.1477015438791692
168	0xbf8bcf6316efa3b1	-0.0135791531919994
169	0x3fbf34e437974a21	0.12190080983354125
170	0xbfd188b9e5bfcdfa	-0.27397010265778443
171	0x3f993df0068a2a89	0.02465033569255096
172	0xbfc8758365533109	-0.1910862202406707
173	0x3fb4a0a7550cc4a4	0.08057638002789475
174	0x3fa790e643ef61fc	0.046027370255334404
175	0x3fb9304677ccb3df	0.09839287209315682
176	0xbfa1171f59a06dbb	-0.03337953538013091
177	0x3fd2995ba97b707d	0.2906102328395333
178	0xbf6deb3420d4a4e5	-0.0036521928910998474
179	0x3fc1f9d25de522dd	0.14043645462722668
180	0x3fc426fbc97b6f21	0.1574396833228713
181	0xbf7177bcaa4423d8	-0.004264580700927355
182	0xbf9c747d579ea6e7	-0.02778812262810151
183	0xbfccf69c071a9583	-0.226275924175905
184	0x3fc30e1f1a6c1309	0.14886845388550565
185	0xbfc1d779e350ffa9	-0.1393883094733586
186	0xbfb3ea497da80fd4	-0.0777936870363754
187	0xbfbf63a907d57e51	-0.12261444512614018
188	0xbfcff5e73abe4ff4	-0.24969187134104198
189	0xbfd2dea9d4452547	-0.29484029511930426
190	0x3fb628ee62ec4054	0.08656206050022891
191	0xbf7c228cf362f04a	-0.006868887509139008
192	0x3faf97e3c9295efd	0.06170570211969382
193	0xbfbade2a14ee1fab	-0.10495245944014069
194	0xbfd2c5077ccec35f	-0.293275710947503
195	0xbfb7a0c4e1a230f0	-0.0922968912947828
196	0xbfb849db0a88ef12	-0.09487694747161537
197	0x3fccc404924585dc	0.22473199026266755
198	0xbfc2003d5d42fae0	-0.1406323151949982
199	0x3fa23964493fdc6b	0.03559411424787914
200	0x3fbe6eff8469a0a1	0.1188811968110053
201	0xbfad4070e33b2aab	-0.057132270563291364
202	0x3fc799027eb27a36	0.18435698686967478
203	0x3fc7eeec08bb97bf	0.18697882105260352
204	0xbfcef1a95bdd79d8	-0.24174992547609864
205	0x3fc5dbd2e9501924	0.1707709922049584
206	0x3fd2e7790853f998	0.29537797749790107
207	0x3fb0b31a055135ba	0.06523287420096482
208	0xbfb3545efaf93333	-0.07550614955216588
209	0x3fb1bc0965298bbb	0.06927546233923369
210	0x3fd301bddc30ba99	0.2969813013359413
211	0xbfc6af3b885f99b7	-0.17722267302378977
212	0xbfc1e48dcb529cad	-0.13978741100183836
213	0x3fc5c9792865a94e	0.17021097633853305
214	0xbfc1190554e90d2f	-0.1335760750390391
215	0xbfd2d1dd11fa7d2e	-0.2940590549059888
216	0x3f768678b57a65a0	0.005499335784088372
217	0x3f96f6505c387d71	0.022423987988188402
218	0xbfc8b87e966ec8aa	-0.19313032479619113
219	0xbfd3137ca4265583	-0.2980643847489192
220	0x3fcc4be9e3442073	0.2210666999528744
221	0x3faf683762bfba90	0.06134198265487101
222	0xbf98ee4e5154151f	-0.024346564973730552
223	0x3fb714f45f4d7734	0.09016349150394093
224	0x3fcb813b5bf93f76	0.21488134375476492
225	0x3fbf7de004e0ff00	0.12301445120919752
226	0xbfd6adc057c8f838	-0.35435494015462465
227	0xbf931866e015e413	-0.018647773196310235
228	0x3f978ab7b7098f0a	0.02299010328933008
229	0x3fb2c09961ca9854	0.07325132977948218
230	0xbfd52e48ce250ba2	-0.3309499753124162
231	0x3fc1f936e4324e1d	0.14041792051703875
232	0x3f4a27bb9627e9ca	0.0007981935453352182
233	0xbfa607836fbaaf44	-0.0430260728729466
234	0xbfa3eae57f194839	-0.03890149284838213
235	0x3fc3e4f862257195	0.1554251174192244
236	0xbfc6b56fe888372f	-0.17741202215295845
237	0x3fb4905c79f6c4dd	0.08032777764926231
238	0x3fcab091c975551c	0.2085134729083301
239	0xbfccc93c08a695d5	-0.2248911897888052
240	0x3fb20c746a7acf4c	0.07050254439928699
241	0x3fa1ffe1d0d9e5cf	0.03515535044148132
242	0x3f9d29026cfbd83f	0.02847675123390325
243	0xbfd2bd46dc06bad7	-0.29280253874723655
244	0x3fda02e46015b63a	0.40642651923448947
245	0xbfc6f260cd010a40	-0.1792717934605026
246	0x3fc460ede92d1e56	0.15920804868277355
247	0x3fc9ebfd9a37db1d	0.2025143626230709
248	0x3fcd6e389690214c	0.229926179425329
249	0x3fb23d86f99f8aa2	0.07125133127514485
250	0x3fa70bcc6af33eac	0.04501189046424989
251	0x3fba2bc34fc74b1b	0.10223026941029582

bias f8 [6]
0	0xbfb8ead2c0db0cdf	-0.09733311851873648
1	0xbf8685fb0e0cc6f4	-0.010997735372800112
2	0xbf9a97fce189ded0	-0.02597041250780202
3	0x3fc14590c026a39d	0.13493546850557162
4	0xbfb7fa34b0338838	-0.09366158773221478
5	0x3fb0b32275db6457	0.06523337724083099
