part_4/Reinforcement_Learning/models_lab1/model_non_zero_top_tryed3.pt (torch, 10123 bytes, 4 tensors)

weight f8 [42, 14]
000000 f4 2d 25 51 a6 82 dc bf 67 3d 4a 4b aa 1b cb 3f
       -0.44547422336901765 0.2117817752482367
000010 68 a8 e2 c8 f8 a3 e3 bf 25 d4 72 69 97 c6 be 3f
       -0.613766090730917 0.12021776508738975
000020 84 af c5 a8 99 3f df bf 51 29 5b 56 3f 5f ee 3f
       -0.4882568500677211 0.9491268812792361
000030 55 f5 0c 98 05 90 c3 3f 40 ff 12 82 1a a9 a9 bf
       0.1528326981005345 -0.050118282678794035
000040 1f 73 32 2f 36 9e a2 3f bf 0b 0d 21 ff 64 b4 bf
       0.036363309155808425 -0.07966608578594413
000050 4c 70 44 6b 46 dd a6 bf 61 e6 67 f4 65 a3 b6 3f
       -0.04465694484153512 0.08843075959148329
000060 06 1e 5a af 89 3a c8 3f af bd b9 fd 7a 91 ba bf
       0.1892864328585661 -0.10378235525580835
000070 fe 46 90 f8 86 6c af bf 0b fd e5 35 06 f5 cc bf
       -0.06137487205718449 -0.22622754699475708
000080 8f b2 7a c0 9d f9 d4 3f b0 a2 35 88 4d 0c d6 3f
       0.32773536488347416 0.3445009069605858
000090 97 35 9d 70 f6 b2 c0 3f 53 e7 66 0a c7 f7 d8 bf
       0.13046150683150579 -0.3901231385785781
0000a0 a9 8c 4f 3f 66 b4 c9 3f 65 75 a2 c6 45 65 a6 3f
       0.2008178528913949 0.04374139833201233
0000b0 a1 2c e9 c7 82 13 b2 bf 93 b7 04 7c 47 7d c1 bf
       -0.07061021214137721 -0.13663571887576306
0000c0 3c f2 97 e7 30 8b c9 3f 2b 88 e6 60 98 56 cf bf
       0.19956027324941938 -0.2448301766535804
0000d0 ea 43 97 43 8b 1a c2 3f 56 54 13 6c ed 74 c0 bf
       0.14143505859695377 -0.1285683419907026
0000e0 05 a1 f9 a9 ba f5 e5 3f 36 8a aa 0c a8 a9 e6 3f
       0.6862462348772459 0.7082100150476609
0000f0 c8 6f c3 4b 64 cd ee bf ee a8 8a d4 d6 a3 c7 bf
       -0.9625722388986953 -0.18468747499475263
000100 88 76 74 de c3 0a dc bf a8 e9 4c 37 7e a4 a5 3f
       -0.43815705036272634 0.042270607233564406
000110 c8 d0 50 92 91 eb aa 3f 17 2a d7 12 3b f9 a3 3f
       0.05257849608497761 0.039010854768623364
000120 41 77 34 ff 2a 1c b7 bf 50 da 74 ce 61 89 c1 3f
       -0.0902735589083621 0.13700506764299059
000130 f2 69 0a 66 dc e6 bd 3f 40 14 4d 7a 07 aa c9 3f
       0.11680390826442258 0.20050137969715998
000140 ed 12 1a 95 ae 72 b2 3f 27 b0 06 46 43 0d ab bf
       0.07206240787679592 -0.05283556203662015
000150 43 f1 5e c8 01 a2 71 bf 3f 5c c9 74 d1 2e e1 3f
       -0.004304892505328009 0.536965110872991
000160 88 00 3d 29 df c1 e8 bf 83 35 1e 4d 5e cf df bf
       -0.7736659818110789 -0.4970317605119236
000170 dc ac e1 16 7d d4 d4 3f e7 d9 5c 8e a6 4e e4 3f
       0.32546927675748605 0.6346009045144542
000180 91 f0 53 71 84 e3 d2 3f 36 f5 5f a0 8d 26 c2 bf
       0.29513655726601323 -0.14180155115892895
000190 92 9c 3c 17 f6 79 9b 3f d8 4d 01 78 eb 5d ab bf
       0.026832432907351995 -0.053450926207599
0001a0 ce c5 6c 39 d1 aa a5 bf 24 7a 3e d7 36 ad c2 bf
       -0.04231885744082896 -0.14591107854808272
0001b0 2e e4 4b ca 2e e6 91 bf 8e 1f 2c 17 28 e6 c0 bf
       -0.01747964009971186 -0.13202382213080138
0001c0 46 57 9c e5 67 d1 c0 3f f1 5f 3c ce 3f 48 c4 bf
       0.13139055930576599 -0.15845487184628795
0001d0 a6 e0 22 85 3b df e2 3f f9 72 50 39 8a 3b 73 bf
       0.5897500610654063 -0.004695453583761327
0001e0 9d 44 e1 80 b1 31 cb bf 45 fc df 98 ec d3 d5 3f
       -0.2124540213867804 0.34105982712930355
0001f0 c1 72 96 76 ff 08 c0 3f 77 92 5b 77 98 21 94 3f
       0.12527459421553114 0.01965940693379983
000200 15 6b 41 f5 e0 3b cc bf 55 0f c5 12 f5 40 cd bf
       -0.22057735419624494 -0.22854484001629297
000210 6e 26 04 14 23 f9 b3 3f b7 b7 62 c1 a1 48 bd bf
       0.07802027929951702 -0.11438952418640623
000220 2e 2d 23 58 44 8c b1 bf c6 6a 7c 74 b6 b7 a1 bf
       -0.0685465541056842 -0.03460474178264898
000230 77 e3 e3 e6 08 5f d7 bf 9e 69 2a a1 ba fe e1 3f
       -0.36517546222562863 0.5623448512808868
000240 33 e8 b1 67 6f b6 b3 bf f0 0b 9c 02 d7 f5 c6 bf
       -0.07700248986830686 -0.17937743785304816
000250 e5 95 5a 5e 19 bb d9 3f b9 ec 25 06 e0 5d c1 bf
       0.4020446225570978 -0.13567734050943672
000260 3a c0 03 b6 0f c1 c1 3f 27 63 b5 be 53 a9 a2 bf
       0.13870426547464537 -0.036448113469935976
000270 a5 bc 39 e7 84 79 8e bf f1 4f a6 89 f0 94 cb 3f
       -0.014880216890757867 0.2154827758901088
000280 e3 9b b5 87 68 02 d1 3f 6a ff fb be 5f 4a a1 3f
       0.2657719922339636 0.03377055364944577
000290 54 96 05 b4 3e e4 d1 3f 9a 3d bf f4 12 7a ba bf
       0.2795559652352939 -0.10342520213384035
0002a0 0a ef ec c6 c4 60 c4 3f a0 f9 7a c7 76 8a e0 bf
       0.15920314515266681 -0.5169023414708143
0002b0 36 2e 7d 7b 7c 7b f3 3f 19 93 15 fc fd 89 c0 bf
       1.2176480125225573 -0.12921118553926972
0002c0 82 39 4f 7f 01 78 d5 bf fa 68 18 55 7b 0e b4 bf
       -0.33544957573476364 -0.07834597423098791
0002d0 4f 57 33 20 d7 0a c6 3f bd f4 74 a1 a8 a9 8d 3f
       0.17220582077305344 0.014483754565498658
0002e0 c1 4c 06 9d 34 6e 97 3f c9 cd f7 b7 cc b8 6d 3f
       0.022881338199636007 0.0036281584177630705
0002f0 53 7b 94 c1 25 bb a3 bf 2d 73 f4 cd 20 e9 c8 3f
       -0.03853719699895088 0.1946145063056063
000300 1a 8a d3 8e 5b 11 a8 3f 5f be 38 14 a3 79 b6 bf
       0.04700742834554124 -0.0877935337418818
000310 c9 78 c0 6d 4d b5 df bf 22 3d 5a e4 68 4b c8 bf
       -0.49544082372620984 -0.1898013224604052
000320 6f 47 73 67 00 5c e4 bf ad 49 a7 81 34 22 ea 3f
       -0.6362306614412158 0.8166754276556297
000330 61 e9 99 bf dd 4b d2 bf b2 a0 0f 06 3c aa c2 3f
       -0.28588050566727047 0.14582014366101742
000340 a8 7f 96 44 8c 80 bc 3f 77 07 9d f3 3f b8 98 3f
       0.11133648561963005 0.02414035725019611
000350 f9 1a a5 c2 35 74 b9 3f c7 0d d7 4a 41 54 50 bf
       0.09942947389673042 -0.0009966504688784115
000360 94 fc ec 99 4b df 89 3f 6e 55 0e c7 5d 3c c2 bf
       0.012632933268490278 -0.14246723384409726
000370 1e 8f e2 5e 13 64 ba 3f 44 12 49 9d 73 ef b0 bf
       0.10308953348663549 -0.06615374174095573
000380 37 1a ba 5b d9 0e b2 3f 0d 42 35 fe ce 53 cf 3f
       0.07053907861163898 0.2447451344728652
000390 99 37 b8 58 39 73 cc bf 0e f6 2b 53 9b 01 b9 bf
       -0.22226635772716177 -0.09768076687392854
0003a0 e7 b4 10 b7 8c 15 c2 bf a5 4b 92 56 17 5b d4 3f
       -0.1412826436875669 0.31805976347203063
0003b0 b0 bb 92 af 33 a3 c2 bf ef 9a 48 c5 0b 34 c5 bf
       -0.14560552666577342 -0.16565081723202676
0003c0 d7 a9 e9 e1 37 97 c5 bf a5 3d 28 c1 cf 67 c3 3f
       -0.16867731600662125 0.15160557681563805
0003d0 06 ea e7 bb ea e8 c6 3f 90 65 33 a3 9f eb b9 bf
       0.178983060599265 -0.10125158056634675
0003e0 62 b5 a0 d3 74 82 9c bf 37 cf 5a 7f a5 ab d2 3f
       -0.027841401497587077 0.2917264693926315
0003f0 19 52 56 3d 37 43 dc bf 8f c6 c1 21 b6 1f e1 bf
       -0.4416025256153105 -0.5351210269274861
000400 a3 6f e9 9f 84 65 e4 bf f7 b1 9b 7b 67 5c e7 3f
       -0.6373923419264326 0.7300298132154798
000410 5e ae f3 2d dd be dc 3f 3f 79 7d 10 54 b2 d5 3f
       0.44914941298950406 0.3390093003307761
000420 c6 9a a0 e2 93 9b cd 3f 18 43 b2 e1 05 bc b4 bf
       0.23131035390652793 -0.08099400291599712
000430 10 73 89 7a b5 e3 a2 3f 56 6b 26 ee 92 bb c3 bf
       0.036893531044119965 -0.15416180256292006
000440 b8 b1 ea fa d7 39 ad bf fb 17 a9 6a 11 e9 bc 3f
       -0.05708193719815163 0.11293133596436171
000450 8c 6b a8 c7 84 74 cc bf 52 91 cf 39 ba 54 b1 3f
       -0.22230586766167126 0.0676990882053066
000460 17 f7 a8 1c 1d c9 be bf a8 8c ea 9e df 54 a3 3f
       -0.12025625180919196 0.03775690855879904
000470 8d a5 35 10 f6 55 b3 bf c9 fb 29 00 45 67 bf bf
       -0.07553041358700892 -0.1226695180321108
000480 4e cc 90 e3 ba f4 cf 3f fe f5 d6 bc 62 f4 d2 3f
       0.2496560679588548 0.2961661190164192
000490 08 99 09 d6 1b 6b a8 3f 10 e8 85 ed 34 b2 c7 bf
       0.04769217479479165 -0.18512593839460623
0004a0 bf d9 a9 94 87 da d0 bf b3 f3 8d 62 ea e2 c8 3f
       -0.26333798902433253 0.19442491352302013
0004b0 09 b4 6d d4 a4 67 ce bf 08 0c 1c 98 f9 f5 ad bf
       -0.2375379597901033 -0.058517265146314
0004c0 95 02 7e 1b fe 54 b5 bf 58 04 f8 40 95 be b0 bf
       -0.08332813426205583 -0.06540806614067785
0004d0 64 0c 98 80 fa 68 f8 bf c9 31 8f 78 5c ca ea bf
       -1.5256295226288552 -0.8372022967028495
0004e0 fd fd b9 83 8e db ee 3f 53 33 1f 3d 37 7d be bf
       0.9643013546737503 -0.11909814111932109
0004f0 e2 7c 6c ed c7 ad ea 3f 58 bd 9f f9 e4 40 c5 3f
       0.8337134968932356 0.1660429209582428
000500 56 22 27 cc 80 7c a2 3f 91 f0 a7 d5 d6 61 a7 3f
       0.03610613338566242 0.045668328839355905
000510 07 f5 b2 28 c1 88 74 3f 97 10 3c ad 52 ee c4 3f
       0.005013231780307998 0.1635230394241531
000520 2f cc b4 6f e8 6f b2 3f ed 71 ea 03 16 d6 bf 3f
       0.07202007987216129 0.1243604430732785
000530 8d 77 ee f7 35 40 c5 3f 29 2b 32 37 58 42 ac bf
       0.1660220585444531 -0.05519366906908935
000540 89 1d ef 5a 16 a0 d3 bf 4a 32 e8 7e 86 86 d0 bf
       -0.3066459548976686 -0.25821077721846974
000550 b9 3f ab ea 9e 34 bb bf b7 2f 5e 3a 0b c8 cb 3f
       -0.10627167920324511 0.21704235410686376
000560 2c cf 50 2f 80 02 c2 3f fe b5 4f 33 49 c7 aa bf
       0.1407013159783842 -0.05230168105468279
000570 e1 4e f1 4e c1 47 c2 3f aa 55 d5 4e 9c cf d2 bf
       0.14281479220027563 -0.2939215440613575
000580 ea 27 7b e3 ed 62 d3 bf 12 07 d9 de f0 50 c6 bf
       -0.3029131623740101 -0.1743451202510689
000590 8d de 8d a2 c5 16 ca bf 62 6e 64 0a cf 57 b1 3f
       -0.20381994664397887 0.06774610522955407
0005a0 e3 36 56 3f 97 25 b5 bf 81 65 48 49 ad aa ce bf
       -0.08260484024341568 -0.23958364561330472
0005b0 12 a6 e2 e4 e8 c9 c7 3f 03 40 73 7e 5f 3e f3 bf
       0.1858492963413459 -1.202727788873745
0005c0 21 b3 df a5 e3 ae de 3f 4d 50 d7 b1 46 20 d9 3f
       0.4794243926869957 0.3925949799279394
0005d0 e9 47 29 ac 3e a4 db 3f 7c 46 e6 21 ed 3a a6 3f
       0.43189970791456617 0.0434183219796411
0005e0 68 e2 0f 21 56 6e aa 3f 7d cb 79 9a ad 8b a4 3f
       0.05162305024709185 0.04012815962496228
0005f0 e8 ee 87 be 08 da 95 3f 89 84 54 b2 b8 d1 c4 3f
       0.021339546803559012 0.1626501913788483
000600 bb d7 c0 b5 5d 1a 7f bf cb 4c 0e 6d 7c 61 b2 bf
       -0.007593504004082814 -0.07180001890656056
000610 1e 56 6d 46 1e 24 ad 3f a2 67 71 df 95 42 c5 3f
       0.056916185471589595 0.1660945263891423
000620 52 1a f9 85 ba 50 cf bf d4 e4 cf 67 60 a2 a2 3f
       -0.24465114156392304 0.03639508502232905
000630 e0 c8 02 fe fc a1 e7 3f 33 51 da 1f 45 e4 e6 bf
       0.7385239564084962 -0.7153649923443822
000640 93 01 b0 89 23 7b f3 bf 62 13 b0 cd 29 06 f2 3f
       -1.2175631884020717 1.1265047106437227
000650 1a c8 c8 f2 8b 0c 89 3f ab 99 df fb 7d 41 af 3f
       0.012230962130249923 0.06104654025675712
000660 2f db d4 b4 9d 76 b1 3f b3 26 9b bf c1 f1 bc 3f
       0.06821618714171217 0.11306391647226625
000670 52 60 e3 81 c4 80 b0 bf 5b 5d 43 e0 9f fe 94 3f
       -0.0644648377523265 0.02050256544393157
000680 a1 67 16 c3 2a 83 c2 3f 1b ca b0 ee 34 37 ab 3f
       0.14462790036924125 0.05315556920722405
000690 77 60 e5 37 4c 73 e1 3f 7b cf 5c da 9a ec e6 3f
       0.5453244296759426 0.7163824334042909
0006a0 ab 38 e1 38 4a a7 f0 3f 33 a9 b1 da 52 2d ef bf
       1.040842268168073 -0.9742826720587686
0006b0 4d e4 3a 31 b7 23 b2 3f df bd 2d d3 d5 93 a3 bf
       0.07085747672944472 -0.038237268475196144
0006c0 01 e4 1c e2 b0 bc cd 3f 01 49 56 87 b0 aa be bf
       0.23232089081446364 -0.11979201606871827
0006d0 e0 00 4f be f4 75 9a 3f 1c c7 7a c1 64 08 9c bf
       0.025840591540828295 -0.027375768956239374
0006e0 85 87 ed 11 c0 2a c0 3f 9f d8 12 1b 12 26 b0 3f
       0.12630463481314905 0.06308091317154883
0006f0 aa 8f 46 24 6c 1a a1 3f 68 94 82 24 e2 bb c0 3f
       0.03340471213166947 0.13073374541014293
000700 64 e4 3c ac 68 cc da 3f a7 ee 90 82 a9 e3 de 3f
       0.41872612781623375 0.48264539480781327
000710 49 6d 20 4b 00 7e c0 3f e9 d3 06 c7 ff 7d e0 3f
       0.12884524982733073 0.5153807532539051
000720 8e 15 c9 2a 36 0d ad 3f 7a 35 1f 03 8c 81 ef bf
       0.05674142143520121 -0.9845638333296585
000730 a2 c9 c4 a4 f9 91 b1 3f 75 7e f7 46 2c 9d c3 3f
       0.06863365433381444 0.15323403802084426
000740 75 d7 61 70 eb ac a4 bf 24 06 58 33 9f 7b c4 bf
       -0.040381772488145375 -0.16002264029525393
000750 10 e9 c1 f4 a3 d1 97 bf f8 d0 02 9c 57 0a 9b bf
       -0.023260652364549605 -0.026406639954715566
000760 0e d4 dc 1d ec a4 cb 3f 76 09 51 36 fa 5f d0 3f
       0.21597053011069572 0.25585799507475515
000770 b5 30 33 30 ba c5 d0 3f b2 b4 84 0b 86 36 ec bf
       0.26206831652667556 -0.8816557145088579
000780 f9 b8 bf 46 37 d8 e2 bf e8 48 26 b3 2c 11 c2 3f
       -0.5888935453238268 0.1411491274598753
000790 2c ef 77 b1 d7 a3 c8 3f 5b 0f a8 23 a7 45 c2 3f
       0.19250007787183543 0.14275063744582436
0007a0 d5 07 ff 24 22 e0 aa 3f d6 4f 0d 68 82 ef 84 3f
       0.052491251960887254 0.010222452927031538
0007b0 61 31 1f 2e f2 95 cb 3f 63 92 13 42 ec 2e 9e bf
       0.21551348926585503 -0.029475871594416236
0007c0 cf 4a 81 10 0c 0d 60 3f b9 8b f1 7e 90 43 c5 3f
       0.001959346354888459 0.16612440298476175
0007d0 5c 6d 6c 47 19 58 b7 3f dc 48 3d 9a a4 3d c0 3f
       0.09118803018320903 0.12688119441242562
0007e0 c0 07 e5 9b d9 12 cb 3f 8d ad 2b dc 98 33 df 3f
       0.2115127574161857 0.48752423764263925
0007f0 9b 7b 1c 1a e2 53 de 3f 41 73 f5 4c 6b 00 e2 bf
       0.47386982488563384 -0.5625511649228444

bias f8 [42]
000000 43 62 e6 c8 4c 93 c0 bf 71 46 30 0d 71 b9 c3 bf
       -0.12949523744170408 -0.15409672874425298
000010 30 83 6a fb 52 1c cc 3f f1 27 ab 4b 1b 39 bc bf
       0.2196143844239713 -0.1102463779199352
000020 de 3c 85 12 1e c5 d2 bf 61 13 59 cf 80 19 b9 3f
       -0.29328109558714555 0.09804539739805086
000030 7f 81 05 f0 f6 41 c1 3f f0 14 54 6a c1 29 c3 bf
       0.13482557983207852 -0.14971177760904864
000040 43 3c ae 92 81 b3 d3 3f f2 f5 1b 2a e5 8d c7 bf
       0.3078311855724147 -0.18401779705156646
000050 1c 39 ad 11 c4 03 cb 3f 5a 70 f3 aa 73 0a c5 3f
       0.2110524259864598 0.1643814644547799
000060 07 21 f6 16 f5 13 74 bf 4b 6d 08 e1 94 30 c9 bf
       -0.0049018453422677915 -0.19679509151397165
000070 a4 52 78 19 6f d9 ac 3f 63 f1 64 7a f4 69 a5 bf
       0.05634638963616581 -0.041823997441016635
000080 dd 4d 45 5b 0b 69 cc bf a0 58 ff 9c e0 47 c6 3f
       -0.22195569950655072 0.1740685240353672
000090 d9 67 55 13 78 bd d0 3f a2 9e 7a b2 c6 3f c6 3f
       0.26156427276657507 0.17382129397195906
0000a0 6e 35 18 60 71 42 bf 3f 30 a7 1b 04 bd 97 a4 3f
       0.1221075877767441 0.040220171691386475
0000b0 57 04 e7 36 7d 0d 92 bf 7d 8d 66 8d a2 e7 c0 3f
       -0.01762958190534322 0.132068938296566
0000c0 23 1a e8 f0 86 05 d6 3f 48 b2 01 5d 6f 22 cb 3f
       0.34408734823265 0.2119883731969756
0000d0 05 d1 35 b4 e5 59 b0 bf ab 6a e0 64 fe ae bf 3f
       -0.06387172364867773 0.12376394236381809
0000e0 2b 4d 78 19 63 82 c2 3f ba 8e 22 be b7 f6 c4 bf
       0.14460409873627475 -0.16377922805724215
0000f0 e3 3c 57 96 03 8f c4 bf 30 7a a5 c3 fc 71 a2 3f
       -0.16061444130762145 0.03602590454351107
000100 da c0 13 5d af 19 b6 3f 3e 75 6f 19 8a 27 cb bf
       0.0863294222106136 -0.21214414827310607
000110 07 3a 10 87 ec 2f 7c 3f 74 51 70 6c 18 05 be bf
       0.006881641326812466 -0.11726524970464941
000120 28 a2 cc 4c b5 9b bb bf 1a 88 c7 b8 ee 5a c2 3f
       -0.10784466862663378 0.1434000398867859
000130 31 5b 29 b2 9d c1 94 3f 7a d9 93 b6 f5 93 c3 bf
       0.020269836424940017 -0.15295287527960594
000140 1c a2 44 d7 91 ac d4 3f 67 0e 7d 3d 8b fc cd bf
       0.32303281805300954 -0.2342695284115621

weight f8 [6, 42]
000000 3d bd 2d 27 79 98 bf bf cd c9 7c 39 79 5b c0 bf
       -0.1234203072215125 -0.1277915507030926
000010 3c bc 55 62 5f 33 d2 3f 4b e2 f0 81 33 9a 98 bf
       0.28438553431528013 -0.024025730901686065
000020 33 e8 fa eb 71 c1 b4 3f 6d 50 d2 91 94 43 b8 bf
       0.08107673655732199 -0.0947811943063372
000030 bd 93 40 ad 83 e4 a0 bf fa 7f af 52 5f a9 c8 bf
       -0.03299342622657473 -0.19266883408909036
000040 28 38 1c 71 f6 05 ba 3f 33 22 f4 64 d7 c3 c1 bf
       0.10165348302345534 -0.13878910474183356
000050 59 13 11 19 4e d9 b5 bf a9 9d 7f 81 e9 5d e5 bf
       -0.08534706222515122 -0.6677138833301132
000060 8f 23 84 e6 61 50 ac bf 25 b9 84 aa ff 12 b6 3f
       -0.05530076922338544 0.08622739708946321
000070 48 28 62 3b e7 23 b5 bf 3f f1 a5 8c 41 89 b9 3f
       -0.08257909011641218 0.09975061115068672
000080 87 39 81 f3 23 21 b3 3f 91 ba d3 3d 2f cb ce 3f
       0.07472443289700524 0.2405756999864548
000090 6d 8e aa 8b c6 89 b8 3f 88 62 05 65 c5 89 b4 3f
       0.09585228833980759 0.08022721973737579
0000a0 eb 1e d7 fe ae 17 b0 3f 54 d2 dc b5 7b 96 c1 3f
       0.06286138269126311 0.1374048841477299
0000b0 b7 97 22 c7 b0 51 dd 3f 3f f6 87 53 a1 1c bc bf
       0.4581109947852115 -0.10981186189015889
0000c0 13 5c 9b 3f b1 38 ba 3f 69 23 13 84 ef 64 b3 3f
       0.10242755701925459 0.07575890516740248
0000d0 83 95 ba c9 5d 55 ca 3f 19 93 74 9c c2 dd da bf
       0.20573017454186635 -0.41978516844601327
0000e0 43 83 2e 30 10 f5 a3 3f a2 ec bd 67 4e ab cc bf
       0.03897905910640145 -0.22397785249254293
0000f0 2f 1a 7e 67 f5 7a aa 3f 2a e4 67 71 c4 8b ba 3f
       0.05171934974992031 0.10369518059441477
000100 39 e6 5d 6f 5e c8 73 3f ff 17 11 78 09 2c a0 bf
       0.004829758536169453 -0.03158597555788844
000110 60 da 3a 9d 0d 09 b6 bf 85 eb 42 ed 6e d3 b0 bf
       -0.08607564056988215 -0.06572621624483872
000120 21 94 37 c5 27 c3 80 bf 2d 2e f8 62 e0 4a d2 3f
       -0.008184729295814876 0.285820099496706
000130 99 af 84 24 4e 38 b5 3f 84 9b a6 d2 ec fa be 3f
       0.0828903998523728 0.12101631300775578
000140 82 a2 0c c9 38 91 ba 3f b2 e4 6d 2c bf a6 8f 3f
       0.10377840908462058 0.015454762977002854
000150 e9 1d ef ea 90 cb b6 3f c2 d4 0b 11 70 fe c3 bf
       0.08904367194838127 -0.1562023242219422
000160 8f ed 55 6c 47 8b d2 3f 42 7a cc 44 eb af c9 3f
       0.2897509153333084 0.2006811223918295
000170 7b 15 ee 73 ec d7 a5 bf ad 55 c0 53 85 00 c5 3f
       -0.04266299166833228 0.16407839383525183
000180 8b e3 b5 30 50 a1 c3 bf 07 48 80 cb 2a 6b a2 bf
       -0.15336038950388473 -0.03597387060302997
000190 fe 60 6b 9d a8 34 be 3f c9 f7 24 24 29 a8 c6 bf
       0.11799100726364384 -0.17700685753692216
0001a0 22 0e 4c 29 8c 4a 6b bf dd 6c 97 7c dc 4a d1 bf
       -0.0033314454580038047 -0.27019416968478344
0001b0 ee 64 fa 47 45 f7 b1 bf 33 f0 a4 60 ae 2e dc bf
       -0.07017930037763495 -0.4403491920272728
0001c0 3c 8b 12 a6 b7 55 97 3f 5f d2 de ce 4b e5 c3 3f
       0.022787923346764702 0.15543506241887692
0001d0 ba fe 25 19 a6 f8 b9 3f 54 a3 f8 73 70 8e d5 bf
       0.10145032991385508 -0.33681880307499523
0001e0 01 1a d4 03 c0 80 c2 3f b2 21 15 d7 e4 50 b5 bf
       0.14455413996638813 -0.08326559306181627
0001f0 39 bf 4f 26 f8 49 a7 3f 5e 88 12 4e 7d 91 a8 3f
       0.04548621623678035 0.047984996586152504
000200 4c bf ef cf e1 a3 d3 bf dd 5c 1a 97 eb 77 ad 3f
       -0.3068775683050162 0.057555544085681844
000210 a0 b5 29 50 9a ca c4 bf ec ab fd 76 ac 49 8a bf
       -0.1624329463406129 -0.012835833913149096
000220 7e 9a 9f 77 72 b9 b0 bf 8c 9d 60 6b 35 05 d7 3f
       -0.06532969875807201 0.3596929119689427
000230 7b 1b 6e 1f 1d 64 8d 3f b9 86 dd ab f3 f5 dc 3f
       0.014351108094855061 0.4525117090580398
000240 af 38 07 5a 3b fb d1 bf d2 d4 af 4d 46 cd c3 3f
       -0.2809589747602201 0.154701984341648
000250 f4 0b 71 92 99 0e b4 bf 52 ac 68 11 f6 e4 9d 3f
       -0.07834777665361498 0.029193730175546335
000260 8c 45 e3 62 5f b5 a8 3f d7 24 77 d3 7f 5c 95 3f
       0.04825876314283581 0.02086066940481576
000270 e7 9f c0 6f 46 2f 8d 3f 01 92 2a a8 ed ed 92 3f
       0.014250326428808037 0.018485749615722472
000280 b4 e5 7a 4a ba ff ac 3f 65 42 9b 74 38 f6 90 bf
       0.05663854750805389 -0.01656425677976116
000290 67 e2 49 82 7a bb c6 3f 94 b3 2d 9b 49 50 c2 3f
       0.17759639131306246 0.14307518078876724
0002a0 69 d4 55 25 0e 5e c2 bf 86 89 b1 b5 04 54 b5 3f
       -0.1434953386593947 0.08331326900364475
0002b0 74 36 03 97 d6 2d d3 bf 52 78 bf c7 a6 93 ce bf
       -0.29967274424857426 -0.2388809657413185
0002c0 e9 4a 88 81 77 2b c8 3f 51 ea 7a 01 0a f9 8c bf
       0.18882650208305243 -0.014146879358453964
0002d0 c0 41 6e 75 77 23 d0 3f bd 90 09 54 6b cf c1 bf
       0.25216471164551635 -0.1391424331988044
0002e0 62 fb 77 1d 93 e7 c2 bf 2b d3 2e 96 06 bd c5 bf
       -0.14769209803486222 -0.16983110745572935
0002f0 c7 91 9f 4a ce f7 c1 bf 65 09 07 f1 5c 46 d8 3f
       -0.14037493365971285 0.3792946199211172
000300 38 45 78 1c 08 65 9d 3f f4 aa b0 b6 6d 66 b3 3f
       0.0287057177902785 0.07578168592651108
000310 9a e1 f9 bf 34 71 ce 3f ee a0 8a 42 38 00 d0 3f
       0.23782977460701887 0.25001341341204764
000320 07 18 27 56 be df 98 3f fa 91 0d c6 6c 12 c5 bf
       0.02429101372560896 -0.16462478323514046
000330 cc 7f 84 16 c8 c2 c4 3f d0 15 b9 7b 93 b0 b1 bf
       0.16219426249972313 -0.06910058756428517
000340 93 ba 70 72 09 3c c8 3f 41 ab 22 90 38 2b b8 3f
       0.1893321808615452 0.09440949934893884
000350 86 7e 86 7c 4c 0c c1 3f 80 5b fe 2f ad ae b7 3f
       0.13318782883014907 0.09250910207479812
000360 7b b7 f7 d4 44 83 d4 3f 59 3e 2b 85 4b a0 b2 bf
       0.3205120162737029 -0.07275840760416354
000370 01 4d 7d 18 a0 5c b0 bf b2 c1 de e0 11 3c ae 3f
       -0.06391335103880992 0.059052046489685664
000380 08 7d 95 c5 45 7c c5 3f 88 e2 10 6e f4 11 c9 3f
       0.16785499713567043 0.19586043714823043
000390 00 c5 f3 6d 28 1a d8 bf 66 a3 aa 8d 97 a4 b7 bf
       -0.3765965532066531 -0.09235522469192645
0003a0 24 72 80 f1 5e 69 b3 bf 75 7e 71 b3 03 bd b4 bf
       -0.07582658191717734 -0.08100913172665421
0003b0 80 97 9f df 36 c8 77 bf b4 14 8f 5b 04 fa b0 3f
       -0.005806173658106206 0.06631495700192397
0003c0 70 af 98 b4 85 84 cb bf 68 6b 61 7e e8 b7 c0 bf
       -0.21498175924477492 -0.13061243220257812
0003d0 5f e4 8e 50 d7 0a be bf 5e 00 3b 60 c3 49 79 bf
       -0.11735292164566279 -0.0061738616820435615
0003e0 92 00 81 30 a6 40 b6 bf 30 63 74 23 91 8b bf bf
       -0.08692396816423045 -0.12322337260810623
0003f0 a6 78 92 c8 30 0b 98 3f ad 75 57 3e 2d 4e bd 3f
       0.023480188600495076 0.1144741322709339
000400 05 33 5c 60 87 af b3 bf b6 98 9e ee f4 85 b8 bf
       -0.07689710714857874 -0.09579401803657359
000410 3c d6 6c 39 fe cf a0 3f 8e fc c9 b1 da c0 83 bf
       0.03283686114302184 -0.009645184088411331
000420 8a 91 4b a5 28 90 b8 bf db 3b 29 2f 05 e2 d5 3f
       -0.09594968829657638 0.34192018132756424
000430 3c be f9 da 46 af 9d bf 0c 16 0f 7c d5 86 cc 3f
       -0.02898894034882303 0.22286480481686544
000440 eb 36 2b 3a ab ab c0 3f f9 46 04 f3 a1 c2 a1 3f
       0.1302389177348496 0.034688054003835185
000450 2f 21 89 3e bc b3 81 3f 4f b5 4d 40 56 f9 b7 3f
       0.00864359918445298 0.09364832944784961
000460 61 20 dd ef 3a f0 d2 bf 25 8e 27 2a c2 a5 dc bf
       -0.29591248916813667 -0.447617093245045
000470 95 2b 99 c3 5d 21 bd 3f 81 d9 52 98 2c 95 c2 3f
       0.11379037881230965 0.1451774352805835
000480 31 43 7d c2 19 a0 d3 bf 94 a9 25 96 52 ff b3 3f
       -0.3066467665967592 0.0781146637506594
000490 b4 68 21 28 7f e3 b3 bf 52 0f 21 21 72 da 9c bf
       -0.07769007425068503 -0.028177054664652097
0004a0 e5 76 19 be 5c d2 b5 3f d9 9e 53 30 21 13 b5 bf
       0.0852411235914264 -0.08232314519738838
0004b0 1f ea 35 49 d7 95 d4 3f 10 b2 af b2 67 8f c6 bf
       0.3216455664584447 -0.17625137543599623
0004c0 8c 1f 27 49 14 0a a1 3f 33 e5 d0 f9 83 6e c2 3f
       0.03328002350786993 0.14399766634032005
0004d0 f0 94 dc 63 6d ac ab 3f ec 58 54 22 61 ee a5 3f
       0.0540498909379411 0.04283431572018678
0004e0 f7 25 0f cd 5c 56 c0 bf 78 38 fa f3 5f e4 c5 bf
       -0.12763557446150717 -0.17103194630584873
0004f0 33 90 bb e4 ee 71 c9 bf b2 ab dc c8 e3 c2 87 bf
       -0.1987894646509872 -0.01160219151241457
000500 27 4e fc eb 5a 91 b2 3f d1 33 35 49 a5 27 a9 bf
       0.07253044377676386 -0.04913059729242487
000510 52 49 fb 55 b0 f2 b2 3f a9 2d c6 7e d2 b0 c4 3f
       0.07401563738975384 0.1616461867346122
000520 48 a5 51 b7 42 49 a1 3f d1 bb 7f 2d 77 ce c2 bf
       0.033762059095190866 -0.14692582818631064
000530 04 ef 56 06 61 f8 cd 3f 49 fe 9d 38 b1 7a c5 3f
       0.23414242562818555 0.16780677093992072
000540 40 4e 45 78 73 49 bd bf c1 3c 25 8f 33 1e 9e bf
       -0.11440202413842204 -0.029412084209351933
000550 d1 a3 d1 b9 74 4d ca bf 46 6c 2c 30 f6 5e c1 3f
       -0.2054887683218838 0.13571050026152615
000560 8f 01 e8 61 9e b8 b5 bf ee 52 2f a4 9e 58 c3 3f
       -0.08484830751695525 0.1511419583972819
000570 5e ee ae 54 0a 48 c2 bf 36 b1 37 73 9f 7b bd bf
       -0.1428234971516415 -0.1151675850193826
000580 39 85 db e8 47 69 bd bf ff bc 9d dc c8 24 bc 3f
       -0.11488770899770352 0.1099362887014088
000590 08 a6 af f3 ae 10 a3 3f 8f 3b cc cb 74 97 dd 3f
       0.03723665928539438 0.4623691549504025
0005a0 0d 0d 65 c9 f0 06 8e bf 02 5f e7 81 74 19 c2 3f
       -0.014661675592498225 0.14140182822188058
0005b0 dc d9 ff 75 8a 59 df bf 99 da 35 42 dc ba b3 bf
       -0.4898401405656878 -0.0770700132032779
0005c0 14 05 c1 2a 5b 49 96 bf 73 cc 3e e0 3c a5 c7 3f
       -0.021764206394668653 0.18473015737035645
0005d0 b2 37 08 23 b3 8c af 3f ae 65 11 b5 14 ff b9 3f
       0.061620328928355575 0.10154847546200216
0005e0 ea 96 b2 31 88 48 c9 3f 31 66 d7 c3 df a1 6a bf
       0.1975260012306344 -0.0032510157022727294
0005f0 e0 70 38 03 5e b4 80 3f aa 73 57 73 71 8d b2 3f
       0.008156523202210442 0.0724707514377331
000600 84 e9 e6 e5 4d 33 e1 bf bb 29 ff 3c 85 8a c3 3f
       -0.537512730624528 0.1526648090205763
000610 57 38 a8 41 22 cd b5 bf 20 96 97 dc 74 33 b4 bf
       -0.08516134360272197 -0.0789101637415901
000620 94 85 ae a8 3b 09 b1 bf 76 a1 b8 8c cf be a6 bf
       -0.06654713504987902 -0.044424520423777134
000630 11 76 7c 2f d2 ba 74 3f fc f2 72 0e 6c 4c b6 3f
       0.005060978924829055 0.0871036086345604
000640 fc 9b ec 18 47 58 be bf 3f 86 64 b4 78 99 bd bf
       -0.11853451117040942 -0.11562303928487781
000650 eb 81 62 a6 11 5c b1 3f 69 66 e6 b9 fd 61 ae 3f
       0.06781111061219007 0.05934136289870368
000660 66 64 83 a8 4b 06 cc 3f 1d b4 05 55 6b f2 bc bf
       0.21894212463556356 -0.11307402444590804
000670 db 10 cb 0e b9 54 a8 3f 09 21 cd 3d ff 89 b6 3f
       0.04752138429242488 0.08804316767521327
000680 50 12 3d fe 97 dd b3 bf fd a8 94 4a 85 b1 8f bf
       -0.07760000187870131 -0.015475312555811355
000690 c9 08 b4 8a 5d b3 d3 3f eb ad 0a 1b f3 82 c5 bf
       0.30782259507408277 -0.16805876560589125
0006a0 39 c6 fd b2 e5 f5 91 bf ec 80 3f a6 33 ff cc 3f
       -0.017539586114656756 0.22653813951092816
0006b0 cc 44 dc 61 cb 3c c2 3f cf ad 1b cb 4c 76 ae bf
       0.14248029974309018 -0.05949630717608622
0006c0 2d e0 6b 55 a0 a8 bb bf 2b 32 34 de dd 45 b4 3f
       -0.10804178319438114 0.07919108080768271
0006d0 e1 67 8c 14 2a ac b3 3f 0d ed 67 63 d4 fc ba 3f
       0.07684576989814175 0.10542037417319623
0006e0 71 6c a1 f3 14 15 c3 3f f0 b3 61 82 c4 b8 b8 3f
       0.14908086677573665 0.0965693300547199
0006f0 5b ff b1 2e 19 55 a6 3f ae 8b fd fc d5 45 90 bf
       0.04361799902926463 -0.015891402784642565
000700 aa 65 57 89 d0 6d e1 3f b0 78 42 d9 b6 bd b8 bf
       0.5446551020096895 -0.09664480976286671
000710 1e 72 6a 8c 11 50 d1 bf 5b 56 f9 52 af 05 b8 3f
       -0.27051199638825263 0.09383674407703195
000720 0e 21 93 9e d0 bb b1 bf 23 a3 b4 ae 29 20 9c bf
       -0.06927207824185563 -0.027466441429314103
000730 7b 75 5d e0 2f 66 c0 3f 2c f6 f0 b7 38 ca b3 3f
       0.128118500283488 0.07730440607789352
000740 bc 10 1a 56 44 42 d6 bf 65 8b 95 ad 3d 19 b4 bf
       -0.3477946129644456 -0.07851014602560509
000750 40 8c 9f 5d ed 78 c4 3f 2e 8f 52 54 4b f0 ba bf
       0.1599404055733391 -0.10522909935621946
000760 74 e2 5b d0 81 f1 c6 bf db 3c 7f 9f 1c 43 bd bf
       -0.1792452113511619 -0.11430529493303558
000770 85 30 ba 93 6c 71 bf 3f 12 b5 67 db 5c 22 cb bf
       0.12282446486114125 -0.21198616707935308
000780 a9 b7 5f eb 0d 26 d1 3f 93 a5 f9 53 dc d4 ad 3f
       0.2679476545880513 0.058264622927548214
000790 a4 71 fc 7c cf eb c7 3f ec 05 69 c7 91 95 c1 bf
       0.18688386538350443 -0.137376997345242
0007a0 d3 66 88 58 cc e4 b9 3f b9 89 2c ce a2 08 a6 3f
       0.1011474338669374 0.04303463713428663
0007b0 fa 42 3b 30 12 fa a2 bf 11 ff b3 44 03 b0 91 bf
       -0.037064140689499994 -0.017272997921280956
0007c0 57 17 f7 25 0d 20 9d 3f 5f 3e 72 0f fa 5a b0 bf
       0.028442578737461 -0.06388819577318249
0007d0 b0 a0 33 0d 31 a1 b8 bf a8 12 15 0c 6c b7 ad 3f
       -0.09620958874040997 0.05804002425660332

bias f8 [6]
000000 7a 33 94 d4 b1 0e b6 3f 0b 29 45 70 1d ba a6 bf
       0.0861617225638848 -0.04438869472012826
000010 30 83 78 5a 53 85 c0 bf fa f9 dc 81 30 1d b1 bf
       -0.12906877439038444 -0.06685164614189168
000020 a0 c9 fa 9d 6b 7e b6 3f 8c 57 f3 0e 6d ee c5 bf
       0.08786652190136701 -0.17133868436820554
